trained_model/model_epoch388.chrom20.pkl (torch, 41775 bytes, 18 tensors)

encoder.conv0.q.weight f4 [32, 28]
0	0x40510d3b	3.2664325
1	0x403c4965	2.9419796
2	0xbea3d4a4	-0.3199817
3	0x3d227cff	0.039669987
4	0x3e1c8258	0.15284097
5	0xbfe10ffe	-1.7583005
6	0x3f196ba0	0.5992985
7	0x3e8e93d2	0.27847153
8	0x3dfa2a46	0.12215094
9	0x3f670205	0.90237457
10	0xbeb81bc3	-0.3595868
11	0xbf2d3faf	-0.676753
12	0xbe999140	-0.2999363
13	0xbe86c3fa	-0.26321393
14	0x4063a524	3.5569544
15	0x400c1992	2.1890607
16	0xc0e38e90	-7.1111526
17	0x3cd353cd	0.025796795
18	0x3df46ff7	0.11935418
19	0xbf1bd93c	-0.6087835
20	0x40e95541	7.291657
21	0x3eeafd9c	0.45896614
22	0x3d981fa9	0.07427914
23	0x3ff9deab	1.9521078
24	0x411a5e84	9.648075
25	0x3fe5e1d5	1.7959543
26	0xc0c97cd1	-6.2964864
27	0x40732f14	3.7997484
28	0xbf8f9568	-1.121747
29	0xbf9e5feb	-1.2373022
30	0x401d0868	2.453638
31	0x3db6956c	0.08915219
32	0xbd87f772	-0.06638993
33	0x3e6ceb8f	0.23136733
34	0x400b7af1	2.1793787
35	0x3f1c66e9	0.6109453
36	0x3eff8e80	0.49913406
37	0xc003a8e3	-2.057183
38	0x3e9e362c	0.30900705
39	0x3f4a1e51	0.7895251
40	0x3f69aa53	0.9127552
41	0x3fd09507	1.629548
42	0x4066a4c7	3.6038072
43	0x409016ab	4.502767
44	0xc00efe96	-2.2342887
45	0x3edb82b6	0.42873162
46	0xbc7faf51	-0.0156057635
47	0xbff2a513	-1.8956627
48	0xc0603e19	-3.5037901
49	0x3efccce9	0.49375084
50	0x3ef29bfe	0.47384638
51	0xbfde995a	-1.7390549
52	0xc0293dc0	-2.644394
53	0xc0d71171	-6.720879
54	0xc0b00f4f	-5.5018687
55	0xc0497332	-3.147656
56	0xbfd3debd	-1.6552349
57	0xbfac2142	-1.344765
58	0xbf374dca	-0.7160307
59	0xbe9dbbc4	-0.30807316
60	0x3db3d6e0	0.087812185
61	0xbe702b46	-0.23454008
62	0x3f9bac01	1.2161866
63	0xbfd6a725	-1.6769758
64	0x3f16e728	0.58946466
65	0xbf1ff218	-0.6247878
66	0x3e9f3bfd	0.31100455
67	0x3f19cddc	0.6007974
68	0x3f7c7cf1	0.98628145
69	0x3f52d7dd	0.8236063
70	0xc023680c	-2.5532255
71	0xc05f0aff	-3.4850461
72	0xc10c595b	-8.771815
73	0xbea04335	-0.31301275
74	0x3d8a1b33	0.06743469
75	0x3f60c590	0.87801456
76	0xbfd63d81	-1.673752
77	0xbfbfc892	-1.4983084
78	0x3f17f853	0.5936329
79	0xbec11b15	-0.37715974
80	0x410cc7e4	8.798801
81	0x40945cb6	4.6363173
82	0x407fa231	3.9942744
83	0xbde827b7	-0.113357
84	0xbf57c901	-0.8429108
85	0xbf50fe98	-0.8163848
86	0x3f8d9cdf	1.1063498
87	0xbf078952	-0.5294391
88	0x3e9dd7eb	0.30828795
89	0x3fe5a141	1.7939836
90	0x3fe8830a	1.816499
91	0xbf8c6b71	-1.0970289
92	0x3cb13a90	0.02163437
93	0x3f9c14f6	1.2193897
94	0xbe85c99a	-0.26130372
95	0xbe8bcafb	-0.273033
96	0x3cd5f58e	0.026118066
97	0x3e41c906	0.1892434
98	0x40e1724b	7.045202
99	0x40bed268	5.9631844
100	0x40746504	3.8186655
101	0xbfa8ab13	-1.3177208
102	0x3e8e3944	0.27778065
103	0x3f3e2824	0.7428
104	0x412c1632	10.755419
105	0xbfd8acda	-1.692775
106	0x3bccdc3b	0.0062518395
107	0x3faf1663	1.3678707
108	0xc0911770	-4.534111
109	0x402bda4f	2.6851995
110	0xc03dcee2	-2.9657521
111	0x400d8817	2.2114313
112	0x3f81bfbc	1.0136638
113	0x3f61d694	0.88218045
114	0x3fc49112	1.5356772
115	0xbcbea070	-0.023269862
116	0x3e336057	0.1751722
117	0xbd575d5e	-0.052579276
118	0x3fb78940	1.433876
119	0x3e6ee422	0.23329213
120	0xbf006140	-0.5014839
121	0xbf91dd08	-1.1395578
122	0xbf38a9c1	-0.72134024
123	0x3ec81b78	0.39083457
124	0x3f6dfb95	0.9296201
125	0x3fe4a640	1.7863235
126	0x407ef6b6	3.983808
127	0x409c278e	4.8798285
128	0x4082a8ac	4.08309
129	0x3e44178b	0.19149606
130	0x3e345efe	0.17614362
131	0x3e7ddb08	0.24790585
132	0xc056a9bd	-3.35411
133	0x3e5a48dc	0.21316856
134	0xbed35d82	-0.41282278
135	0xbf76dbc9	-0.96429116
136	0x40195901	2.3960574
137	0x3f438cfc	0.76387
138	0xc089acd7	-4.3023486
139	0xc02915e6	-2.6419616
140	0xbdb4c5fe	-0.088268265
141	0xbe054e9c	-0.13018268
142	0x3f869e6f	1.05171
143	0xbe364b68	-0.17802203
144	0xbeab7ad9	-0.33492163
145	0xbe30ba77	-0.1725863
146	0x3ef97856	0.48724622
147	0x3e8f9c93	0.28049144
148	0x397ac791	0.00023916202
149	0x3f579691	0.8421412
150	0xbeddef07	-0.43346426
151	0xbf59a9c3	-0.8502466
152	0xbe996546	-0.29960078
153	0xbf6db96b	-0.9286105
154	0x40cf8fc2	6.4862986
155	0x403b51ad	2.92686
156	0x3fc141be	1.5098188
157	0xbca132c2	-0.019677524
158	0x3ce24dc3	0.02762497
159	0xbe45a453	-0.19300966
160	0xc03d85fd	-2.961303
161	0xbda9bc75	-0.082878985
162	0xbc1638ab	-0.009168784
163	0x3cc71c8d	0.024305606
164	0x3f284ce3	0.6574232
165	0xbf98897c	-1.1916957
166	0x401e414f	2.4727361
167	0xbfc7e928	-1.5618029
168	0x3d353bc3	0.044246446
169	0x3e8c0fc1	0.2735577
170	0xbfa47713	-1.2848839
171	0xbe2bfbb2	-0.16795233
172	0x3cbebf0a	0.023284454
173	0x3e193747	0.14962493
174	0xbf19faa0	-0.6014805
175	0x3e9e9860	0.30975628
176	0xbcf552e8	-0.02994676
177	0x3dff9f9c	0.12481615
178	0xbf27cfd5	-0.655515
179	0x3decdd33	0.11565628
180	0x3db51d62	0.08843495
181	0x3ea47ba5	0.32125583
182	0xc189be35	-17.217875
183	0xc185c495	-16.720987
184	0x3fa502e4	1.2891507
185	0xbe9a0871	-0.30084565
186	0x3d05007b	0.03247116
187	0x3deddc49	0.11614282
188	0xbea111d1	-0.31458905
189	0x3e35a97c	0.17740434
190	0x3bb2878e	0.0054482883
191	0x3e52df18	0.20592916
192	0x40b91ffb	5.785154
193	0xbeb0dd49	-0.34543827
194	0xc0c7288a	-6.2236986
195	0xbf71e04c	-0.94482875
196	0x3d8bfb31	0.0683502
197	0x3e094e60	0.13408804
198	0x3fe5dd4f	1.7958163
199	0xbd4a257a	-0.049352147
200	0x3c05186e	0.0081235
201	0x3e40a1cb	0.18811719
202	0x3fe29f2b	1.7704824
203	0x3e5c1251	0.21491362
204	0x3c5e7db2	0.013579773
205	0x3ead0fb1	0.33801034
206	0xbf50ceb9	-0.81565434
207	0x3eb871df	0.36024377
208	0x3f49c404	0.7881472
209	0x3fcea0ff	1.6142882
210	0x40a4a091	5.1446004
211	0x41288761	10.5330515
212	0xc008fccf	-2.1404302
213	0x3d4bdeff	0.049773213
214	0x3c4e3657	0.012586198
215	0x3b0f6879	0.002188234
216	0x3fb91896	1.4460628
217	0xbc7f3a89	-0.015577921
218	0x3b79621a	0.0038052858
219	0xbe2ac6d4	-0.1667741
220	0x3f10cd81	0.56563574
221	0x3e814ecd	0.25255433
222	0xbf87b351	-1.0601598
223	0x3f1d1642	0.6136209
224	0xbec96854	-0.3933741
225	0xbe95b3e8	-0.2923882
226	0xbf1ef2fa	-0.620895
227	0x3efb65e7	0.49101183
228	0x3f83486b	1.0256475
229	0xc00877b7	-2.1323068
230	0xbf300122	-0.6875173
231	0xc014fdba	-2.3279862
232	0x3c0ae222	0.008476766
233	0xbf408951	-0.7520953
234	0xbf760fd0	-0.9611788
235	0xbf68505b	-0.9074761
236	0xbed581b3	-0.41700515
237	0xbf8955b1	-1.0729276
238	0x3f1c0ba5	0.6095527
239	0xbfd0752e	-1.628576
240	0xc0ba0cbb	-5.814054
241	0x3e9265ca	0.28593284
242	0x3f830261	1.0235101
243	0xbe08e497	-0.1336845
244	0xc00b65ff	-2.1781003
245	0xc013f7b3	-2.3119934
246	0x3f83e6cf	1.0304812
247	0x3fa1c6db	1.2638811
248	0xbf271d06	-0.6527866
249	0xc0bb0992	-5.8449183
250	0x3f72f948	0.94911623
251	0xc0831080	-4.095764
252	0x3fb157f9	1.3854972
253	0x3fc0ae12	1.5053122
254	0xbf360e12	-0.7111522
255	0xbf757ab9	-0.95890385

encoder.conv0.q.bias f4 [32]
0	0xbf8a318f	-1.0796374
1	0x3f7b0ecd	0.9806946
2	0x3db9b356	0.09067409
3	0xbe2ffa9f	-0.17185448
4	0xbf469f23	-0.77586573
5	0x3e25738b	0.16157357
6	0x3f0a1073	0.5393135
7	0xbf94f38b	-1.1636823
8	0xbeda5689	-0.42644146
9	0xbcf5445f	-0.029939828
10	0xbfad4aa6	-1.3538406
11	0x3e38a668	0.18032229
12	0x3f1da629	0.61581665
13	0xbe36b3f8	-0.1784209
14	0xbf99dc96	-1.2020442
15	0xbe1d2307	-0.15345393
16	0x3d552c65	0.05204429
17	0xbdc74bc1	-0.09731246
18	0x3f2f2bec	0.68426394
19	0x3da3f22a	0.080051735
20	0x3f75163c	0.9573705
21	0x3e905468	0.28189397
22	0x3f50c391	0.8154841
23	0xbf4f68c8	-0.8101926
24	0xbf96457e	-1.1739957
25	0x3f95c86b	1.1701788
26	0xbf09005c	-0.53516173
27	0x4004662b	2.0687358
28	0xbf900021	-1.1250039
29	0xc08a96b8	-4.3308983
30	0xc064fb33	-3.577832
31	0xbd07cbfd	-0.033153523

encoder.conv0.k.weight f4 [32, 28]
0	0x3f7604b1	0.9610091
1	0x3fa7bd5f	1.3104666
2	0xbf3ead63	-0.7448332
3	0x3f83d1e1	1.0298425
4	0x3dccc1f3	0.099979304
5	0xbf070803	-0.527466
6	0xbf57956f	-0.8421239
7	0xbe29b00c	-0.16571063
8	0xbf556dc0	-0.8337059
9	0x3ea90181	0.3300896
10	0x3f9c1f34	1.2197022
11	0x3f2eda78	0.68302107
12	0x3ee41808	0.44549584
13	0x3d63ab09	0.055583034
14	0xc168faaf	-14.561202
15	0xc17a9f31	-15.663865
16	0xc0d9f442	-6.8110666
17	0x3f4b24da	0.79353106
18	0x3de8c8e8	0.11366445
19	0xbfa7210e	-1.3056962
20	0xc0f3a955	-7.6144204
21	0xbedd6425	-0.43240467
22	0xbf4c965c	-0.7991693
23	0x3f3474dd	0.7049082
24	0xbfe4dfb2	-1.7880766
25	0x409ae7ee	4.8408117
26	0x3f811747	1.0085229
27	0xc07040ab	-3.753947
28	0xbf14dda9	-0.58150727
29	0xbf070f24	-0.5275748
30	0x3f8802ec	1.0625892
31	0xbe5b4a7d	-0.21415134
32	0xb8f35113	-0.00011602244
33	0xbded3230	-0.11581838
34	0x3f9acf22	1.2094462
35	0x3dc3de52	0.095638886
36	0x3c85a0ca	0.016312022
37	0x3e7cdfff	0.24694823
38	0xbf90d28d	-1.1314255
39	0xbf534b98	-0.8253722
40	0xbf1f6e39	-0.6227756
41	0x3eb90c4c	0.36142194
42	0x41764c98	15.3937
43	0x41697cc5	14.592961
44	0xc0822181	-4.06659
45	0xbe52effd	-0.20599361
46	0x3cad582d	0.02116021
47	0xbdc7d196	-0.09756772
48	0x40821827	4.0654483
49	0x3d4ee4b5	0.05051108
50	0xbcb9f88a	-0.02270152
51	0x3f1cae26	0.6120323
52	0x40e650f7	7.1973834
53	0x40141e95	2.3143666
54	0x3f512df7	0.8171076
55	0x40dea8d6	6.95811
56	0xc003f3ee	-2.0617633
57	0xc008fa98	-2.140295
58	0xbfd41144	-1.6567769
59	0x3ff0df21	1.8818094
60	0x3e287835	0.16452105
61	0xbf4f499a	-0.8097168
62	0xbf8dfdd9	-1.1093093
63	0x3f5537c9	0.83288246
64	0xbdedf647	-0.11619239
65	0xbe90c0b8	-0.28272033
66	0x3f869ce4	1.0516629
67	0x3eaf20e7	0.3420479
68	0xbe434bd1	-0.1907189
69	0xbf533fec	-0.8251941
70	0xc03d1562	-2.95443
71	0xc02ad47b	-2.6692188
72	0xc0b3aaa0	-5.6145782
73	0x3fe6c7fd	1.8029782
74	0x3e5f397f	0.21799277
75	0xbface450	-1.3507175
76	0x40b8ef83	5.7792373
77	0x3f319bea	0.6937853
78	0xbd6afcbc	-0.057369933
79	0xbf39c970	-0.72572994
80	0x3fd01424	1.6256146
81	0xc07987db	-3.898917
82	0xc02b3bee	-2.6755328
83	0xc0c3b2f7	-6.1155963
84	0xbeeb2abc	-0.4593104
85	0xbf0617f1	-0.5238028
86	0xbf8d16f0	-1.1022625
87	0xbf756939	-0.9586368
88	0x3d0728bb	0.032997828
89	0x3fb4695f	1.4094657
90	0xbf469e7d	-0.77585584
91	0xbeeb83d9	-0.4599903
92	0xbdfc0529	-0.12305672
93	0x3f25a7e8	0.6470933
94	0x3f68838e	0.90825737
95	0x3d024781	0.031806473
96	0x3db3e998	0.08784789
97	0xbe02de89	-0.12780203
98	0xc113e060	-9.242279
99	0xc10937ef	-8.576156
100	0xc127a9c0	-10.478943
101	0xbf8f9c33	-1.1219543
102	0x3d8379d6	0.06419723
103	0x3f71336d	0.94219095
104	0x413658d9	11.396691
105	0xbf4556a3	-0.7708532
106	0xbe38e646	-0.18056592
107	0x3ed36599	0.4128845
108	0x3e8b94d2	0.27261978
109	0x3e09a836	0.13443074
110	0xc083e023	-4.1211104
111	0xc12deacf	-10.869826
112	0xbfcaa1cc	-1.5830626
113	0xbfbab3fb	-1.4586176
114	0xbfc33c30	-1.5252743
115	0xbe90a170	-0.28248167
116	0xbe30366e	-0.17208263
117	0xc0286d62	-2.6316762
118	0xbf7b0a66	-0.9806274
119	0x3e533737	0.20626532
120	0x3e069a82	0.13144878
121	0x405f7f1c	3.4921331
122	0x3f169594	0.5882199
123	0xbf1aa137	-0.60402244
124	0xbef08f08	-0.46984124
125	0xbf9c3cef	-1.2206095
126	0xc0baadb0	-5.833702
127	0xc0d08d96	-6.5172834
128	0xc0b66d3c	-5.7008343
129	0xbe8ebeba	-0.27879888
130	0xbe13724d	-0.14399071
131	0xc045fcfb	-3.0935657
132	0x3eae6d9b	0.34067997
133	0x3e679f00	0.22619247
134	0x3e0375ed	0.12837954
135	0x40461fe9	3.0956976
136	0xc073b835	-3.808118
137	0xbff62c51	-1.9232274
138	0xbdc58efa	-0.09646411
139	0xbf86a194	-1.051806
140	0xbe6c2e1d	-0.23064466
141	0x3d9d5597	0.076823406
142	0x3ff9f14d	1.9526764
143	0x3f131923	0.5746023
144	0x3e85bc8d	0.26120415
145	0xbf0b5034	-0.54419255
146	0x3e6f70ac	0.23382825
147	0xbec7b3eb	-0.39004454
148	0xbdc37532	-0.095438376
149	0xbfadabc5	-1.3568045
150	0x3e6d840d	0.23194905
151	0xbf5f2a73	-0.8717415
152	0xbefb6b39	-0.49105242
153	0xbf0f379f	-0.55944246
154	0xc1530dbc	-13.190853
155	0xc19ba885	-19.457285
156	0xbf3e9dea	-0.7445971
157	0x3e330085	0.17480667
158	0xbe28a88a	-0.16470543
159	0xbc4ffc5d	-0.012694445
160	0x40aa7bc1	5.3276067
161	0x3d3bc940	0.045846224
162	0xbd07f8f2	-0.033196397
163	0xbdcc90b0	-0.099885345
164	0xc011b472	-2.2766385
165	0x3e79a72e	0.2438018
166	0x4007fc3c	2.1247702
167	0x40289a8a	2.6344323
168	0xbe1b95a5	-0.15193804
169	0x3d50e102	0.050995834
170	0x3f859116	1.0434902
171	0xbeef6336	-0.4675538
172	0xbd165760	-0.03670442
173	0x3e42cd19	0.19023551
174	0x3fb63a2a	1.42365
175	0xbda25486	-0.07926278
176	0xbbbce8fc	-0.0057650786
177	0x3ca337d7	0.019924087
178	0xbee4c92f	-0.4468474
179	0xbe876f66	-0.26452178
180	0x3e945797	0.28973076
181	0x3e2ced4d	0.16887398
182	0x417e5a3d	15.897031
183	0x419273c3	18.306524
184	0x40524f48	3.286089
185	0xbed1c9ae	-0.40974182
186	0xbd37444f	-0.04474288
187	0x3debd227	0.11514693
188	0x3fbef39e	1.4918096
189	0xbe02399b	-0.12717287
190	0xbc41cc98	-0.011828564
191	0xbde152d5	-0.11002127
192	0xc0607d1d	-3.5076363
193	0xbf96114c	-1.1724029
194	0x403626eb	2.8461254
195	0xbf026044	-0.5092814
196	0x3db1800a	0.08667
197	0xbd088794	-0.033332422
198	0x3fc86089	1.565446
199	0x3cbf2e30	0.023337454
200	0x3b743dbe	0.0037268247
201	0x3c8410ed	0.016121352
202	0x4003675f	2.0531843
203	0xbe98c530	-0.29837942
204	0xbbfce6ce	-0.0077179438
205	0xbe4bf030	-0.19915843
206	0xbf66ce72	-0.9015876
207	0x3ebb363e	0.3656482
208	0x3f404f6d	0.75121194
209	0x4000b615	2.0111134
210	0x4071c072	3.777371
211	0x411a395e	9.639006
212	0x402955c2	2.6458592
213	0xbd8d3e6c	-0.06896672
214	0x3c2982f0	0.010346159
215	0x3dfded2c	0.123987526
216	0xbfb80be0	-1.4378624
217	0x3cdec04d	0.027191306
218	0x3accf9d0	0.0015638415
219	0x3e3252c8	0.17414391
220	0xbeadadc0	-0.33921623
221	0x3f0b921f	0.5451984
222	0xbee15377	-0.4400899
223	0x3e38c12f	0.18042444
224	0xbf5e4e36	-0.8683809
225	0xbf6cb909	-0.9246984
226	0xbf3f668e	-0.7476586
227	0x3ebbea32	0.36702114
228	0x3fb1870e	1.386934
229	0x3e901e06	0.28147906
230	0xbf4b9300	-0.7952118
231	0xbf3aba5f	-0.7294063
232	0xbe65dafe	-0.2244682
233	0x3eed2570	0.46317625
234	0xbfb4d558	-1.4127607
235	0xbf7ded85	-0.9919055
236	0xbee2fff5	-0.44335905
237	0xbfc51363	-1.5396541
238	0x406519b1	3.579693
239	0x40208b46	2.5085006
240	0xc0ebc5aa	-7.367879
241	0x3f55cc5c	0.8351495
242	0x3f9c03a1	1.2188607
243	0x3ea316b4	0.3185326
244	0xc1087a85	-8.529912
245	0xbf28e8f5	-0.65980464
246	0x3f460cd8	0.7736335
247	0x3f74728e	0.95487297
248	0x40436aa9	3.053385
249	0x40bec518	5.9615593
250	0xc012f25a	-2.296042
251	0x40358bbe	2.8366542
252	0x40587c1d	3.3825753
253	0x40463dea	3.097529
254	0xbea4aaf3	-0.32161674
255	0x3f642035	0.89111644

encoder.conv0.k.bias f4 [32]
0	0x3f02d7fd	0.5111082
1	0xbf43fe94	-0.7656033
2	0x3f04bb10	0.51847935
3	0x3f162698	0.5865264
4	0x3f81afe1	1.0131799
5	0xbdca7c1d	-0.09886954
6	0xbf851d54	-1.0399575
7	0xbf9e2ed0	-1.2358036
8	0xbf7f8a7b	-0.9982068
9	0xbe3c104c	-0.18365592
10	0xbf0c0adf	-0.5470409
11	0xbf6a0205	-0.9140933
12	0xbe980ea7	-0.2969868
13	0xbec56ee5	-0.38561168
14	0xbc6adb88	-0.014334567
15	0x3f8fbd9d	1.122974
16	0xbe009aa5	-0.12558992
17	0xbdbd4167	-0.0924099
18	0xbf028df3	-0.5099785
19	0xbe45f57c	-0.19331926
20	0x3e427e1d	0.18993421
21	0x3f1a5caf	0.60297674
22	0xbe59bb0d	-0.2126276
23	0x3f929495	1.1451594
24	0xc00604d3	-2.0940444
25	0xbdc30df0	-0.09524143
26	0xbf9432b9	-1.1577979
27	0xbf80c645	-1.0060507
28	0x3f4accbe	0.7921866
29	0x3f2d1d2c	0.6762264
30	0x3f2fb7ea	0.68640006
31	0x3e17d941	0.1482897

encoder.conv0.v.weight f4 [32, 28]
0	0x3f02ab0b	0.5104224
1	0x3f1582e0	0.58402824
2	0xbf80811d	-1.0039402
3	0xbe4f1bea	-0.20225492
4	0xbdced8be	-0.10099934
5	0x3df600f9	0.12011904
6	0xbf86742b	-1.0504202
7	0x3e32152d	0.1739089
8	0xbc22842f	-0.00991921
9	0x3eca0f0f	0.39464614
10	0x3e5c6e16	0.2152637
11	0x3e8d676e	0.27617973
12	0xbef7b221	-0.4837809
13	0xbf3eebe7	-0.7457871
14	0x40b4fc3a	5.6557894
15	0x402e0549	2.7190726
16	0x40105b88	2.2555866
17	0xbe2783a1	-0.16358806
18	0xbd9814fd	-0.07425878
19	0x3e10c92a	0.14139238
20	0xbf69519a	-0.9114014
21	0x3e76f3e7	0.24116479
22	0xbc99a5e7	-0.018755866
23	0x3db663fd	0.0890579
24	0x40b116fa	5.5340548
25	0xc09c986f	-4.8936076
26	0xc08b17a5	-4.3466363
27	0xc0752dc4	-3.8309183
28	0x3da5f47b	0.081032716
29	0x3e53dead	0.20690413
30	0x3f91d5f2	1.1393416
31	0x3e6cfabd	0.23142524
32	0x3be7b75f	0.00707142
33	0x3ef5cddc	0.4800862
34	0x3f942454	1.1573586
35	0xbec04269	-0.37550667
36	0x3ea544b4	0.3227898
37	0x3eb2f1bb	0.3495005
38	0xbf99321f	-1.1968421
39	0xbf18448d	-0.594796
40	0xbf1add8a	-0.6049429
41	0x3ea8cd01	0.32968906
42	0xc0014afb	-2.0202014
43	0xbf91153b	-1.1334604
44	0x40795de6	3.896356
45	0x3e8823e5	0.26589885
46	0xbc15deb0	-0.009147331
47	0x3f13a4b1	0.57673174
48	0xbf0c5444	-0.5481608
49	0xbe9104a7	-0.28323862
50	0x3eaa476f	0.33257625
51	0x3e9c88fc	0.3057326
52	0x3fcd18b3	1.6023163
53	0xbfb872e8	-1.4410067
54	0xbfcad1c8	-1.584527
55	0x40051151	2.079182
56	0xbeac2c19	-0.33627394
57	0xbe9dee1b	-0.30845723
58	0x3f839894	1.0280938
59	0x3d8d28e6	0.068925664
60	0x3c0f45ba	0.008744651
61	0xbf0c1955	-0.54726154
62	0x3f1d040e	0.6133431
63	0xbe8353f8	-0.2565
64	0xbe1f3313	-0.15546827
65	0x3d01f67f	0.031729218
66	0xbf472064	-0.777838
67	0xbf6a6265	-0.9155639
68	0xbf285b8f	-0.6576471
69	0xbd9c0f34	-0.07620087
70	0xc0d9fcf6	-6.812129
71	0xc0f01eb5	-7.5037484
72	0x4089fb5d	4.311934
73	0x3bcf1be3	0.006320463
74	0x3d83ba09	0.06431968
75	0xbf4c5eb0	-0.7983198
76	0x3ee574a7	0.4481556
77	0xbeaedcb8	-0.3415277
78	0xbde30d6a	-0.11086543
79	0x3e09613e	0.13416001
80	0xc06c3e45	-3.6913006
81	0xc103651d	-8.212186
82	0x40292474	2.64285
83	0x4072b2be	3.7921596
84	0xbe40fc89	-0.18846335
85	0xbd2b45d4	-0.04181464
86	0xbe8f124b	-0.27943644
87	0x3e14603c	0.14489836
88	0xbb58a393	-0.0033056482
89	0x3e2be931	0.16788174
90	0x3d03f221	0.032213334
91	0xbe199dd8	-0.15001619
92	0x3ccfe74c	0.025378846
93	0xbc6b78df	-0.01437208
94	0xbf1d039f	-0.6133365
95	0x3e65c728	0.22439253
96	0xbe0a9e85	-0.13537033
97	0xbd438aee	-0.047739916
98	0x418f1e0d	17.889673
99	0x416f1a71	14.943955
100	0x3e47487a	0.19461241
101	0x3e372181	0.17883874
102	0xbb2bb7a8	-0.0026201997
103	0x3e3d0001	0.18457033
104	0x3fd9ecef	1.7025431
105	0xbddd1a76	-0.10796063
106	0xbb9062ca	-0.004406308
107	0xbc0a0c25	-0.008425747
108	0xbe95b105	-0.29236618
109	0xbd4ce3ac	-0.050021812
110	0xbe882958	-0.26594043
111	0xbdfe0761	-0.12403751
112	0x3ec45f3b	0.38353905
113	0x3f28cb65	0.65935355
114	0xbf71fc86	-0.94525945
115	0xbf2df828	-0.6795678
116	0xbdb53895	-0.08848683
117	0x3f320333	0.6953613
118	0xbf5099a9	-0.81484467
119	0x3e9925f7	0.29911777
120	0x3cb7cc49	0.022436278
121	0x3f9ecc30	1.2406063
122	0x3f9150c7	1.1352776
123	0x3ebe215a	0.3713482
124	0xbdc209b9	-0.09474511
125	0xbf54f033	-0.83179015
126	0xc00c2c7c	-2.190215
127	0xc0955951	-4.667153
128	0xbfb66625	-1.4249922
129	0xbea1b3b0	-0.31582403
130	0xbd0ef2ce	-0.034899525
131	0x3f8f1457	1.1178082
132	0xc0a80b29	-5.2513623
133	0x3ee1f99f	0.44135758
134	0xbd7ac3c8	-0.061221868
135	0x3fd66143	1.6748432
136	0x40263804	2.597169
137	0x404f50ee	3.2393146
138	0x40e7f919	7.2491574
139	0x40804fff	4.009765
140	0x3e141c99	0.14464034
141	0x3e21e7ac	0.15811032
142	0xbfe531d8	-1.7905836
143	0xbf12aed7	-0.57298034
144	0x3f9c9faf	1.2236232
145	0x3efbd3f0	0.49185133
146	0x3f7f2636	0.9966768
147	0xc001b911	-2.0269206
148	0xbbd4811b	-0.006485117
149	0xbfe91c0e	-1.8211687
150	0xbed89e08	-0.42308068
151	0xbfa9488c	-1.3225265
152	0xbd2c4f82	-0.042068012
153	0x3ed387c2	0.41314512
154	0x4181206f	16.140837
155	0x41c60f13	24.75736
156	0x4084bc9c	4.1480236
157	0xbe84f206	-0.259659
158	0x3d136566	0.035985373
159	0x3d8e7c34	0.069572836
160	0xc1063131	-8.38701
161	0xbe8bfa2c	-0.27339303
162	0xbd903b44	-0.07042554
163	0x3e0be14e	0.13660166
164	0x3f57e3ff	0.8433227
165	0x3fdd9e26	1.7313888
166	0xc01b851d	-2.4299996
167	0xc0827c88	-4.0777016
168	0x3f71256e	0.9419774
169	0x3faf0148	1.3672266
170	0x3f6cf7b8	0.9256549
171	0x3ee07ef7	0.43846866
172	0x3e6ce3a2	0.2313371
173	0x3fd32b82	1.6497653
174	0x3f2aae70	0.6667242
175	0x3d997bae	0.07494293
176	0x3da66429	0.08124573
177	0x3f9c8dee	1.2230814
178	0x4011a1ea	2.2755075
179	0x4001bb9c	2.0270758
180	0x3fbd0aac	1.4768882
181	0x3f6017c7	0.8753628
182	0xbf6e0fd9	-0.9299293
183	0xc0bf55eb	-5.979238
184	0x4053a8f6	3.3071876
185	0xbeb68ca8	-0.35654187
186	0x3e9dacbe	0.30795854
187	0x3f3dd8a6	0.74158704
188	0x4078019a	3.8750978
189	0x3d278769	0.04090062
190	0x3e06268b	0.1310064
191	0x3e8f34d7	0.2797
192	0x4071130c	3.7667875
193	0xbf1b584a	-0.60681593
194	0xbf88dc40	-1.0692215
195	0xbeb86d8c	-0.36021078
196	0xbd31a39c	-0.04336892
197	0x3d1d29f1	0.038370077
198	0x3faccea3	1.350056
199	0x3c09e68f	0.008416786
200	0xbc053354	-0.008129913
201	0xbd4d239e	-0.050082795
202	0x3fa69d8a	1.3016827
203	0xbc5ef520	-0.013608247
204	0xbb3705a4	-0.0027926946
205	0xba9ebc14	-0.0012110495
206	0xbf59fd1e	-0.8515185
207	0x3eeb15dd	0.45915118
208	0x3f1892df	0.5959911
209	0x3fdc19a6	1.7195327
210	0x4085da3e	4.182891
211	0xc09e1e5b	-4.9412055
212	0x3f21a62e	0.63144195
213	0x3b924c12	0.0044646347
214	0xbbc129c1	-0.00589487
215	0xbd341479	-0.043964837
216	0x3f352bec	0.70770144
217	0xbc392bc1	-0.011301936
218	0xbb55103f	-0.0032510904
219	0xbcf71b97	-0.030164523
220	0xbf2414df	-0.64094347
221	0x3af5c553	0.0018750824
222	0xbd30ff0b	-0.043211978
223	0x3f56257a	0.83650935
224	0x3e36330a	0.17792907
225	0x3d52b865	0.051445384
226	0x3e4a16c3	0.19735245
227	0x3d120294	0.03564699
228	0x3d23bbc5	0.039973993
229	0x3c01beb1	0.0079189995
230	0xbf395bce	-0.7240571
231	0xbd0dd46a	-0.034626402
232	0xbdb77cc3	-0.08959343
233	0xbdafc9bf	-0.08583402
234	0x3e592376	0.21204934
235	0xbe1548ef	-0.14578603
236	0xbf56a2e6	-0.83842313
237	0xbe661cb9	-0.22471894
238	0xc08ee57b	-4.4655128
239	0xc09d1a64	-4.9094715
240	0x3f6feb7e	0.9371871
241	0xbb90d899	-0.0044203517
242	0xbc0bf2fb	-0.008541818
243	0x3e6d1fd5	0.23156674
244	0xc0084786	-2.1293654
245	0xbdbead32	-0.09310378
246	0xbde33d10	-0.11095631
247	0xbca7a698	-0.02046518
248	0x3f3d6e46	0.7399639
249	0xbe131f48	-0.14367402
250	0xbfc19eaa	-1.5126545
251	0xbfac8ceb	-1.3480505
252	0x3e24fe17	0.16112553
253	0x3e072bf0	0.13200355
254	0xbf2c6084	-0.6733477
255	0xbe7f1725	-0.24911173

encoder.conv0.v.bias f4 [32]
0	0x3f51148b	0.8167197
1	0xbf3233f7	-0.6961054
2	0xbd6e2d73	-0.058148813
3	0xbe3341aa	-0.17505518
4	0x3faba4c9	1.3409663
5	0x3ebd698c	0.36994588
6	0x40316050	2.7715034
7	0xbfd44dbc	-1.6586223
8	0x3e2b16ca	0.16707912
9	0xbe3a1a7c	-0.18174165
10	0x3f2c31aa	0.6726328
11	0xbf9b01aa	-1.2109883
12	0xbf58e2cf	-0.8472108
13	0xbf3df246	-0.74197805
14	0x3c837a9a	0.016049672
15	0xbf7d58ca	-0.98963606
16	0x3ec01481	0.37515643
17	0xbfa739ad	-1.3064476
18	0xbe9a5b34	-0.30147707
19	0xbfea7c38	-1.8319159
20	0xbf1d2bb1	-0.6139479
21	0xbfb41643	-1.4069294
22	0x3fbb3cef	1.462797
23	0xbd5a62e7	-0.053316977
24	0xbf6a2c7a	-0.91474116
25	0x3ff07bd0	1.8787785
26	0xbfaa9472	-1.3326552
27	0x408baada	4.364606
28	0x3f39f5ee	0.72640884
29	0xbf11a734	-0.56895757
30	0xc0013f9c	-2.0195074
31	0x3f546df9	0.82980305

encoder.conv1.q.weight f4 [16, 64]
0	0xbeeced72	-0.46274906
1	0xbe662cad	-0.2247798
2	0xbfe7cbdb	-1.8109087
3	0xbeb3a6a0	-0.35088062
4	0x3e64f523	0.22359137
5	0xc009f74d	-2.155719
6	0x3fddd716	1.7331264
7	0x3e8e9de2	0.2785483
8	0xbfb68b56	-1.4261272
9	0xbfe7938c	-1.8091903
10	0xbfa5fe62	-1.2968256
11	0xbd14434a	-0.036196984
12	0xbfbb0f7a	-1.4614098
13	0xbf14a608	-0.58065844
14	0xbf856f72	-1.0424635
15	0xbf6004b0	-0.8750715
16	0xc04a6ffb	-3.1630847
17	0xbf418280	-0.7558975
18	0x3fb31638	1.3991156
19	0xbe9abc6a	-0.30221874
20	0xc077017f	-3.8594663
21	0xbf931367	-1.1490296
22	0xbf4779a5	-0.7791999
23	0x40047b66	2.0700316
24	0xbebf417d	-0.3735465
25	0xbea55287	-0.32289526
26	0xbd8cd39f	-0.06876301
27	0xbd64554e	-0.055745415
28	0xbeb286d8	-0.34868503
29	0xbee7b6b1	-0.4525657
30	0x4080abb9	4.020962
31	0xc0146d60	-2.3191757
32	0x3daa38ef	0.083116405
33	0xbe42689f	-0.18985222
34	0xbf96e2d3	-1.1787971
35	0xbdb11b98	-0.08647841
36	0x3f320c3d	0.69549924
37	0xbfcc735e	-1.5972707
38	0x3f644fd6	0.8918432
39	0xbe6736c6	-0.22579488
40	0xbf4657d7	-0.7747778
41	0xbf818c17	-1.0120877
42	0xbf39e236	-0.72610795
43	0xbcced437	-0.025247676
44	0xbfab6aa4	-1.3391919
45	0xbe7e2e1f	-0.24822281
46	0xbea0286a	-0.31280833
47	0xbe77bd8e	-0.24193403
48	0xc00fc193	-2.2461898
49	0x407a0855	3.9067585
50	0xbdd0bec2	-0.10192634
51	0xbe9f4c89	-0.3111308
52	0xc00003a8	-2.0002232
53	0xbf6109f9	-0.8790584
54	0xbf9236f5	-1.1423022
55	0x3f92866f	1.1447276
56	0xbf53d9ea	-0.82754385
57	0xbfeafb96	-1.8358028
58	0xbec6ad7a	-0.38804227
59	0xbe8c8b28	-0.27449918
60	0x3fc02380	1.5010834
61	0xbe5d0e70	-0.21587539
62	0x40a308b7	5.094814
63	0xbf91e569	-1.1398135
64	0x3f75007d	0.9570387
65	0x3f252209	0.6450506
66	0x3f74f024	0.95678926
67	0x403f854e	2.9925113
68	0x40616846	3.5219893
69	0xc08566d9	-4.1688046
70	0x3fe5bc65	1.7948118
71	0x3f18a8a5	0.5963233
72	0x4033dae9	2.8102362
73	0x403c06b1	2.9379084
74	0x4027820e	2.617313
75	0x3f21997b	0.6312482
76	0x3ff1358a	1.8844464
77	0x3f784d1d	0.96992666
78	0x4033bed4	2.8085222
79	0x3fc98ac8	1.5745478
80	0x3f38a18e	0.7212151
81	0x40db6983	6.85663
82	0x40537a45	3.3043377
83	0x3f244d08	0.6418004
84	0xbfae8890	-1.3635426
85	0xbe87ab08	-0.26497674
86	0x3f52ed8b	0.8239371
87	0x407db4a8	3.9641514
88	0x3ff289c7	1.8948296
89	0x3e96ff18	0.29491496
90	0x401bd151	2.4346507
91	0x3ef527d7	0.47881958
92	0x4071bb36	3.7770514
93	0x3e0bf174	0.13666326
94	0x409e6834	4.95022
95	0x400d8312	2.211125
96	0xbef6a339	-0.48171404
97	0xbc928eaa	-0.017890293
98	0xbf559144	-0.8342478
99	0x3f6e8652	0.93173707
100	0xbe34e69b	-0.17666094
101	0x40307424	2.7570887
102	0x3f6be1a1	0.9214116
103	0x3e99282e	0.29913467
104	0x3e3b1628	0.1827017
105	0x3f76aa12	0.96353257
106	0xbf2d1de8	-0.6762376
107	0xbeeb9451	-0.46011594
108	0xbed68987	-0.419018
109	0x401a92a9	2.4152014
110	0x3f934c58	1.1507673
111	0xbfc02666	-1.5011718
112	0xbe1acb3e	-0.15116593
113	0x3fcf72da	1.6206925
114	0x4081bb3b	4.0541053
115	0xbde26b8e	-0.11055671
116	0xc040e614	-3.0140429
117	0xbdb8660f	-0.09003841
118	0x3f2646a0	0.64951515
119	0x3f783a34	0.9696381
120	0x4023ef41	2.561478
121	0xbf1c1d95	-0.6098264
122	0xbeb00bbf	-0.34383962
123	0x3fb10952	1.3830969
124	0xbf058a63	-0.52164286
125	0xbe1f1ed8	-0.1553911
126	0x406d4a08	3.7076435
127	0x3abe63dc	0.001452561
128	0x3f27026c	0.6523807
129	0xbc0e09d6	-0.008669337
130	0xbf81d39f	-1.0142707
131	0xbd26e536	-0.040745936
132	0x40396d0c	2.8972807
133	0x3f152d43	0.5827219
134	0xbf14c245	-0.5810893
135	0x3f035cc3	0.5131342
136	0x3f91b78d	1.138414
137	0x3eaf82f2	0.3427959
138	0x3e01a19b	0.12659304
139	0xc03d5e6d	-2.9588883
140	0x3f28803d	0.65820676
141	0xc004fbad	-2.077861
142	0xbf8a7979	-1.081832
143	0xbf88e7ba	-1.0695717
144	0x3f209bda	0.6273781
145	0x40cab048	6.3340187
146	0xbf14346e	-0.578925
147	0xbb4f37bc	-0.0031618914
148	0x407cfbf9	3.9528792
149	0x3f8e8dab	1.1136984
150	0xbe100f29	-0.14068283
151	0x3f083c51	0.53217036
152	0xc00454bd	-2.067672
153	0x401f9baf	2.4938772
154	0xbfe954c1	-1.822899
155	0x3e7805e4	0.24220997
156	0xbfa2ff41	-1.2734147
157	0x40037a96	2.054357
158	0xbf92b0d3	-1.1460212
159	0xbf82cc8e	-1.0218675
160	0x3e7ccaf8	0.24686801
161	0xbe95deba	-0.2927149
162	0xc00fe31d	-2.248237
163	0x3e35e7ad	0.17764159
164	0x402db9bf	2.714462
165	0x404ad304	3.1691294
166	0xbcecc04a	-0.028900284
167	0x3f0b3c23	0.54388636
168	0xbe80020d	-0.25001565
169	0x3f5d5a55	0.8646596
170	0xbf5efa13	-0.8710033
171	0xc0170341	-2.3595736
172	0x3fbb24a9	1.4620563
173	0xbfcbbe56	-1.5917461
174	0xbf7b38cb	-0.98133534
175	0xbf651cc1	-0.89497
176	0xbf3bead3	-0.7340519
177	0xc013be3c	-2.308486
178	0x3fe2863d	1.7697216
179	0x3cfd4cec	0.030920468
180	0xc0110d81	-2.2664492
181	0x3c853043	0.016258365
182	0xbfe31445	-1.7740561
183	0x3f6ae96b	0.9176242
184	0xbdf2dd6a	-0.11858638
185	0xbf7f6998	-0.997705
186	0xc0281f4f	-2.626911
187	0x3eaaf190	0.33387423
188	0x3b6206e5	0.0034488973
189	0x3fdb9e16	1.7157619
190	0xbe313906	-0.17306909
191	0xbf1d5e95	-0.61472446
192	0x3efe2714	0.4963919
193	0x3dbb1a75	0.09135906
194	0xbf44159e	-0.76595485
195	0xbf2fe36d	-0.687064
196	0x404c41cf	3.1915166
197	0x405195ad	3.2747605
198	0x3f62d9f6	0.8861383
199	0xbebef94a	-0.37299567
200	0xbf9bd5a9	-1.2174579
201	0xbe3a6a07	-0.18204509
202	0xbe918e52	-0.28428894
203	0xc00f3717	-2.2377374
204	0x3f5a0160	0.8515835
205	0xbfbcc0f4	-1.4746385
206	0xbf2f9ac0	-0.68595505
207	0xbfda1b23	-1.7039531
208	0xbff92dd6	-1.9467113
209	0x40e49e80	7.144348
210	0x40b534d5	5.662699
211	0xbf04ee83	-0.5192644
212	0xc07353c0	-3.8019867
213	0xc0113f13	-2.2694747
214	0xbf345be8	-0.7045274
215	0xbf59dbf0	-0.85101223
216	0xc01e5c72	-2.4743924
217	0x3f26b2ef	0.6511678
218	0xc07c4f98	-3.942358
219	0x3e097b73	0.13425998
220	0x3fa71ba8	1.3055315
221	0x3ec6341c	0.3871163
222	0x401ee548	2.4827442
223	0x3d0c908f	0.03431755
224	0x3f1cc130	0.6123228
225	0x3c3fad7c	0.011699077
226	0xbdd8e99f	-0.10591435
227	0x3fa304af	1.2735804
228	0xbcc36f36	-0.02385674
229	0x3da4d06e	0.08047567
230	0xbfb8d08c	-1.4438643
231	0xbf65ced9	-0.8976875
232	0xbf17edeb	-0.5934741
233	0xbe35c1c9	-0.17749704
234	0x3f04849f	0.51764864
235	0xbfccfe6c	-1.6015143
236	0x3d8edb61	0.06975437
237	0xc04362f3	-3.0529144
238	0xbe581e5f	-0.21105336
239	0xbfb4964f	-1.410837
240	0x40593bd4	3.3942766
241	0xbf7bf76f	-0.9842443
242	0xbf826e3b	-1.018989
243	0xbed70dd2	-0.42002732
244	0xbfc9354c	-1.571939
245	0xbf678889	-0.9044271
246	0x3f0b126d	0.5432499
247	0xbd2e73b6	-0.04259082
248	0xc03645f1	-2.848019
249	0x3f7b119f	0.9807376
250	0xc097a554	-4.7389317
251	0xbde0714a	-0.10959108
252	0xc08ae4e4	-4.3404408
253	0x3f8776b8	1.0583105
254	0xc043b7be	-3.0580897
255	0xbd2f0e2f	-0.042738136

encoder.conv1.q.bias f4 [16]
0	0x3de01aa2	0.1094258
1	0x400d8fe7	2.211908
2	0xbe57d7f4	-0.21078473
3	0x3f643603	0.89144915
4	0xbfb867c8	-1.4406672
5	0xbe7b45d4	-0.24538356
6	0xbedca7ff	-0.4309692
7	0x3fc64137	1.5488652
8	0xbf5226a7	-0.8209023
9	0xbeec7de2	-0.4618979
10	0xbfd1ce67	-1.6391114
11	0x3f36ba6e	0.7137822
12	0xbe9ab5ab	-0.30216727
13	0x3f2a00f2	0.6640769
14	0xbf98270e	-1.1886919
15	0xbb9aa320	-0.004719153

encoder.conv1.k.weight f4 [16, 64]
0	0xc035271d	-2.8305123
1	0x3d77117f	0.06031942
2	0xc00f70a6	-2.2412505
3	0xc0d0d77f	-6.5263057
4	0x3f8311b4	1.0239778
5	0xc0730750	-3.7973213
6	0x3f0a573f	0.54039377
7	0xbf73d2d7	-0.9524359
8	0xc097507f	-4.728576
9	0xc00cd38f	-2.2004125
10	0xc09a2d7c	-4.8180523
11	0xbfc74fcc	-1.5571227
12	0xc0b451d8	-5.6349907
13	0xbe2e07fc	-0.16995233
14	0xbfbed3d6	-1.4908397
15	0x3e1bcffb	0.15216057
16	0xc02fb621	-2.7454913
17	0x400e530c	2.2238188
18	0xc0944dde	-4.6345053
19	0xbfde8cca	-1.7386715
20	0xc1068eb7	-8.4098425
21	0xc0220db1	-2.5320857
22	0x3f881894	1.0632501
23	0x3f643928	0.89149714
24	0xc024bb7c	-2.5739431
25	0xc0b509ff	-5.65747
26	0xbfc4d126	-1.5376327
27	0xbece42cd	-0.4028534
28	0xbfb78cf6	-1.4339893
29	0xc0756989	-3.8345664
30	0x408ac1f9	4.3361783
31	0xc02f0aff	-2.7350461
32	0x3ebd4cab	0.36972556
33	0xbe9c9676	-0.30583543
34	0xbe0ec422	-0.13942006
35	0x3f98d149	1.1938869
36	0x3fe57fa8	1.7929583
37	0xc0007529	-2.007151
38	0xbf77ed4b	-0.96846455
39	0xc01008cc	-2.250537
40	0xbe9f07c2	-0.31060606
41	0xbf1189ef	-0.56851095
42	0xbe8fd43a	-0.28091604
43	0x3e356a51	0.17716338
44	0xbec139de	-0.37739462
45	0x3eec2784	0.46123898
46	0x3f988648	1.1915979
47	0xbf60af91	-0.87767893
48	0xc05c75bd	-3.4446862
49	0xbff9977e	-1.9499357
50	0xbf0f9d64	-0.56099534
51	0xbfc26401	-1.5186769
52	0xc0998efc	-4.798704
53	0x3fb28963	1.3948177
54	0x3dd97123	0.10617282
55	0xbfb62f67	-1.4233216
56	0x3ffea237	1.9893254
57	0x4012dc5f	2.2947004
58	0xbe36da9c	-0.1785683
59	0xbecbec26	-0.39828604
60	0x3bac42b7	0.0052569765
61	0xbf6bd7fc	-0.9212644
62	0xbf1ffa8a	-0.6249167
63	0xbf983177	-1.1890095
64	0x3dbd5028	0.09243804
65	0x3d1398f7	0.03603455
66	0x3fd9cf7c	1.7016444
67	0xbdbb722d	-0.09152637
68	0x3fb3f91d	1.4060398
69	0xc06e593e	-3.724197
70	0x40182a19	2.3775694
71	0x3f6fbaab	0.9364421
72	0x3fbad813	1.4597191
73	0x3fe83769	1.814191
74	0x3f135e18	0.5756545
75	0x3f372a6e	0.7154912
76	0x3dc0c3b3	0.09412327
77	0x3dd1e31f	0.10248398
78	0x400bc579	2.1839278
79	0x3e49d65d	0.1971068
80	0xbf2a9737	-0.66636986
81	0x4147da5d	12.490811
82	0x3f125c9a	0.5717255
83	0x3f62d4fa	0.88606226
84	0xc042b31f	-3.0421827
85	0x3f4ec91b	0.8077561
86	0x3e37bbc2	0.17942718
87	0x40127983	2.2886665
88	0x3fbca2c9	1.4737178
89	0xc07fb9fa	-3.995726
90	0x3f2bdef8	0.671371
91	0x3d4817cf	0.04885083
92	0x4008d8b2	2.138226
93	0xbdb9c70c	-0.09071168
94	0x405985d1	3.3987925
95	0x3fa814f3	1.3131393
96	0xbf1ebfda	-0.6201149
97	0x3e430387	0.19044314
98	0x3f64a4ce	0.8931397
99	0xbfbbc6c0	-1.4670029
100	0x3f9f7533	1.2457641
101	0xbf518f61	-0.81859404
102	0x40382b35	2.8776371
103	0x3ff165c0	1.8859177
104	0x3f1ce21b	0.6128251
105	0xbf1703e9	-0.5899034
106	0x3ea49e60	0.3215208
107	0x3f117a28	0.5682702
108	0x3e95f667	0.29289553
109	0xbe91700b	-0.28405795
110	0x3dd69ab2	0.104787245
111	0x3e1dc133	0.15405731
112	0xbfba0fa3	-1.4536022
113	0x402542ea	2.582209
114	0x401cd726	2.4506316
115	0x3fac9c93	1.3485283
116	0xc0c746c1	-6.227387
117	0xbec619ce	-0.38691562
118	0x3e8c4888	0.27399087
119	0x4045b013	3.0888717
120	0x3efbe4a7	0.49197885
121	0xbd9492be	-0.07254551
122	0x3d4d278b	0.05008654
123	0x3db3333a	0.08750005
124	0x400218fb	2.0327747
125	0xbf7c4966	-0.985495
126	0x406c7a46	3.694963
127	0x3e8df720	0.27727604
128	0xbf89f845	-1.0778891
129	0x3dfa761b	0.12229558
130	0x3fa7ac0b	1.3099378
131	0xbed88fcf	-0.42297217
132	0x3f5b490d	0.8565834
133	0xc004833e	-2.0705104
134	0xbf3ded17	-0.74189895
135	0xbca592ad	-0.020211542
136	0x3eaf8c5f	0.34286782
137	0xbff4a608	-1.9113169
138	0xbe8a2a98	-0.2698562
139	0xbf2c77d5	-0.6737035
140	0x3fb1f445	1.390267
141	0x3febe2e5	1.8428618
142	0x3f4c87f4	0.7989495
143	0x3f2c2f59	0.67259747
144	0x3e878744	0.26470387
145	0x40a7c49e	5.242751
146	0x3e6174d3	0.22017221
147	0x3f2fa3ca	0.686093
148	0xc0813f8a	-4.039006
149	0x4019511b	2.3955753
150	0x3f2f8e19	0.685762
151	0x3f684ca5	0.9074195
152	0xbedbdb5e	-0.429408
153	0x3fbbd9a0	1.4675789
154	0x3eb4f199	0.35340574
155	0x3f0e44a9	0.5557352
156	0xbfd9bf58	-1.7011518
157	0x3f62e7e8	0.8863511
158	0x3fa75a8b	1.3074507
159	0xc02bc56c	-2.6839247
160	0xbec2368f	-0.3793225
161	0x3ea7b5eb	0.3275598
162	0x3f9b950f	1.2154864
163	0x3ee9bd63	0.45652303
164	0x3e093542	0.13399222
165	0xbeb2ecb0	-0.34946203
166	0xbf2daeaf	-0.6784467
167	0x3e7d9f15	0.24767716
168	0x3f07644b	0.5288741
169	0x3ef807c2	0.4844342
170	0x3f46e68f	0.77695554
171	0xbf273cc5	-0.653271
172	0x400958d4	2.1460466
173	0x3fa4b7f5	1.2868639
174	0x3f89b216	1.0757473
175	0x3f86104f	1.0473727
176	0x3ec1712f	0.37781665
177	0x3f4daff1	0.8034659
178	0x40220dc8	2.5320911
179	0x3f51aae1	0.81901366
180	0x408d57d0	4.4169693
181	0x402ac6c8	2.6683826
182	0x3faea3b2	1.3643706
183	0x3f5d1de3	0.8637373
184	0x3efee9ff	0.497879
185	0xbe320321	-0.17384006
186	0x3e829a57	0.25508377
187	0x3ef5d5d7	0.4801471
188	0xc07394f0	-3.8059654
189	0x3fe145c6	1.7599418
190	0xbf8895fc	-1.0670772
191	0xbf00553f	-0.50130075
192	0xbea78743	-0.32720384
193	0xbedf64dc	-0.43631637
194	0xbee37e86	-0.44432467
195	0xbf69b883	-0.9129717
196	0x40314c29	2.7702734
197	0x40076b79	2.1159346
198	0x4034c14b	2.8242977
199	0x3fb6ec09	1.4290782
200	0xbea8ed8d	-0.32993737
201	0xbf4f5f47	-0.81004757
202	0xbfa38ea6	-1.2777908
203	0xbf0fe2df	-0.5620555
204	0xbe23be42	-0.15990546
205	0xbef2effc	-0.4744872
206	0xbf81d5d6	-1.0143383
207	0xbdac2e92	-0.0840732
208	0xbf144de7	-0.5793137
209	0x407d3828	3.9565525
210	0x3f3e2aea	0.7428423
211	0x3ea2626b	0.31715712
212	0xc1102761	-9.009614
213	0xbeec8d87	-0.46201727
214	0x3fba190a	1.4538891
215	0x401486dd	2.3207314
216	0xbf75c617	-0.96005386
217	0x3ed623de	0.4182424
218	0xbfdc147d	-1.7193753
219	0x3e9f6dfe	0.31138605
220	0x4007e31a	2.1232362
221	0xbf8ed0a7	-1.1157426
222	0x4014b5a8	2.3235874
223	0xbfc933d0	-1.5718937
224	0xbed1adc3	-0.40952882
225	0xbee5d194	-0.44886458
226	0xbf534d22	-0.8253957
227	0xbe9f2dfe	-0.31089777
228	0x3fe085d7	1.7540845
229	0x405dfa83	3.468415
230	0x4006c360	2.1056747
231	0x3f8e2425	1.110478
232	0xbf46f074	-0.7771065
233	0xbec6f5c7	-0.38859388
234	0xbf6217d9	-0.8831764
235	0xbf6ac022	-0.9169942
236	0x3eb6bb0f	0.3568959
237	0xbee41004	-0.4454347
238	0xbeed80d7	-0.4638736
239	0xbdf4cbb6	-0.11952917
240	0xbd31a1eb	-0.043367308
241	0xbfd03256	-1.6265361
242	0x3f05b2f2	0.52226174
243	0x3da09e1d	0.07842658
244	0xc104771c	-8.279079
245	0xbf6c6846	-0.9234661
246	0x3f4af26d	0.7927616
247	0x3fe6b0d8	1.8022718
248	0xbf04b676	-0.51840913
249	0xbeabc1f7	-0.3354642
250	0xc0301cd5	-2.7517598
251	0x3e272de9	0.16326107
252	0x3fcb4548	1.5880518
253	0xbf1175a0	-0.56820107
254	0x3fd66be7	1.6751679
255	0xbf898a46	-1.0745323

encoder.conv1.k.bias f4 [16]
0	0xc06f0828	-3.7348728
1	0x3f6e6ae3	0.93131846
2	0xbff10663	-1.8830074
3	0xbf894027	-1.0722703
4	0x3fc0b3fa	1.5054924
5	0x3faee681	1.3664094
6	0xbede113a	-0.43372518
7	0x3e53377f	0.20626639
8	0xbf99f075	-1.2026507
9	0x4038db9e	2.8884044
10	0xbe33478e	-0.17507765
11	0x3f8c8f1b	1.0981172
12	0xbf0835da	-0.5320717
13	0x3fca1d65	1.579022
14	0xbe674d65	-0.22588117
15	0x400b88c7	2.1802232

encoder.conv1.v.weight f4 [16, 64]
0	0x3fcacf54	1.5844522
1	0x3f1393fc	0.5764768
2	0x3e82700e	0.25476116
3	0xc0709423	-3.7590415
4	0xbf368d31	-0.7130919
5	0x40876492	4.2310266
6	0xc020c447	-2.5119798
7	0x3f6073ee	0.87676895
8	0x3f8b7554	1.0895181
9	0x3fdd4209	1.7285777
10	0x3f30f796	0.69127786
11	0xc063cd96	-3.559423
12	0x3e48916a	0.19586721
13	0xbf10ebd9	-0.56609875
14	0x3f14332d	0.5789059
15	0xbfdfbf6b	-1.7480291
16	0xbeced682	-0.4039803
17	0xc1335d08	-11.210213
18	0x41235fc2	10.210878
19	0xc05a874a	-3.4145074
20	0xc145475c	-12.329922
21	0xbf23ff35	-0.6406129
22	0xc045c470	-3.0901146
23	0xc0476afe	-3.1159053
24	0xbfabaa8a	-1.3411419
25	0x40dd50e6	6.9161253
26	0xbfc2a40a	-1.5206311
27	0x3f1e74b5	0.6189683
28	0x3f8f41fd	1.1192013
29	0x4063e985	3.561128
30	0xbfe8c40c	-1.8184829
31	0xbe55c79b	-0.20876925
32	0x3f0d26d4	0.5513737
33	0x3ec7bcd1	0.39011243
34	0x4011c1c7	2.2774522
35	0x3fd021fc	1.6260371
36	0xbfe3ab48	-1.7786646
37	0x40af708d	5.482489
38	0x3c3c71e2	0.011501761
39	0x3f10f57e	0.5662459
40	0x4013dcc7	2.3103502
41	0x407f1a19	3.9859679
42	0x3fc69215	1.5513331
43	0xc03ff181	-2.9991152
44	0x401f54f5	2.4895604
45	0x3e2058a7	0.15658818
46	0x3fb740d4	1.4316659
47	0xbf481053	-0.7814991
48	0xbfd866ee	-1.6906412
49	0xbfbb97d3	-1.4655708
50	0x4117cd76	9.487661
51	0xbf66655a	-0.899984
52	0x401fc11f	2.4961622
53	0x3fb75e3f	1.4325637
54	0xbf0c1616	-0.547212
55	0x3feb811f	1.839878
56	0xbe9a446d	-0.3013033
57	0x40b8013d	5.750151
58	0x3f2c949f	0.6741428
59	0x3f94cfc6	1.1625907
60	0xc0bce542	-5.9029856
61	0x40710c6f	3.766384
62	0xc005ecd9	-2.092581
63	0xc00f4b13	-2.2389572
64	0x3f12d79b	0.5736024
65	0xbdaaf1f9	-0.08346934
66	0x3e76388d	0.2404501
67	0xbe3af6d7	-0.18258224
68	0xbff3969d	-1.9030339
69	0xbfa43518	-1.2828703
70	0xbf4bbe81	-0.7958756
71	0xbe4ff2df	-0.20307492
72	0x3f16a812	0.58850205
73	0xbf1b518d	-0.6067131
74	0x3f5dc3bf	0.8662681
75	0x3f424f5a	0.7590233
76	0xbe57dde0	-0.21080732
77	0x3e897ea1	0.26854423
78	0xbef4fc3a	-0.47848684
79	0xbe731349	-0.23737825
80	0x3eb36a4f	0.35042045
81	0x3f517f01	0.8183442
82	0x3f22cef9	0.63597065
83	0xbe5c15c7	-0.21492682
84	0x4053fb4b	3.3122127
85	0x3d0825ed	0.033239294
86	0xbf92dcef	-1.1473674
87	0xbf117237	-0.56814903
88	0x3f64fbb9	0.894466
89	0xc016d932	-2.3570065
90	0x3f96f283	1.1792759
91	0xbc2deb8c	-0.010615241
92	0x3e174cc5	0.14775379
93	0x3f460036	0.7734407
94	0xbfff22be	-1.9932477
95	0x3fbc6bd3	1.4720405
96	0x3f5042c5	0.8135188
97	0x3e936e4f	0.28795096
98	0x3f56d589	0.8391958
99	0xbef002c9	-0.46877125
100	0xbfaf46f7	-1.3693532
101	0xbf2eb5cc	-0.6824615
102	0xbe5f2f5b	-0.21795408
103	0xbe240bcc	-0.16020125
104	0x3ecb6e6c	0.39732683
105	0xbe80079f	-0.25005814
106	0x3f42b44f	0.7605638
107	0x3f64d77a	0.8939129
108	0xbe01c0a8	-0.12671149
109	0x3d802feb	0.062591396
110	0xbeeadd1e	-0.45871824
111	0x3e9d749b	0.30753025
112	0x3e192a2c	0.14957494
113	0x3c3aaf99	0.011394405
114	0x3eea9bb4	0.45821917
115	0x3e0a8c9b	0.13530199
116	0xbf7bc097	-0.98340744
117	0x3f3dee93	0.7419216
118	0x3e27bcba	0.16380587
119	0xbead49a5	-0.3384525
120	0x3f44abca	0.7682463
121	0xc01833ad	-2.378154
122	0x3f52c229	0.82327515
123	0xbdc5ef41	-0.09664775
124	0x3f332c62	0.699896
125	0x3f085a92	0.532632
126	0xbe1512c9	-0.14557947
127	0x40192760	2.3930283
128	0xbe00ba87	-0.12571155
129	0xbd86abbd	-0.06575725
130	0xbf4d6be4	-0.80242753
131	0xc02949bd	-2.6451256
132	0xbf9bf0d0	-1.2182865
133	0xc1074827	-8.455115
134	0x3f02ed57	0.511434
135	0x3e938929	0.28815582
136	0x3db1b2a0	0.08676648
137	0xbf0b45ab	-0.5440318
138	0xbec89be9	-0.3918145
139	0x3f76fab5	0.964763
140	0x3dc625d6	0.096751854
141	0xbf7d1e8a	-0.98874724
142	0x3e7f724c	0.24945945
143	0xbe77dc3f	-0.24205111
144	0xbf04d351	-0.51884943
145	0x406a9da5	3.6658719
146	0x40471ba1	3.1110613
147	0x3da82149	0.08209474
148	0xc1081220	-8.504425
149	0x3ee9b1ed	0.4564356
150	0xbfb5c5ca	-1.4200985
151	0x3f75222a	0.95755255
152	0x3f453e2e	0.77048004
153	0xc0ccfecf	-6.4061046
154	0x40160273	2.3438995
155	0xbf6d3889	-0.9266439
156	0x3f0bf8a9	0.546763
157	0x3f75f1f0	0.9607229
158	0xbfe6d807	-1.8034676
159	0x400e341a	2.22193
160	0xbef93218	-0.4867103
161	0xbdb571fd	-0.08859632
162	0xbe9bf46d	-0.3045992
163	0x3d2a70cf	0.04161149
164	0xbf888237	-1.0664738
165	0x3f283bfb	0.6571652
166	0xbf811953	-1.0085853
167	0xbf18800c	-0.59570384
168	0x3ecabad3	0.3959566
169	0xbef992ce	-0.48744816
170	0xbe960cf2	-0.2930675
171	0x3e8e2623	0.2776347
172	0x3e9da71d	0.3079156
173	0xbfc79b8f	-1.5594348
174	0xbe501ea6	-0.20324191
175	0xbeffc1c1	-0.4995251
176	0x3f9d55d8	1.2291822
177	0xbd879fe5	-0.06622294
178	0xbfbd1ac7	-1.4773797
179	0xbf17e1f1	-0.59329134
180	0xbf359f4d	-0.709462
181	0xbfa8f20a	-1.3198864
182	0xbf9f4186	-1.2441871
183	0xbe679a53	-0.22617464
184	0x3f91de1c	1.1395907
185	0xc0ba9450	-5.8306046
186	0xbd7fd2be	-0.06245684
187	0xbf2c91ae	-0.6740979
188	0xbeecd22d	-0.462541
189	0x3c82d492	0.015970502
190	0xbfce5e5a	-1.6122544
191	0x4000e58b	2.0140102
192	0x3e614c92	0.22001866
193	0x3e2a0eae	0.16607162
194	0xbf4001a9	-0.75002533
195	0x3f767a61	0.96280485
196	0x40199c6e	2.4001727
197	0xc08576e0	-4.170761
198	0xbfb97c5b	-1.4491075
199	0x3ffd9793	1.9811882
200	0x3f614bf2	0.8800651
201	0x3fa4d218	1.2876616
202	0x3eb3d59f	0.35123917
203	0x3d781ccb	0.060574334
204	0x3e928262	0.286151
205	0xbfe7113a	-1.8052132
206	0xbf4d83d8	-0.802793
207	0x3e97419a	0.29542238
208	0x3f1fc7c6	0.62414205
209	0xbe29e02c	-0.16589421
210	0x4020649a	2.5061402
211	0xbe09fed4	-0.13476115
212	0xc027a783	-2.619599
213	0xbea0574d	-0.31316605
214	0xbf5c5a8c	-0.86075664
215	0x4000ecb9	2.0144484
216	0x3d1c861a	0.038213827
217	0xbd7efdc7	-0.06225374
218	0xbe947c5c	-0.2900113
219	0xbea50b01	-0.32234958
220	0x3fa5bc50	1.2948093
221	0x3d8fb0d6	0.07016151
222	0x3ec103f3	0.37698326
223	0x4063b753	3.5580642
224	0xbdf8c72e	-0.121473655
225	0xbeb91384	-0.36147702
226	0xbf60aa26	-0.87759626
227	0x3f51d4f3	0.8196556
228	0x3fec7bf1	1.8475324
229	0xc01b3a29	-2.4254248
230	0xbf6906a3	-0.9102575
231	0x3f0e548e	0.5559777
232	0x3e70b136	0.235051
233	0x3ee9c6a7	0.45659372
234	0xbec51e5b	-0.38499722
235	0x3dae2e63	0.08504941
236	0xbb54aafa	-0.0032450543
237	0xbfe33aed	-1.7752358
238	0xbfb0220b	-1.3760389
239	0xbef4c917	-0.4780967
240	0x3fbf4651	1.4943334
241	0xbd35876a	-0.044318594
242	0x3edd2de7	0.43199083
243	0xbf023c63	-0.5087339
244	0xbf83abbd	-1.0286785
245	0xbfa33395	-1.2750117
246	0x3eb6a7fe	0.35675043
247	0x3f2a8c56	0.66620386
248	0x3e289814	0.16464263
249	0xc026d507	-2.6067522
250	0xbfb594b6	-1.4186008
251	0xbeb04334	-0.34426272
252	0x3f29922d	0.6623867
253	0xbebbbc0f	-0.36666915
254	0x3d7cdc35	0.061733443
255	0x400a3e62	2.1600575

encoder.conv1.v.bias f4 [16]
0	0x404e8679	3.2269576
1	0x4010d238	2.2628307
2	0x404a1252	3.1573682
3	0xbf35a64c	-0.70956874
4	0x40124f93	2.2861068
5	0x3f336776	0.70079744
6	0x3eda30c7	0.4261534
7	0x3f7b9fbe	0.9829062
8	0xbc5061af	-0.012718602
9	0x409198cc	4.549902
10	0x3f9869f3	1.1907333
11	0x3f5410ca	0.8283812
12	0x3f15a521	0.5845509
13	0x3fe062c0	1.7530136
14	0x3ff972e3	1.9488186
15	0x402e5e06	2.7244887

encoder.conv2.q.weight f4 [32, 32]
0	0x3c28cebd	0.0103031965
1	0xbfd1b64c	-1.6383758
2	0x3e8dd75a	0.27703363
3	0xbe947696	-0.28996724
4	0xbed36fb2	-0.41296154
5	0x3dfd7ae7	0.123769574
6	0x3d9c43be	0.07630108
7	0xbff6ee6c	-1.929151
8	0x3eb993cf	0.36245582
9	0x3f77774b	0.966664
10	0x3f22c2c8	0.6357846
11	0x3f50eb0b	0.8160865
12	0x3f102205	0.5630191
13	0x3e9605d7	0.2930133
14	0xbe7a06ab	-0.24416606
15	0x3f998d59	1.1996261
16	0xbe4b65eb	-0.19863097
17	0xbe5e8752	-0.21731308
18	0x3f28f56e	0.65999496
19	0x3f3105c7	0.6914944
20	0xbfb255df	-1.3932456
21	0xbd3b6d2c	-0.04575841
22	0x3d09dd52	0.033658333
23	0xbf8f5d2d	-1.120031
24	0xbf48de64	-0.7846434
25	0x3ea56986	0.3230707
26	0x3dfc3ebe	0.123166546
27	0x3e1d59bb	0.1536626
28	0xba5e1263	-0.0008471368
29	0xbee9f282	-0.4569283
30	0x3fa0d4e4	1.2564969
31	0xbf974c27	-1.1820115
32	0x4057cf69	3.3720343
33	0x3f46b334	0.7761719
34	0x3f0fb895	0.56141025
35	0xbf7dd326	-0.9915031
36	0xbf1cceaa	-0.61252844
37	0x3f7101c0	0.94143295
38	0xbf26ced4	-0.65159345
39	0x3feaeac6	1.8352897
40	0x3fd75adc	1.6824603
41	0xbd2f99b7	-0.042871203
42	0xbfbd0b76	-1.4769123
43	0xbdb138bd	-0.086534
44	0x3da785c0	0.08179808
45	0x3faeae2b	1.3646902
46	0xbf574afe	-0.84098804
47	0xbead6e43	-0.33873186
48	0xbd9427ed	-0.07234178
49	0x3fbab4b9	1.4586402
50	0xbaf9f914	-0.0019071423
51	0xbeb839ef	-0.359817
52	0xbf2be35f	-0.67143816
53	0x3e0a33f9	0.13496388
54	0xbe75ee78	-0.2401675
55	0x3ec061da	0.37574655
56	0xbf1db645	-0.61606246
57	0x3e30dbaa	0.17271295
58	0xbf3721c6	-0.7153591
59	0xbf27980e	-0.6546639
60	0x3ec5d50f	0.38639113
61	0xbe47b7c8	-0.195037
62	0x3f629030	0.8850126
63	0xbf5e8b3f	-0.8693122
64	0xbf09d3e2	-0.5383893
65	0x3f168a43	0.5880472
66	0x3fadf29b	1.3589662
67	0x3eeccad5	0.462485
68	0x4005655d	2.0843117
69	0xc01cd0b4	-2.4502382
70	0x3e42f98c	0.19040507
71	0xbfec235c	-1.8448291
72	0xbf2379bd	-0.6385763
73	0xbf4e7e6d	-0.8066166
74	0xbea0d871	-0.31415132
75	0x3f995152	1.1977942
76	0x3ea53153	0.32264194
77	0xbf0482d0	-0.51762104
78	0x3f31f7c2	0.69518673
79	0x3f0e09e9	0.5548387
80	0xbf2617e9	-0.64880234
81	0x402d9153	2.711995
82	0xbec571f2	-0.38563496
83	0x3f9b7edc	1.214809
84	0xbfea78c6	-1.8318107
85	0xbf47be79	-0.78025013
86	0x3ec9789f	0.3934984
87	0x3db25735	0.0870804
88	0x3f0572dd	0.5212839
89	0xbf1534be	-0.58283603
90	0xbfa7129e	-1.3052557
91	0x3f01a5eb	0.50643796
92	0xbf7337fc	-0.950073
93	0xbc36e4a3	-0.01116291
94	0x3e6283b7	0.22120558
95	0xbfa6d99d	-1.303516
96	0xbf896b85	-1.0735937
97	0xbebf92e1	-0.37416747
98	0xbd09ba9b	-0.033625226
99	0x3faa9336	1.3326175
100	0xc0171b95	-2.3610585
101	0x3f93cff4	1.1547837
102	0x3f9f998a	1.2468731
103	0xbe950993	-0.29108867
104	0x3f8464c1	1.0343248
105	0x40824355	4.0707192
106	0x3f011c03	0.5043337
107	0x3ff52996	1.9153316
108	0xbfba7c2b	-1.4569143
109	0x3f876afd	1.0579525
110	0x3f8a1c12	1.0789816
111	0xbfcc4b69	-1.5960513
112	0x3f5be47f	0.8589553
113	0xbf844186	-1.0332496
114	0x3ef2ec51	0.4744592
115	0x3ebcc815	0.368714
116	0xbfc74d63	-1.5570492
117	0x3ea6a6e6	0.32549208
118	0x3fd56253	1.6670631
119	0x3e79606d	0.2435319
120	0x3f06c125	0.52638465
121	0x4082f1b5	4.0920053
122	0x3eb9d895	0.3629805
123	0x3f54f323	0.831835
124	0xbeb568c2	-0.35431486
125	0x400f0dae	2.23521
126	0x3f378cad	0.7169903
127	0xbff261b2	-1.8936064
128	0xbed47ffc	-0.41503894
129	0x3fc6cbc5	1.5530936
130	0xbe9d7eec	-0.30760896
131	0xbfcb9a2e	-1.5906427
132	0x3f8501a9	1.0391132
133	0x3f6c4e20	0.9230671
134	0x3fcf0435	1.6173159
135	0x3ee5b26e	0.44862694
136	0xbedda328	-0.4328854
137	0xbf5ae0ef	-0.8549947
138	0xbf86e46a	-1.0538456
139	0x3fced20d	1.6157852
140	0x3f2f102e	0.68384063
141	0xbf821649	-1.0163051
142	0x3f285243	0.6575052
143	0xbef22fbc	-0.47302043
144	0x3ce3f07b	0.027824631
145	0xbf797716	-0.97447336
146	0x40264655	2.5980427
147	0x3f838f95	1.0278193
148	0x3e01bde2	0.12670091
149	0xbf0f08f0	-0.5587301
150	0x3fa8dfdc	1.3193316
151	0x3ed223ee	0.41043037
152	0xbf02bc95	-0.51069003
153	0xbf4745d1	-0.77840906
154	0xbfb376bf	-1.4020613
155	0x404fe938	3.2486095
156	0x3ec47ebd	0.38377944
157	0xbfb7b932	-1.4353392
158	0x3e9fddca	0.312239
159	0xc06dd1e7	-3.7159364
160	0x3f591de5	0.8481124
161	0x3e42fe86	0.19042405
162	0xbea24e11	-0.31700185
163	0x3f6318da	0.88709795
164	0x3f5d03e7	0.8633408
165	0xbe6c3031	-0.23065259
166	0xbf0025f2	-0.500579
167	0x3f02a08e	0.51026237
168	0x3eb0636d	0.34450856
169	0xc082c4c4	-4.0865192
170	0x3ed8f9fb	0.4237822
171	0xbe2a46b6	-0.16628537
172	0xbf70af8a	-0.9401785
173	0xbf41f50c	-0.75764537
174	0xbdc2c777	-0.09510701
175	0xbfeda48a	-1.8565838
176	0x3f206040	0.62646866
177	0x3f808cf7	1.0043019
178	0xbfd6d150	-1.6782627
179	0x3ec8abfd	0.39193717
180	0x3f8783d2	1.0587103
181	0x3f800d58	1.0004072
182	0xbe449037	-0.19195639
183	0x3e94bb32	0.2904907
184	0x3e79411c	0.24341244
185	0xc08344f5	-4.1021676
186	0x3e93eab3	0.2889
187	0xbf3850ff	-0.7199859
188	0xbfa262a4	-1.2686353
189	0xbeee61a4	-0.4655887
190	0xbef6ec09	-0.48226956
191	0xbf2eb741	-0.68248373
192	0x3ff54070	1.916029
193	0x3f2b54fb	0.66926545
194	0x3f0877bd	0.53307706
195	0xbe323c35	-0.1740578
196	0xbf7cb18f	-0.9870843
197	0x3f41296b	0.75453824
198	0x3f5471ce	0.8298615
199	0x4040d703	3.0131233
200	0xbe3d2422	-0.18470815
201	0xc02560ac	-2.5840254
202	0x401ea7fa	2.4790025
203	0xbf5dc467	-0.8662781
204	0xbf28474a	-0.6573378
205	0x3f31cb83	0.6945116
206	0xbebd49e6	-0.36970443
207	0x3fbf3e30	1.4940853
208	0x408eee68	4.4666023
209	0x3ea6073f	0.32427403
210	0x4041c935	3.0279057
211	0x3f07034d	0.5273941
212	0xbf909ff0	-1.1298809
213	0x3f38a40a	0.72125304
214	0xbf298fc5	-0.66235
215	0x3ff1f5ff	1.8903197
216	0xbf80314a	-1.0015042
217	0xbf0ae677	-0.5425791
218	0x3f62f65c	0.88657165
219	0xbe9c98d6	-0.30585355
220	0xbf9a2459	-1.2042342
221	0xbcc95dde	-0.024580892
222	0x3eb70175	0.357433
223	0xbf6199cf	-0.8812532
224	0x3e0ba61e	0.13637587
225	0x3fc22b71	1.5169507
226	0xbfda8bfe	-1.7073972
227	0x3f4ea238	0.80716276
228	0x3f2f91fe	0.6858214
229	0x3f5272e4	0.8220656
230	0xbfccfc64	-1.6014524
231	0x3e29bdbd	0.16576286
232	0x3f491c1e	0.7855853
233	0xbf2230f6	-0.6335596
234	0x402da836	2.7133918
235	0xc05f697f	-3.490814
236	0x3fb20d51	1.3910314
237	0xbf38b38e	-0.7214898
238	0x3f62a323	0.88530177
239	0x3fa36884	1.2766271
240	0xbe51cd4e	-0.20488474
241	0xc005c321	-2.0900347
242	0x40024419	2.0354064
243	0xbf714164	-0.94240403
244	0x3ecc6e79	0.39928034
245	0xbea15bf3	-0.31515464
246	0xc0348534	-2.82063
247	0xbf967140	-1.1753311
248	0x3d6fe95e	0.058572166
249	0xbf621ac6	-0.88322103
250	0x40521afe	3.2828975
251	0x3e0d55bd	0.13802238
252	0x3f274256	0.65335596
253	0x3f1cf5a4	0.6131232
254	0x401aabc1	2.416733
255	0xc0241e6a	-2.5643563

encoder.conv2.q.bias f4 [32]
0	0x3f88dc9b	1.0692323
1	0x40145204	2.3175058
2	0x404d9a82	3.2125554
3	0x40130f0d	2.2977936
4	0x3e30eced	0.1727788
5	0xbeedb943	-0.46430406
6	0x3f2da062	0.6782285
7	0x3f681b19	0.9066635
8	0x3f135908	0.57557726
9	0xc0038ee7	-2.055597
10	0xbd362ebe	-0.04447817
11	0x3faf5b3a	1.3699715
12	0x3f6a7363	0.91582316
13	0x3ff3bd29	1.9042102
14	0x400a0f1e	2.1571727
15	0x3fada2b5	1.3565279
16	0xbef1afd1	-0.4720445
17	0xc002e729	-2.045359
18	0x3f442642	0.76620877
19	0xc068ebe5	-3.6393979
20	0xc0654eba	-3.58293
21	0x400e7a9c	2.2262335
22	0x3f27af27	0.65501636
23	0x3f8a2e01	1.0795289
24	0x4034bb7b	2.823943
25	0x406f118c	3.735446
26	0xbf9054f8	-1.127593
27	0xbef9870b	-0.48735842
28	0x3feb0bf5	1.8363024
29	0xbded8028	-0.115967095
30	0xbe944425	-0.2895824
31	0x3e58567d	0.21126743
