trained_model/model_epoch348.chrom9.pkl (torch, 41775 bytes, 18 tensors)

encoder.conv0.q.weight f4 [32, 28]
-0.2045076 0.026103385 -0.9023525 0.06693141 0.12310258 -0.19008525 -0.8857697 -0.067786515
-0.013851613 0.48752278 1.1236984 0.219211 -0.16393436 -1.1459745 46.303078 44.757545
-0.45634377 0.08216678 0.11139598 -0.27708715 -1.208621 -0.065110974 -0.0034230684 0.57935464
3.3455362 0.7391483 0.7580805 -3.8856914 1.3081347 1.440891 -1.2050854 -0.1828515
-0.39607784 -0.6712239 -0.91829115 -2.1293283 0.94322646 1.22974 -0.26096943 0.38931867
-0.849066 -1.705919 -10.973406 -11.514003 -5.2326903 -0.41591516 0.10814251 -0.87439364
-3.1505814 -1.987877 -0.5270502 1.7822016 3.8737524 -0.3479526 -3.5055938 0.3192861
1.0249602 1.2437426 -0.9828843 1.2178614 0.00019768975 0.018743634 -1.4452065 2.9535618
-0.994523 0.09477025 0.43140483 -0.4388368 0.06300363 -1.1436034 -3.6667185 -4.5039773
-4.468851 0.36552784 1.1137406 0.09800707 3.6407447 0.37634605 -1.0574021 -1.8893205
-3.1219368 -4.3628383 0.2765893 -0.9096138 -0.113696314 0.0015053482 -2.1166823 -0.37049806
-0.49350786 -0.63365763 -1.8639865 0.040986937 -0.11968314 -0.7146053 -0.69546527 -0.85719293
-1.0477492 -1.7881632 -2.631157 -1.4061351 -0.6410352 -0.3274801 -0.47620973 -0.3645312
-3.861835 -0.010698212 -0.020313885 -0.47747326 0.2730611 4.069521 -2.358399 -1.2992401
0.023979515 -0.027214212 -0.3257797 0.052153338 -0.57948893 0.21997918 0.15661593 0.2511667
-0.09691475 -0.039287042 -0.14068714 0.044925984 -0.01867937 0.5062666 88.019936 85.16178
1.0012909 -0.2937465 0.1244844 0.17805997 1.6411071 0.20667145 -0.00888235 0.17843789
-1.6912627 0.59841585 0.4032757 -0.87941164 -0.10364712 -0.07731833 -0.16927485 0.09840601
-0.61168957 2.0996964 -0.019269548 -1.0263693 1.191277 0.63829154 -0.2910935 -0.7105108
-0.6747741 -0.15240276 7.1627192 4.261686 5.6048603 -1.1815656 -0.1595153 -0.35492325
4.4560456 0.026663084 -0.1937212 -0.0019950557 -2.5533588 2.5721428 4.129201 2.1930695
-0.16716601 -0.07103075 -0.08924114 0.051241584 -0.20222051 0.22520085 -0.3717298 0.118813396
-0.038361397 0.019764677 -0.26254216 -0.216039 -0.39056438 -0.06773565 -96.36522 -93.25574
0.55484885 -0.18602738 0.020871187 -0.12182412 0.5109593 0.20901191 -0.007057556 0.10326539
-2.0946984 0.26199117 0.73292154 -0.4153653 2.7653441 2.9958725 -0.7918414 -0.8326101
-0.7844035 0.30218166 -0.8386016 0.97099525 0.12462735 -0.34380162 0.04227192 -0.20966896
-0.3522622 -1.2086169 -2.7776806 -2.958368 7.4897537 1.4981574 0.6476676 -0.19391961
-12.631017 -1.6223606 -0.054126184 -0.42640138 -8.148654 -0.7924039 -1.2704362 -2.276909
-0.375435 -0.3418397 1.7252448 0.010908324 -0.18112907 1.0977588 1.8868701 -0.71793306
-0.23129149 -1.286271 0.93126637 1.7104634 1.6561834 1.565914 -19.06395 -18.576645
4.5406446 0.27455077 -0.061210215 0.82857335 1.4410304 -0.55207574 -0.21403693 -1.0711427
2.2888305 3.679706 2.8742137 2.669217 -1.2647107 -1.1345737 -0.65886647 0.5851258
00000000: 716a 51be c4d6 d53c 9300 67bf 5613 893d
00000010: 351d fc3d b5a5 42be cec1 62bf a8d3 8abd
00000020: e0f1 62bc 969c f93e 59d5 8f3f d978 603e
00000030: 69de 27be 4baf 92bf 5a36 3942 ba07 3342
00000040: e4a5 e9be 0f47 a83d 9323 e43d 5ede 8dbe
00000050: 18b4 9abf e758 85bd 8f55 60bb 9650 143f
00000060: 441d 5640 d338 3d3f 9011 423f 2baf 78c0
00000070: f570 a73f 1e6f b83f 3d40 9abf 6c3d 3bbe
00000080: b7ca cabe 54d5 2bbf 2115 6bbf ea46 08c0
00000090: 4a77 713f 1f68 9d3f c99d 85be c754 c73e
000000a0: 645c 59bf 8e5b dabf 1293 2fc1 5b39 38c1
000000b0: 3372 a7c0 d5f2 d4be d279 dd3d 43d8 5fbf
000000c0: 20a3 49c0 c172 febf c3ec 06bf 2f1f e43f
000000d0: 8feb 7740 d826 b2be a65b 60c0 7879 a33e
000000e0: e531 833f f532 9f3f 4e9e 7bbf e2e2 9b3f
000000f0: f04a 4f39 408c 993c 87fc b8bf 2807 3d40
00000100: 0f99 7ebf e816 c23d 18e1 dc3e 38af e0be
00000110: 0c08 813d 9961 92bf 84ab 6ac0 9520 90c0
00000120: d400 8fc0 7726 bb3e 0d8f 8e3f eeb7 c83d
00000130: f601 6940 6eb0 c03e f458 87bf 41d5 f1bf
00000140: d0cd 47c0 5f9c 8bc0 1d9d 8d3e 73dc 68bf
00000150: 9dd9 e8bd 1b4f c53a b977 07c0 ecb1 bdbe
00000160: 10ad fcbe 6337 22bf 1c97 eebf ebe1 273d
00000170: 6f1c f5bd 5ff0 36bf 030a 32bf ff70 5bbf
00000180: a51c 86bf 88e2 e4bf e064 28c0 3cfc b3bf
00000190: e21a 24bf 79ab a7be c3d1 f3be d5a3 babe
000001a0: 4e28 77c0 8e47 2fbc 4e69 a6bc 6077 f4be
000001b0: aace 8b3e 8439 8240 02f0 16c0 804d a6bf
000001c0: b070 c43c 57f0 debc 99cc a6be bd9e 553d
000001d0: 6359 14bf 3942 613e ed5f 203e ec98 803e
000001e0: 3e7b c6bd 73eb 20bd 4a10 10be 4f04 383d
000001f0: 7a05 99bc b09a 013f 350a b042 d552 aa42
00000200: 4d2a 803f f165 96be adf1 fe3d 5a55 363e
00000210: cc0f d23f aea1 533e 4787 11bc 6cb8 363e
00000220: 4c7b d8bf c831 193f 277a ce3e 1f21 61bf
00000230: f144 d4bd 1359 9ebd 6356 2dbe 1789 c93d
00000240: b097 1cbf 6d61 0640 2cdb 9dbc 1260 83bf
00000250: c47b 983f 1367 233f 350a 95be 09e4 35bf
00000260: ffbd 2cbf 780f 1cbe ff34 e540 bb5f 8840
00000270: 045b b340 8b3d 97bf fb57 23be 80b8 b5be
00000280: ed97 8e40 8a6c da3c da5e 46be 7bbf 02bb
00000290: 3b6a 23c0 fd9d 2440 6a22 8440 405b 0c40
000002a0: 912d 2bbe 9278 91bd 0fc4 b6bd b2e2 513d
000002b0: e512 4fbe 0d9b 663e 5e53 bebe 7054 f33d
000002c0: d720 1dbd 88e9 a13c ed6b 86be 5439 5dbe
000002d0: 0ef8 c7be fdb8 8abd feba c0c2 f082 bac2
000002e0: 930a 0e3f f67d 3ebe 0dfa aa3c ed7e f9bd
000002f0: 3bce 023f 3807 563e 1243 e7bb ce7c d33d
00000300: 8a0f 06c0 b523 863e bfa0 3b3f c3aa d4be
00000310: 66fb 3040 60bc 3f40 1eb6 4abf ef25 55bf
00000320: abce 48bf 8eb7 9a3e 98ae 56bf 2593 783f
00000330: a03c ff3d c406 b0be 5225 2d3d 76b3 56be
00000340: b65b b4be f5b3 9abf 85c5 31c0 e755 3dc0
00000350: 10ac ef40 9fc3 bf3f 8bcd 253f dd92 46be
00000360: a518 4ac1 83a9 cfbf 6bb3 5dbd 4851 dabe
00000370: e360 02c1 fbda 4abf a79d a2bf e1b8 11c0
00000380: 0439 c0be 9d05 afbe d2d4 dc3f d4b8 323c
00000390: e679 39be 5c83 8c3f f684 f13f 76ca 37bf
000003a0: add7 6cbe 87a4 a4bf 7967 6e3f 77f0 da3f
000003b0: d1fd d33f df6f c83f f882 98c1 f89c 94c1
000003c0: f64c 9140 eb91 8c3e 90b7 7abd 621d 543f
000003d0: af73 b83f d654 0dbf 7f2c 5bbe 341b 89bf
000003e0: 337c 1240 4e80 6b40 1ef3 3740 74d4 2a40
000003f0: 0ae2 a1bf b639 91bf 79ab 28bf ceca 153f

encoder.conv0.q.bias f4 [32]
1.5849568 -0.37586504 -0.44754645 -0.66106266 -0.99116504 -0.9625757 0.39543682 0.102382556
1.0068995 1.0594256 -0.9346149 -0.99758255 0.484151 -2.0516174 -0.24177982 -3.7119567
0.8236778 0.402853 0.039254587 1.0748124 -1.6861407 1.9242783 1.3810534 1.3377495
0.24207267 -0.71701926 -0.32701534 -2.2431924 0.4570958 -0.74401575 0.62564 -0.5099347
00000000: dddf ca3f 6271 c0be cf24 e5be 673b 29bf
00000010: febc 7dbf 5c6b 76bf b276 ca3e f2ad d13d
00000020: 15e2 803f 429b 873f ec42 6fbf 9261 7fbf
00000030: a4e2 f73e b34d 03c0 2195 77be b390 6dc0
00000040: 8cdc 523f c042 ce3e 6bc9 203d 7493 893f
00000050: 75d3 d7bf c04e f63f 5cc6 b03f 603b ab3f
00000060: e6e1 773e 938e 37bf 8e6e a7be 7790 0fc0
00000070: 7608 ea3e d177 3ebf f129 203f 158b 02bf

encoder.conv0.k.weight f4 [32, 28]
-1.9619931 -1.783418 1.9332117 -0.38950828 0.19757502 -0.5769894 1.6520951 -0.14664333
-0.34187424 -0.21753725 1.457028 1.2421832 1.73434 1.3136282 -3.907091 -4.653837
-0.6992783 -0.7396463 0.28741863 -0.008182738 1.3742677 -0.106337234 -0.25259215 0.24684826
-1.9016843 -2.9347136 -2.916584 3.422693 -0.8967053 -0.85746413 0.21202362 0.89445436
0.3794271 1.5510321 0.2692101 1.1279982 -0.74522966 0.6780107 0.886828 0.41380566
-1.3139657 0.15222692 7.9836054 6.931135 4.633537 0.7963651 -0.042393226 1.3063151
0.40666765 0.8352296 0.6959844 -0.25180352 -5.5104194 -8.630048 6.311622 1.9170345
0.5659378 0.5323361 0.32961124 -0.25254613 -0.12182046 0.13118573 0.51220757 -1.6318402
0.61801535 -2.0617964 -0.029112054 1.0845368 0.86620766 1.0063668 15.415411 14.748518
1.4367213 0.22483967 -1.278102 -0.53475565 5.652991 -0.10505602 0.9581748 -0.0788885
2.9847445 -0.47995222 3.5805147 5.7828636 0.1716557 0.20338367 -0.33245707 0.017887475
0.11785803 0.08456099 -0.33153453 -0.07526317 0.0021941254 -0.07893038 -0.08821518 -0.04563228
-0.6464478 0.68573505 50.26283 52.692688 -0.8573004 0.075555645 0.083464876 0.03886835
-0.18626517 -0.037188333 0.03552354 -0.15162359 -0.57570726 1.2234195 -2.606928 0.021899106
-1.1706235 -1.2849717 -1.3993627 0.15957102 -0.3411161 -0.35724774 -0.78800815 0.013610952
-0.081835486 -0.3559129 -1.6295737 -1.3264297 -1.3213052 -0.5387717 58.031414 48.907436
-4.350311 -0.37978405 -0.17210779 -0.69143057 -1.5672247 0.14427197 -0.048167802 -0.0052890857
-4.2302666 -0.51743704 -0.67553437 -1.2381519 -0.8273763 -0.7444331 1.2866927 -0.35546404
-0.097205654 -2.9737277 0.67212707 0.9934542 -1.5407659 -3.256591 0.10910868 0.64948094
1.148865 1.5826842 0.56892645 -1.7975082 -5.593303 1.19256 -0.3528301 -1.4018441
-6.4378605 -0.3775627 0.11691851 1.13513 -7.9846306 -3.5169263 -0.6158318 -5.3653154
-0.954938 -0.8407384 -2.360918 0.31208107 -1.3890575 -2.0296223 -2.3167717 0.22744633
-0.24143574 -1.2095176 -2.1892507 -2.1713676 -2.2404017 -2.7419775 -59.51211 -57.247204
0.5823816 0.4962967 0.04839616 1.1088891 -3.2316048 0.14253078 -0.052639242 -1.0508547
-2.4105158 -1.2990967 -3.673029 -1.3347119 -0.22940701 -0.27868137 1.4450976 1.17755
0.9223887 -3.5863993 1.0385004 -0.97728574 -0.1712447 -0.5663404 -0.6807153 -0.4430649
0.059412323 0.87191314 -11.145045 -11.109868 -4.2507987 -0.9613018 -0.63018256 -3.8499444
8.138014 1.997995 0.093506925 -0.9272629 9.276569 3.5335178 2.8490293 2.0334933
-0.05400747 -0.06713177 -0.40639582 -0.035016093 -0.033609945 0.04940226 0.071120314 -0.19485469
-0.022588046 -0.11039608 -0.16660513 0.30231038 0.5597272 -0.1890305 52.77701 43.319153
0.43550974 0.03634488 -0.01873886 0.028763361 0.86206293 -0.17024362 -0.01671855 -0.09368953
0.22799404 -0.075781584 1.2957143 0.39474738 -0.6924272 -0.6018657 1.3281057 0.81573075
00000000: 9722 fbbf 0b47 e4bf 7b73 f73f a16d c7be
00000010: 1b51 4a3e 94b5 13bf da77 d33f ab29 16be
00000020: 240a afbe 16c2 5ebe e57f ba3f dcff 9e3f
00000030: dafe dd3f f824 a83f c70d 7ac0 3cec 94c0
00000040: e703 33bf 7659 3dbf 8928 933e e410 06bc
00000050: 01e8 af3f 56c7 d9bd c253 81be cac5 7c3e
00000060: 646a f3bf 59d2 3bc0 50a9 3ac0 670d 5b40
00000070: 7b8e 65bf c582 5bbf b81c 593e f6fa 643f
00000080: 4544 c23e 3888 c63f e8d5 893e 3f62 903f
00000090: 5fc7 3ebf 1c92 2d3f 2907 633f 56de d33e
000000a0: 0730 a8bf 60e1 1b3e b279 ff40 dccb dd40
000000b0: ef45 9440 95de 4b3f 85a4 2dbd 5535 a73f
000000c0: be36 d03e 9bd1 553f 092c 323f 64ec 80be
000000d0: 5b55 b0c0 ad14 0ac1 cff8 c940 6361 f53f
000000e0: 4de1 103f 2e47 083f cec2 a83e ba4d 81be
000000f0: 017d f9bd 8d55 063e 0920 033f 24e0 d0bf
00000100: 4136 1e3f 79f4 03c0 677c eebc 1ad2 8a3f
00000110: c9bf 5d3f a1d0 803f 86a5 7641 eef9 6b41
00000120: 7ce6 b73f 5f3c 663e d998 a3bf bfe5 08bf
00000130: 4de5 b440 9c27 d7bd f24a 753f 4b90 a1bd
00000140: 0e06 3f40 4cbc f5be 2727 6540 380d b940
00000150: 83c6 2f3e cf43 503e d037 aabe c188 923c
00000160: 8d5f f13d 502e ad3d e5be a9be 9423 9abd
00000170: 51cb 0f3b 40a6 a1bd 29aa b4bd eae8 3abd
00000180: 9a7d 25bf 558c 2f3f 230d 4942 50c5 5242
00000190: 0a78 5bbf ebbc 9a3d a2ef aa3d 6b34 1f3d
000001a0: 4cbc 3ebe cb52 18bd 2281 113d 3743 1bbe
000001b0: 8d61 13bf 0399 9c3f e9d7 26c0 c165 b33c
000001c0: fed6 95bf f479 a4bf 511e b3bf 9666 233e
000001d0: c5a6 aebe 2de9 b6be e7ba 49bf 7800 5f3c
000001e0: 5d99 a7bd 373a b6be df95 d0bf 73c8 a9bf
000001f0: 8720 a9bf f1ec 09bf 2b20 6842 37a1 4342
00000200: bf35 8bc0 0e73 c2be 063d 30be 9801 31bf
00000210: d29a c8bf 08bc 133e 9a4b 45bd 1150 adbb
00000220: 585e 87c0 c176 04bf d2ef 2cbf c37b 9ebf
00000230: efce 53bf 2b93 3ebf 59b2 a43f 62ff b5be
00000240: c213 c7bd 8e51 3ec0 8510 2c3f 0453 7e3f
00000250: d137 c5bf fd6b 50c0 5f74 df3d 6244 263f
00000260: 020e 933f 6595 ca3f 2aa5 113f c014 e6bf
00000270: 57fc b2c0 cea5 983f 26a6 b4be a16f b3bf
00000280: f402 cec0 e64f c1be f972 ef3d f14b 913f
00000290: 1882 ffc0 5215 61c0 27a7 1dbf aab0 abc0
000002a0: d176 74bf a23a 57bf 4819 17c0 17c9 9f3e
000002b0: a3cc b1bf 55e5 01c0 fd45 14c0 b1e7 683e
000002c0: ee3a 77be 79d1 9abf af1c 0cc0 b0f7 0ac0
000002d0: be62 0fc0 8f7c 2fc0 670c 6ec2 23fd 64c2
000002e0: f616 153f 9a1a fe3e 0d3b 463d 14f0 8d3f
000002f0: 9dd2 4ec0 97f3 113e 3f9c 57bd 6882 86bf
00000300: e445 1ac0 cd48 a6bf e812 6bc0 d7d7 aabf
00000310: ace9 6abe 53af 8ebe f5f8 b83f f5b9 963f
00000320: aa21 6c3f 9187 65c0 95ed 843f 662f 7abf
00000330: c55a 2fbe affb 10bf 5c43 2ebf 67d9 e2be
00000340: 565a 733d b335 5f3f 1b52 32c1 05c2 31c1
00000350: 8b06 88c0 e017 76bf a553 21bf 7d65 76c0
00000360: 4e35 0241 4dbe ff3f 8f80 bf3d 1a61 6dbf
00000370: d46c 1441 2825 6240 7f56 3640 c124 0240
00000380: f036 5dbd 627c 89bd 1d13 d0be 096d 0fbd
00000390: 95aa 09bd 065a 4a3d 87a7 913d fd87 47be
000003a0: 910a b9bc 5717 e2bd 899a 2abe 6dc8 9a3e
000003b0: 484a 0f3f 3691 41be a91b 5342 d046 2d42
000003c0: 22fb de3e 5ede 143d 3d82 99bc 24a1 eb3c
000003d0: 28b0 5c3f 5854 2ebe 57f5 88bc 4ce0 bfbd
000003e0: 4577 693e 6033 9bbd f7d9 a53f 541c ca3e
000003f0: e942 31bf df13 1abf 5eff a93f bbd3 503f

encoder.conv0.k.bias f4 [32]
1.7431108 -0.26903746 -0.66404027 -0.096599884 -2.421413 -1.1977023 -1.1114264 0.048300203
-0.26771706 -0.62343633 -1.043239 1.6541015 -0.055707403 -0.4090877 -1.5603436 -1.5998276
0.437405 0.45154926 0.68857527 -0.57186705 -0.20072262 0.3017845 1.1133888 -1.3689394
0.41919634 0.85925215 -0.55750287 -0.3832971 -0.044646587 0.5455897 -0.63740414 -0.7523965
00000000: 411e df3f 47bf 89be 8bfe 29bf 29d6 c5bd
00000010: 6ef8 1ac0 4f4e 99bf 3843 8ebf 6fd6 453d
00000020: 3612 89be 8699 1fbf db88 85bf 99b9 d33f
00000030: 722d 64bd f173 d1be 57b9 c7bf 27c7 ccbf
00000040: 8cf3 df3e 7731 e73e 7846 303f e165 12bf
00000050: 3b8a 4dbe 7f83 9a3e 8683 8e3f 6839 afbf
00000060: e7a0 d63e f3f7 5b3f 82b8 0ebf 843f c4be
00000070: 57df 36bd c4ab 0b3f eb2c 23bf 0f9d 40bf

encoder.conv0.v.weight f4 [32, 28]
-0.041376878 0.0018217406 0.20580909 0.07964733 0.07418342 -0.059543677 -0.11778683 -0.044469874
-0.0049202503 -0.094524406 -0.6008467 0.44914868 -0.032542747 -0.34529296 -49.248344 -50.572937
0.45785755 0.030688494 0.09101555 -0.10731876 -0.6075198 0.03009086 0.02191769 -0.058432784
0.073804885 -0.100088164 0.5413337 -0.53533787 0.18148632 0.21515535 -0.3209787 0.3772945
-0.11386404 -0.06293142 -0.056635186 0.1565244 -0.53966534 -0.1670077 0.49234003 -0.18708298
1.0239363 0.22511831 2.8582575 3.9293773 -4.203803 0.29096782 -0.10359388 -0.36544222
-4.1384487 0.27519387 -0.88678044 -0.2458602 3.1208882 1.4534154 -0.0015670115 -7.1685877
0.324494 0.43633062 0.86087793 -0.28974247 0.06437213 0.46873096 0.79983455 0.24728099
-0.17074288 -0.6344002 -0.962064 -0.31182545 -0.4748294 -0.2830231 27.87039 21.854301
7.3684373 -0.29985303 0.027447706 0.90104055 0.37636027 0.22130819 0.0077071064 -0.6360146
-1.5687208 -2.0043097 1.2650467 1.2437068 -0.031225588 0.12575975 -0.7128862 -0.007051821
-0.15987325 0.40545538 -0.3545635 -0.15306191 0.021449616 -0.12570778 -0.11813242 0.25789616
-0.29669362 -0.015982408 35.170345 40.319504 -0.65928584 0.033673663 -0.1676583 0.3755844
0.28000402 -0.20290811 0.018181525 -0.09003701 1.1863159 -0.44317746 -1.1369699 0.28523937
0.04813518 0.35903117 -1.0986071 0.07341071 0.46926576 -0.0975626 -0.92532593 0.116505414
0.033056255 -0.01800057 0.060767107 -0.54833025 -1.3115869 -1.3121638 30.835024 31.455938
-0.70100343 -0.022981985 0.039065212 -0.0488764 0.057713266 0.13271202 -0.007569287 0.090730414
-0.55543196 -1.0884783 1.7519618 0.46217513 -0.37868366 -0.65606004 1.3546234 -0.97944754
-0.058100246 -0.43415245 1.2859229 0.39218894 0.25092214 -4.7785497 -0.503538 -0.38622713
0.20186159 0.7591627 6.078137 3.8888652 -5.6164155 -2.1317952 -0.34499782 -3.012111
8.158587 -0.734926 -0.13349663 -0.36203104 -3.1323187 2.6186032 0.7086498 -1.0461878
0.08929702 -0.13630736 0.8593541 0.087631874 0.03957383 -0.080941096 1.2212722 0.058033187
0.01092269 -0.026173059 -0.622372 -0.26333454 0.010993678 0.71903986 0.6679661 1.1582302
-0.25203833 0.01015936 0.0072771064 -0.031800535 0.80950636 0.01605459 0.008642433 -0.01998474
-0.05865169 -0.0016988642 0.082515694 0.64364487 -1.1243284 -1.2500879 1.4264964 -0.50076866
-0.20134501 -0.44819328 0.93304783 -0.4270954 -0.13386397 -2.4240527 -0.45220935 0.44860467
0.5046471 1.0183535 -5.822928 -5.1646256 -1.9534491 0.8218403 -0.09680013 2.8970833
2.8546002 0.13047224 -0.47020334 -0.8872516 5.114541 0.1718884 1.9214457 -2.11791
0.17706987 -0.16353132 1.0986255 -0.08084763 0.02923852 -0.032612994 1.3988128 0.10925033
0.006928875 0.07597674 -1.0326614 0.7717044 0.644677 1.7740024 7.871884 7.931497
0.6988037 -0.06996012 0.0087251235 -0.048516527 0.28471187 0.13090214 0.025178099 0.07030793
-1.0679631 0.16364239 -0.5917096 0.4162953 1.3837092 1.4227335 -2.1017897 -1.3870685
00000000: cd7a 29bd 79c7 ee3a 9ebf 523e 241e a33d
00000010: 7aed 973d 12e4 73bd 393a f1bd 0b26 36bd
00000020: 0d3a a1bb 0396 c1bd 17d1 19bf d1f6 e53e
00000030: 8b4b 05bd 3dca b0be 4efe 44c2 b04a 4ac2
00000040: 4e6c ea3e 7066 fb3c 5c66 ba3d f0c9 dbbd
00000050: 6b86 1bbf 1b81 f63c ba8c b33c 3757 6fbd
00000060: 0427 973d 06fb ccbd d894 0a3f e70b 09bf
00000070: 8dd7 393e af51 5c3e 5257 a4be bf2c c13e
00000080: 8d31 e9bd 30e2 80bd 4cfa 67bd ef47 203e
00000090: 8227 0abf 1104 2bbe fe13 fc3e ae92 3fbe
000000a0: 5810 833f 6a85 663e b1ed 3640 eb7a 7b40
000000b0: 8e85 86c0 bcf9 943e 0729 d4bd 3e1b bbbe
000000c0: 2c6e 84c0 36e6 8c3e 0b04 63bf c7c2 7bbe
000000d0: a2bc 4740 8409 ba3f 2e64 cdba 1265 e5c0
000000e0: 1424 a63e ba66 df3e 7f62 5c3f 2059 94be
000000f0: 89d5 833d 81fd ef3e f5c1 4c3f 3a37 7d3e
00000100: 39d7 2ebe 0d68 22bf d449 76bf 96a7 9fbe
00000110: d71c f3be 67e8 90be 8ff6 de41 9cd5 ae41
00000120: 3dca eb40 5686 99be 03da e03c 98aa 663f
00000130: 4bb2 c03e 9d9e 623e e58b fc3b dad1 22bf
00000140: d8cb c8bf 9c46 00c0 0ded a13f c931 9f3f
00000150: cecc ffbc 2ac7 003e b67f 36bf f612 e7bb
00000160: d0b5 23be d997 cf3e 5989 b5be 43bc 1cbe
00000170: 1bb7 af3c 8ab9 00be 69ef f1bd f70a 843e
00000180: 3ae8 97be 8aed 82bc 6fae 0c42 2c47 2142
00000190: f5c6 28bf 65ed 093d 9eae 2bbe 994c c03e
000001a0: b05c 8f3e 25c7 4fbe 6cf1 943c 5365 b8bd
000001b0: 33d9 973f 28e8 e2be 3b88 91bf e50a 923e
000001c0: 6529 453d efd2 b73e 289f 8cbf 5b58 963d
000001d0: 9a43 f03e e7ce c7bd 29e2 6cbf 649a ee3d
000001e0: ff65 073d ee75 93bc eee6 783d 5f5f 0cbf
000001f0: 14e2 a7bf fcf4 a7bf 21ae f641 c3a5 fb41
00000200: f674 33bf b744 bcbc d802 203d 9f32 48bd
00000210: bf64 6c3d a9e5 073e c807 f8bb ded0 b93d
00000220: ca30 0ebf 4253 8bbf 4940 e03f 38a2 ec3e
00000230: d3e2 c1be 8df3 27bf 4d64 ad3f 13bd 7abf
00000240: 86fa 6dbd 3b49 debe 1f99 a43f fdcc c83e
00000250: de78 803e e1e9 98c0 dee7 00bf 90bf c5be
00000260: ceb4 4e3e 7d58 423f 1980 c240 2be3 7840
00000270: adb9 b3c0 556f 08c0 8ea3 b0be 6dc6 40c0
00000280: 9389 0241 1c24 3cbf 57b3 08be 225c b9be
00000290: e977 48c0 3297 2740 136a 353f 7be9 85bf
000002a0: 5be1 b63d 2894 0bbe a1fe 5b3f 5778 b33d
000002b0: 2b18 223d 72c4 a5bd a652 9c3f 35b4 6d3d
000002c0: 15f5 323c e268 d6bc c553 1fbf c9d3 86be
000002d0: d41e 343c ff12 383f d4ff 2a3f e340 943f
000002e0: 2b0b 81be 7273 263c cb74 ee3b 4741 02bd
000002f0: cf3b 4f3f ea84 833c fe98 0d3c 0ab7 a3bc
00000300: c13c 70bd 6cac deba fdfd a83d e9c5 243f
00000310: fee9 8fbf e102 a0bf 6f97 b63f 6032 00bf
00000320: 632d 4ebe 9779 e5be 39dc 6e3f 40ac dabe
00000330: a313 09be ae23 1bc0 fc87 e7be 83af e53e
00000340: 8d30 013f 6859 823f 6d55 bac0 9d44 a5c0
00000350: 9f0a fabf 2064 523f 263f c6bd d069 3940
00000360: c5b1 3640 849a 053e 7ebe f0be ec22 63bf
00000370: 52aa a340 8303 303e eff1 f53f d68b 07c0
00000380: ce51 353e c174 27be c39f 8c3f 7193 a5bd
00000390: 9f85 ef3c 3495 05bd 4c0c b33f a3be df3d
000003a0: 9e0b e33b b199 9b3d 402e 84bf 6b8e 453f
000003b0: 8d09 253f 8312 e33f 79e6 fb40 d3ce fd40
000003c0: cde4 323f 4047 8fbd d2f3 0e3c 44b9 46bd
000003d0: c1c5 913e 360b 063e 4d42 ce3c 9bfd 8f3d
000003e0: 04b3 88bf df91 273e 487a 17bf a824 d53e
000003f0: 621d b13f 221c b63f b983 06c0 768b b1bf

encoder.conv0.v.bias f4 [32]
-0.78264093 -0.00724059 -0.8554748 -0.19442417 -0.092749 -0.71131444 -0.3154457 0.05750014
-1.8344244 0.084757775 -1.4123809 1.1626095 1.1532536 -3.2925963 -0.60736686 4.25263
-0.38563022 -0.57983726 0.5279284 0.406385 1.6362087 -0.012532572 -0.9280358 2.1695936
1.3198324 -0.61363715 0.93525916 0.8474925 0.4480497 1.4715525 0.2717347 0.018046897
00000000: 285b 48bf 7942 edbb 6600 5bbf 2117 47be
00000010: 30f3 bdbd b418 36bf 1982 a1be 4485 6b3d
00000020: 6bce eabf 7c95 ad3d e6c8 b4bf 63d0 943f
00000030: d09d 933f e6b9 52c0 657c 1bbf 8c15 8840
00000040: 5371 c5be 3770 14bf 5126 073f b211 d03e
00000050: 496f d13f 6b55 4dbc c193 6dbf 9fda 0a40
00000060: 45f0 a83f 5317 1dbf 256d 6f3f 45f5 583f
00000070: c566 e53e d55b bc3f d020 8b3e 16d7 933c

encoder.conv1.q.weight f4 [16, 64]
0.106577024 0.4284192 2.9627585 -0.4446141 0.47001147 -0.4971953 -3.0626647 0.7200724
-3.6723547 2.6651518 3.3319266 2.6981027 3.3384259 -3.4204807 0.31359184 3.2705467
1.5882276 0.64481455 -2.7439733 1.5194759 0.13649012 0.20249239 -0.064544424 -0.46856666
-0.49041635 0.44106773 -0.71897286 -1.2242798 1.7591003 2.3038733 -0.938273 2.032162
3.2503562 0.17792386 -0.76815677 -1.8602531 2.8730886 0.9318597 -1.7199512 1.1449627
0.6423136 -0.9710494 3.1153505 -2.4980562 4.1544976 -2.4748154 0.23597257 2.8728123
3.048303 1.9202578 -2.3638887 0.32793313 0.32999542 1.7714592 1.1010178 0.15635988
-2.0028923 1.6249381 1.0781296 2.7779853 -1.1860131 -0.6192419 2.3986013 -0.97612387
-1.5023626 0.024635697 1.3970459 -2.3364425 -1.8150316 0.57268304 -0.22389078 -1.2338606
1.0750694 0.89239526 0.53106827 1.1530081 1.2129936 -9.201842 -0.53756183 1.294589
0.12553795 0.26927555 1.8445576 -0.94460887 0.87022954 0.9941396 -0.030032326 -0.37732962
-0.5972889 -1.0426806 -5.827203 -5.0497193 -0.020312175 -0.25251472 -0.32910025 -1.6822838
-0.06999395 1.4036564 -0.29656896 -2.6306133 -1.0101982 -0.21368264 -2.615769 -0.30903813
-0.42284772 0.9644935 1.6442131 -0.6732733 0.62565964 -13.240954 -0.67912656 1.1961613
-0.037809186 -2.3033862 1.157885 -1.3769703 0.5576447 -0.28103742 -0.13588484 0.22196263
-2.6233933 -1.3768073 -2.7063732 -6.1431665 0.3359135 -0.22948174 -1.3434716 -1.2989433
0.22381216 -0.4057936 0.45194963 -4.6932936 -0.39479426 -0.23901214 -1.2450237 -1.1137646
-2.2249377 -0.3304103 0.9961421 -1.2226846 1.757495 -11.243019 -0.74766326 0.099792555
1.0920489 -0.05771503 -0.1408517 -3.3973627 -1.104857 1.1105806 0.09481875 -1.5159624
-1.2284422 -0.30509257 -2.524886 -6.2211237 0.010195532 1.1272413 2.1874006 -2.0452478
-0.6136895 -1.177619 0.9022811 -6.2612653 -1.7268574 -0.21513604 -1.2846588 -2.217549
-1.5712166 -1.5386882 0.8171063 -2.4567437 0.3204355 -21.986216 -0.5282648 0.31869373
-1.2839435 -2.063969 -0.9658122 -0.25665164 0.25058535 -0.773775 0.058148053 -0.65771544
-1.2361187 -1.7921346 0.34085536 -5.6192055 -2.1080136 -0.012850318 0.28371853 -2.1215992
1.5880172 -2.2698193 -0.2502408 7.1741276 5.2209706 -0.31789196 -0.2286911 -1.1640455
-1.7150642 0.27887148 -0.26079765 0.5291082 0.25779155 6.189695 1.0120926 -0.39123732
1.4807553 -2.2491581 -2.4434628 0.7702273 0.22018549 -0.6017025 0.0454832 2.251812
2.5140758 -0.92912465 2.999159 16.579973 0.6597299 -0.9038713 3.2710736 -0.5842675
3.0098293 -0.5283632 0.42793489 -3.8132312 0.50524944 -0.6010828 -2.0145261 -2.446681
0.84841114 -1.2816079 1.4102627 -1.6518949 2.3129075 2.7036595 -0.27732512 0.71471673
-0.890413 0.32411367 -0.7866569 1.6336759 1.4277374 -0.9478962 0.15584803 1.8520863
-1.4209675 -0.77626765 2.7376375 3.0871425 -3.024868 -1.2016766 0.6874395 -2.5336008
00000000: 0e45 da3d c359 db3e d69d 3d40 76a4 e3be
00000010: 58a5 f03e 6290 febe b302 44c0 aa56 383f
00000020: dc07 6bc0 d991 2a40 493e 5540 b7ad 2c40
00000030: c5a8 5540 28e9 5ac0 1c8f a03e a350 5140
00000040: 0b4b cb3f 9112 253f 429d 2fc0 307e c23f
00000050: 11c4 0b3e 2a5a 4f3e de2f 84bd f8e7 efbe
00000060: da17 fbbe a1d3 e13e 9b0e 38bf 33b5 9cbf
00000070: 332a e13f a972 1340 a932 70bf f10e 0240
00000080: d605 5040 ac31 363e eca5 44bf c61c eebf
00000090: afe0 3740 5b8e 6e3f 5c27 dcbf 238e 923f
000000a0: aa6e 243f b296 78bf e761 4740 27e0 1fc0
000000b0: a5f1 8440 6063 1ec0 cba2 713e 28dc 3740
000000c0: 6517 4340 02cb f53f f449 17c0 dae6 a73e
000000d0: 29f5 a83e 2dbf e23f 27ee 8c3f ce1c 203e
000000e0: 632f 00c0 f9fd cf3f 2700 8a3f 83ca 3140
000000f0: 47cf 97bf a386 1ebf af82 1940 41e3 79bf
00000100: 6b4d c0bf cdd0 c93c 66d2 b23f 4688 15c0
00000110: f552 e8bf 5b9b 123f a043 65be 25ef 9dbf
00000120: e09b 893f 0474 643f 17f4 073f c595 933f
00000130: 6043 9b3f bf3a 13c1 a79d 09bf 18b5 a53f
00000140: 058d 003e 7cde 893e 771a ec3f e3d1 71bf
00000150: 5dc7 5e3f ef7f 7e3f 5a06 f6bc 5931 c1be
00000160: ede7 18bf 8f76 85bf 7278 bac0 4d97 a1c0
00000170: b865 a6bc 9c49 81be d47f a8be 1355 d7bf
00000180: fd58 8fbd 03ab b33f e3d7 97be f85b 28c0
00000190: 2d4e 81bf 9fcf 5abe c268 27c0 3f3a 9ebe
000001a0: 7f7f d8be 0ce9 763f 9375 d23f a45b 2cbf
000001b0: 3b2b 203f f3da 53c1 3ddb 2dbf d01b 993f
000001c0: cedd 1abd ae6a 13c0 9335 943f 9040 b0bf
000001d0: cec1 0e3f 23e4 8fbe 6525 0bbe 2c4a 633e
000001e0: ade5 27c0 393b b0bf 3835 2dc0 d294 c4c0
000001f0: dbfc ab3e 43fd 6abe e1f6 abbf c643 a6bf
00000200: 042f 653e 2ec4 cfbe f165 e73e 762f 96c0
00000210: 7922 cabe 99bf 74be f05c 9fbf d78f 8ebf
00000220: 6165 0ec0 8a2b a9be 2b03 7f3f ee80 9cbf
00000230: 99f5 e03f 68e3 33c1 dc66 3fbf 0a60 cc3d
00000240: 42c8 8b3f 9866 6cbd 6e3b 10be 646e 59c0
00000250: f46b 8dbf 8127 8e3f 5530 c23d 0e0b c2bf
00000260: 983d 9dbf 1835 9cbe bb97 21c0 7213 c7c0
00000270: 290b 273c 7149 903f 5ffe 0b40 57e5 02c0
00000280: c11a 1dbf 38bc 96bf e5fb 663f 495c c8c0
00000290: aa09 ddbf 9f4c 5cbe b36f a4bf 53ec 0dc0
000002a0: a01d c9bf bcf3 c4bf e12d 513f 4a3b 1dc0
000002b0: 1f10 a43e c5e3 afc1 5d3c 07bf d32b a33e
000002c0: 4358 a4bf 1118 04c0 783f 77bf d867 83be
000002d0: b94c 803e 1e16 46bf a72c 6e3d 0a60 28bf
000002e0: 2339 9ebf ab64 e5bf 9884 ae3e 88d0 b3c0
000002f0: b2e9 06c0 248a 52bc 8e43 913e 48c8 07c0
00000300: 2644 cb3f b844 11c0 901f 80be 7492 e540
00000310: 3112 a740 bcc2 a2be 002e 6abe 71ff 94bf
00000320: 3987 dbbf 3ec8 8e3e 4587 85be a373 073f
00000330: 41fd 833e fb11 c640 408c 813f 4250 c8be
00000340: 6489 bd3f 35f2 0fc0 b261 1cc0 9e2d 453f
00000350: 4e78 613e 2d09 1abf 984c 3a3d b01d 1040
00000360: 9ee6 2040 1ddb 6dbf 39f2 3f40 c9a3 8441
00000370: 0fe4 283f 1c64 67bf 4559 5140 8e92 15bf
00000380: 0ba1 4040 d042 07bf 481a db3e fb0b 74c0
00000390: 0758 013f 90e0 19bf ffed 00c0 6c96 1cc0
000003a0: 7931 593f ba0b a4bf 7d83 b43f 4b71 d3bf
000003b0: ad06 1440 c208 2d40 8ffd 8dbe adf7 363f
000003c0: 1bf2 63bf 3af2 a53e 5962 49bf 4b1c d13f
000003d0: 19c0 b63f 53a9 72bf a096 1f3e 2a11 ed3f
000003e0: 43e2 b5bf 7ab9 46bf 7435 2f40 be93 4540
000003f0: 7097 41c0 8ad0 99bf 09fc 2f3f 8426 22c0

encoder.conv1.q.bias f4 [16]
2.65309 1.0762604 2.3151624 -0.6811904 -0.44420293 -2.2159908 -0.042564873 1.979649
-0.044019114 -0.6486708 -3.1943662 0.37645072 -0.45436028 -0.008064211 -0.7033267 -1.292981
00000000: 3acc 2940 e7c2 893f 9f2b 1440 7e62 2ebf
00000010: 916e e3be cbd2 0dc0 8158 2ebd 2365 fd3f
00000020: 634d 34bd 4a0f 26bf 7f70 4cc0 26be c03e
00000030: e9a1 e8be c11f 04bc 380d 34bf 6780 a5bf

encoder.conv1.k.weight f4 [16, 64]
-4.8366227 0.8337107 -2.5889044 -1.7918006 -3.814669 -0.724945 1.090809 -1.0551507
2.6429443 0.83364666 -0.5374729 0.29875022 0.16876073 -5.7577987 -0.8956029 -0.7604369
0.8420027 0.051189207 0.46340927 -0.49996594 0.573189 0.15303478 -0.32391706 -0.629554
0.015642885 -1.0255914 -6.729033 -5.094847 -1.1590054 0.93979055 0.29903382 -0.3192923
-3.9721422 -0.052922998 -3.018037 -1.4560033 -3.2703831 -0.016910758 1.7410365 -0.9637536
2.8067105 1.3774353 -1.2917447 -0.49903095 -0.53857476 -8.2737055 -0.34107018 -0.7716609
0.22016576 -0.87810296 -0.13212827 -0.3817295 0.22395259 -0.38870567 -0.26529717 -0.09990372
1.7723757 -0.8169918 -7.1319284 -3.5043252 -1.8795023 -0.0064596967 -0.24915972 -1.0111358
2.0829592 0.31238312 7.9390287 -2.329244 2.5517118 0.20946883 -2.5792 -0.7366906
-3.7162561 -0.97153556 0.20065396 2.7415323 1.1821823 1.6914867 -1.3037826 0.7067069
0.031677492 -0.64326876 0.8767324 -0.6577623 -1.0270993 1.2301742 -0.46349773 -2.128487
-2.2599342 -0.65744823 2.0991702 1.623064 -1.4610485 1.3028046 -1.529838 -0.7369872
0.6242807 0.59822893 -0.37804604 -0.70254016 2.6616554 -1.6401768 -3.0423357 -1.4807452
-3.0545025 1.0398134 -0.07732504 -0.6851132 -1.0647892 -5.4156756 -0.9757293 0.03403505
-0.2642595 -1.0540788 -1.0916204 -4.3041053 0.48113263 -0.72376263 -0.23364902 -0.3611003
-2.687387 -3.0473983 -0.09505647 1.8866518 0.95749855 0.82762975 -1.3743029 -0.10937756
0.606106 1.9268517 -2.9142618 6.5463495 2.154094 -0.45581853 2.2582297 0.98309606
2.9035053 0.795593 -0.30973387 -3.2998505 -1.0860826 2.9474714 0.10572467 0.47887015
0.71337616 -0.016537866 3.3798225 0.6828432 -0.19069186 1.2086302 0.15951967 -0.68572944
1.0188872 -0.53901905 1.4764698 6.941482 3.552035 -1.6601876 0.20199117 1.4085332
-0.64820796 1.1600351 0.7832876 4.1203427 1.4737133 0.63074744 3.4729772 1.2626885
5.403445 1.1892191 -1.107782 0.020276396 -0.62618965 16.451902 0.3852539 -0.18784909
0.6964164 0.36847484 1.4159627 0.24255206 -0.4783767 0.67150587 -0.06307148 -1.1396207
2.1894293 1.9327008 0.7012756 5.5421433 -0.058371235 -1.0294632 0.052259192 0.53110147
0.035989545 0.7113688 -1.4277323 -0.8434638 3.971268 0.65497094 -0.16655076 -0.76568556
1.9354321 0.90369356 -1.3385768 -2.037601 -2.0705068 -9.913647 1.1593186 -2.0011194
1.2251639 -0.64756364 -1.665121 -0.83640796 0.8757226 -1.186731 1.1491816 -2.562885
0.9349751 2.3664722 -0.55837363 2.822899 2.0982418 1.3764211 -1.4480159 2.0597348
0.6766778 1.6878852 0.7207251 -2.841113 -1.0455462 1.6894274 -0.2171212 1.2101514
0.44845194 2.0808637 -0.21712793 -3.9526393 -1.0922344 -17.024712 0.6740522 -0.9504845
1.2361609 1.1144284 -2.934064 0.857924 -0.8097107 -0.3558849 0.7360622 -2.195282
-2.4556272 0.37924278 -1.597568 -2.2323496 -2.8673165 0.6329192 -0.6770838 -3.0409825
00000000: 9dc5 9ac0 106e 553f 9cb0 25c0 b959 e5bf
00000010: 8923 74c0 ff95 39bf a19f 8b3f 2e0f 87bf
00000020: 0026 2940 de69 553f d397 09bf caf5 983e
00000030: 9dcf 2c3e e33f b8c0 3b46 65bf feab 42bf
00000040: 7d8d 573f c6ab 513d fb43 ed3e 89fb ffbe
00000050: 84bc 123f 26b5 1c3e 75d8 a5be 732a 21bf
00000060: 8225 803c 9446 83bf 3d54 d7c0 fd08 a3c0
00000070: 4a5a 94bf 1d96 703f f61a 993e 487a a3be
00000080: 9437 7ec0 c9c5 58bd 8527 41c0 515e babf
00000090: f54d 51c0 6e88 8abc 49da de3f 8eb8 76bf
000000a0: 25a1 3340 cd4f b03f e457 a5bf fc80 ffbe
000000b0: 09e0 09bf 1961 04c1 c0a0 aebe 928b 45bf
000000c0: 2273 613e 5bcb 60bf a24c 07be 0d72 c3be
000000d0: d453 653e 6e04 c7be 08d5 87be 529a ccbd
000000e0: 35dd e23f 6026 51bf c238 e4c0 dd46 60c0
000000f0: 8893 f0bf ddab d3bb ba23 7fbe e66c 81bf
00000100: 344f 0540 aef0 9f3e 860c fe40 5512 15c0
00000110: 3f4f 2340 ff7e 563e 9d11 25c0 c197 3cbf
00000120: 24d7 6dc0 8eb6 78bf 3b78 4d3e 4475 2f40
00000130: c051 973f a382 d83f 59e2 a6bf beea 343f
00000140: 42c0 013d 43ad 24bf 8971 603f 1c63 28bf
00000150: fd77 83bf 5976 9d3f 934f edbe 2239 08c0
00000160: c3a2 10c0 874e 28bf ce58 0640 90c0 cf3f
00000170: a303 bbbf 4dc2 a63f bbd1 c3bf 31ab 3cbf
00000180: dcd0 1f3f 8825 193f 408f c1be acd9 33bf
00000190: 9058 2a40 50f1 d1bf a1b5 42c0 0f89 bdbf
000001a0: f87c 43c0 9b18 853f 975c 9ebd 9463 2fbf
000001b0: 034b 88bf 374d adc0 65c9 79bf 5668 0b3d
000001c0: 054d 87be 0eec 86bf 38ba 8bbf 3bbb 89c0
000001d0: 0457 f63e 8248 39bf b041 6fbe 23e2 b8be
000001e0: 26fe 2bc0 9308 43c0 f7ac c2bd ce7d f13f
000001f0: a01e 753f 8bdf 533f 28e9 afbf 5801 e0bd
00000200: c329 1b3f 14a3 f63f 4483 3ac0 b27b d140
00000210: addc 0940 0c61 e9be d686 1040 2fac 7b3f
00000220: 08d3 3940 fcab 4b3f 7095 9ebe c030 53c0
00000230: c104 8bbf 5fa3 3c40 2d86 d83d 782e f53e
00000240: d29f 363f 6b7a 87bc 034f 5840 d0ce 2e3f
00000250: ba44 43be 65b4 9a3f 2059 233e f78b 2fbf
00000260: e56a 823f 27fd 09bf f6fc bc3f 9f20 de40
00000270: 8b54 6340 0781 d4bf c6d6 4e3e d14a b43f
00000280: f5f0 25bf 087c 943f 8985 483f d9d9 8340
00000290: a3a2 bc3f aa78 213f 4245 5e40 c79f a13f
000002a0: 05e9 ac40 5538 983f cdcb 8dbf af1a a63c
000002b0: f74d 20bf 7f9d 8341 0040 c53e 835b 40be
000002c0: 5848 323f bca8 bc3e 443e b53f 915f 783e
000002d0: caed f4be cfe7 2b3f 9f2b 81bd 17df 91bf
000002e0: 9c1f 0c40 bd62 f73f cc86 333f 3d59 b140
000002f0: ad16 6fbd 73c5 83bf bc0d 563d 44f6 073f
00000300: c669 133d 441c 363f efbf b6bf 3eed 57bf
00000310: 4129 7e40 2dac 273f 488c 2abe f803 44bf
00000320: 3dbc f73f 7658 673f 7c56 abbf 0e68 02c0
00000330: 2f83 04c0 4c9e 1ec1 8d64 943f 5712 00c0
00000340: 2cd2 9c3f bbc6 25bf af22 d5bf d51e 56bf
00000350: 5b2f 603f cde6 97bf 6218 933f 4f06 24c0
00000360: 875a 6f3f 4874 1740 93f1 0ebf 61aa 3440
00000370: 9849 0640 912e b03f 9658 b9bf b2d2 0340
00000380: c23a 2d3f 9f0c d83f 7181 383f ccd4 35c0
00000390: 75d4 85bf 283f d83f 0555 5ebe 3ee6 9a3f
000003a0: 7e9b e53e df2c 0540 c956 5ebe 0bf8 7cc0
000003b0: 56ce 8bbf 9c32 88c1 af8e 2c3f f452 73bf
000003c0: 853a 9e3f 97a5 8e3f b4c7 3bc0 e8a0 5b3f
000003d0: 3349 4fbf 8c36 b6be 936e 3c3f 807f 0cc0
000003e0: ff28 1dc0 1c2c c23e 1c7d ccbf d1de 0ec0
000003f0: 1d82 37c0 fe06 223f 5d55 2dbf 759f 42c0

encoder.conv1.k.bias f4 [16]
1.3794554 -0.32092097 -0.5790622 0.772836 -1.5223781 0.969186 1.7782495 0.0064398884
1.2373953 -1.7331011 -0.70282894 0.7113688 0.56844336 0.44084284 -1.0699205 0.43210846
00000000: ff91 b03f c14f a4be 6c3d 14bf 95d8 453f
00000010: 49dd c2bf 931c 783f ae9d e33f b305 d33b
00000020: f862 9e3f 42d6 ddbf 99ec 33bf 441c 363f
00000030: 8185 113f 27b6 e13e 28f3 88bf 523d dd3e

encoder.conv1.v.weight f4 [16, 64]
-0.037842065 0.6993512 1.6872219 -0.87273383 -0.4910722 0.67199564 -0.5862181 0.6903896
1.2021192 -1.9735767 0.85323286 0.13048355 -0.47510374 -2.4671195 0.20674065 -1.5991502
-0.31304476 0.36435407 0.70213825 1.2618433 -0.4455968 0.48174277 0.5918455 -3.1511722
0.48869914 0.6016931 -1.5351908 -1.2679626 -0.5540736 -2.5389118 -2.2677665 -0.4237298
-0.9788 -0.27503917 2.3916671 -0.6730189 -1.0905455 -0.33090723 -0.34795535 0.7939304
-0.17245224 -1.677303 -0.3993899 0.7268215 0.032882847 0.7806554 0.4507702 -0.31851283
-0.44339725 -0.3752634 2.0178092 3.1050043 -0.79095906 0.6398636 0.336673 -0.9103154
0.76431054 -1.2791852 -0.7680528 -1.4022925 0.059947424 -1.4789296 -0.53820634 -0.22166654
-1.8391962 -0.50060034 3.2593627 0.14440018 -0.08070356 -0.81690043 -2.541696 0.07411861
-0.5114411 -3.0315084 2.4473526 0.532898 3.2363346 2.3126009 2.4030828 -2.1593814
-0.44287837 2.9662926 -2.4471867 0.6705223 2.4872005 -0.5061576 0.2139432 0.9645663
3.0944579 2.7919571 -2.701337 -0.14239907 2.4890695 2.6723897 0.24547048 0.75587326
3.1443217 0.20891757 6.8719783 0.2652822 1.6447239 0.040349316 -0.8233055 -0.1067907
0.7460062 -1.1191219 2.2002647 0.40215313 3.2793043 1.0467373 1.6326879 0.19510563
1.3764279 0.79196453 0.36225617 5.3583384 1.3310424 -1.1519954 -0.0483076 3.1888387
1.275305 1.9367936 2.4885464 3.5636415 1.5245966 1.0562314 0.5436742 1.9927202
-0.18315874 1.0493743 -0.22718284 0.40927377 1.9899218 1.9601957 1.2154695 -0.91901785
-0.8542253 2.8383763 -0.056507908 -0.46386805 0.6280822 -3.0626304 -0.3862898 0.18516038
1.8219972 -0.92621386 -0.17810471 2.0200658 -1.0057722 0.8767846 -0.25512484 -0.7909317
1.7654481 3.0739205 -2.6829946 -10.519618 -0.686209 -0.8275537 0.25746977 -0.5594782
-0.9051033 1.0569484 -5.122774 1.2928023 3.8735633 1.2484823 -0.12222579 -0.30317348
-0.4735257 1.4987108 -0.03152583 -2.1965623 -0.40417224 -1.9022661 -0.41510236 -0.41305947
1.6611589 -1.2781879 0.97359747 -0.18282805 -0.25823238 1.0165958 0.27386418 -0.29055732
0.5721626 0.8833651 -1.3564593 9.819416 1.4181713 -0.9117143 1.3177131 0.7644978
-4.2058554 -0.78975016 -0.653592 0.17115386 1.2378994 1.2960196 2.725098 -0.07026305
0.89075786 -1.2499844 -0.9119367 1.6726305 0.6713852 1.8848037 0.43867198 0.12283184
0.3504529 0.67551965 1.4309188 1.1213925 -0.7952728 0.89865214 -0.42466387 0.6497029
0.9573526 1.6487043 -3.9901161 4.7325435 -1.5522617 -1.0445719 -0.7371376 1.7755175
-2.4843009 -0.5876915 -0.40033242 0.27888098 2.1661026 0.5437717 2.7294977 -0.17748873
1.4500966 -1.0109243 -0.6752916 1.2818094 0.42411473 4.7098002 0.43713462 0.15415682
0.14454328 -0.598532 0.97413725 1.3078943 -0.32104248 0.52515733 -0.33883235 0.49736217
1.142086 1.5422572 -2.6852746 6.8530116 -1.2149413 -0.45022386 -0.045844667 2.3012877
00000000: 4800 1bbd ae08 333f e3f6 d73f 7c6b 5fbf
00000010: d16d fbbe e807 2c3f 6412 16bf 5fbd 303f
00000020: 0bdf 993f 299e fcbf 786d 5a3f 7b9d 053e
00000030: cc40 f3be 49e5 1dc0 d2b3 533e f4b0 ccbf
00000040: 6747 a0be 9e8c ba3e 55bf 333f 1584 a13f
00000050: 4425 e4be fda6 f63e 3083 173f ceac 49c0
00000060: c636 fa3e 8f08 1a3f 2281 c4bf 994c a2bf
00000070: c4d7 0dbf 887d 22c0 1623 11c0 1df3 d8be
00000080: a392 7abf efd1 8cbe 1311 1940 f74a 2cbf
00000090: ff96 8bbf ac6c a9be 3427 b2be 063f 4b3f
000000a0: 5297 30be ddb1 d6bf d57c ccbe f910 3a3f
000000b0: 2ab0 063d 08d9 473f 5acb e63e 1d14 a3be
000000c0: f704 e3be 8622 c0be c923 0140 64b8 4640
000000d0: 4b7c 4abf 1ace 233f 6760 ac3e 6e0a 69bf
000000e0: dba9 433f 57bc a3bf 1c9f 44bf 527e b3bf
000000f0: 6e8b 753d 914d bdbf e4c7 09bf 8efc 62be
00000100: c86a ebbf 5827 00bf 6699 5040 a4dd 133e
00000110: e847 a5bd 6320 51bf 26ab 22c0 7fcb 973d
00000120: ceed 02bf 3c04 42c0 6da1 1c40 016c 083f
00000130: 1b20 4f40 a701 1440 1ccc 1940 4e33 0ac0
00000140: f4c0 e2be bdd7 3d40 b59e 1cc0 59a7 2b3f
00000150: 4b2e 1f40 8b93 01bf ed13 5b3e d1ed 763f
00000160: 990b 4640 6daf 3240 b5e2 2cc0 10d1 11be
00000170: ea4c 1f40 6f08 2b40 9d5c 7b3e e980 413f
00000180: 913c 4940 7dee 553e 3fe7 db40 12d3 873e
00000190: 5086 d23f 5345 253d 26c4 52bf 15b5 dabd
000001a0: 43fa 3e3f 633f 8fbf 23d1 0c40 04e7 cd3e
000001b0: 1fe0 5140 7dfb 853f ebfb d03f c5c9 473e
000001c0: ca2e b03f 30be 4a3f a479 b93e 8277 ab40
000001d0: 995f aa3f 9674 93bf 31de 45bd ef15 4c40
000001e0: 323d a33f dae8 f73f 5844 1f40 b412 6440
000001f0: fb25 c33f 9732 873f 3b2e 0b3f 7511 ff3f
00000200: f78d 3bbe e651 863f 9ea2 68be 558c d13e
00000210: c2b5 fe3f b1e7 fa3f 8194 9b3f c144 6bbf
00000220: 82ae 5abf f5a7 3540 d674 67bd 1d80 edbe
00000230: ffc9 203f 2302 44c0 c7c7 c5be af9a 3d3e
00000240: 3437 e93f 5a1c 6dbf 1561 36be c248 0140
00000250: 25bd 80bf f574 603f b99f 82be 807a 4abf
00000260: 34fa e13f 1dbb 4440 2fb6 2bc0 5b50 28c1
00000270: 65ab 2fbf 8fda 53bf 14d3 833e f739 0fbf
00000280: dab4 67bf 164a 873f c4ed a3c0 8c7a a53f
00000290: 76e8 7740 45ce 9f3f 8451 fabd 8e39 9bbe
000002a0: f671 f2be c1d5 bf3f 3b21 01bd 7a94 0cc0
000002b0: aaef cebe 757d f3bf 4c88 d4be 887c d3be
000002c0: dba0 d43f a99b a3bf af3d 793f 4737 3bbe
000002d0: 0937 84be d01f 823f ed37 8c3e eec3 94be
000002e0: 4079 123f 3724 623f 75a0 adbf 541c 1d41
000002f0: a386 b53f 1c66 69bf d3aa a83f 21b6 433f
00000300: 5e96 86c0 112d 4abf ce51 27bf f542 2f3e
00000310: 7d73 9e3f f8e3 a53f 0168 2e40 13e6 8fbd
00000320: b508 643f 7dff 9fbf af74 69bf c218 d63f
00000330: e7df 2b3f 3f41 f13f 9d99 e03e 428f fb3d
00000340: 906e b33e dbee 2c3f 5928 b73f ca89 8f3f
00000350: 0097 4bbf 110e 663f 8b6d d9be ee52 263f
00000360: 0f15 753f be08 d33f 105e 7fc0 ff70 9740
00000370: 83b0 c6bf 88b4 85bf 0db5 3cbf 2844 e33f
00000380: c9fe 1ec0 f372 16bf 5ff8 ccbe 7dc9 8e3e
00000390: 6da1 0a40 9f34 0b3f 17b0 2e40 9bbf 35be
000003a0: c49c b93f f865 81bf e9df 2cbf 5512 a43f
000003b0: 9125 d93e afb6 9640 1cd0 df3e 49db 1d3e
000003c0: 2703 143e 6539 19bf 0f61 793f 1569 a73f
000003d0: ae5f a4be b670 063f 6f7b adbe 41a6 fe3e
000003e0: e02f 923f af68 c53f 8adb 2bc0 df4b db40
000003f0: 3283 9bbf be83 e6be 9ec7 3bbd 4c48 1340

encoder.conv1.v.bias f4 [16]
0.50358146 2.9448228 1.5159515 -0.14194745 0.1704758 0.57317233 -0.32557538 3.0407188
0.80467266 2.9199762 0.8434291 3.3355424 0.9403818 2.0510108 -0.26171756 -5.041059
00000000: b7ea 003f fa77 3c40 b30a c23f ac5a 11be
00000010: 3591 2e3e 6cbb 123f d1b1 a6be 239b 4240
00000020: 07ff 4d3f e4e0 3a40 f8ea 573f 8779 5540
00000030: ddbc 703f c343 0340 d8ff 85be 5b50 a1c0

encoder.conv2.q.weight f4 [32, 32]
0.8362802 -0.37318638 -0.9011276 3.630557 0.9813866 -0.7325522 1.4245771 0.16256064
-1.8534006 1.6494212 1.1610552 -1.492449 1.676117 1.3473586 0.43069965 -1.6180853
-0.49785244 0.778665 -0.22515032 0.2009041 0.71836346 -1.3866849 -0.40011913 2.0252736
-0.47727337 1.1559333 1.5020576 -0.19025767 0.97397697 0.0154368095 0.9131954 -0.8763706
0.14239909 1.5381439 2.3069642 5.225157 -4.28619 0.62539274 -0.29695776 0.47448635
-0.9470576 -0.23044643 0.46819204 2.4946458 1.6276463 -3.0750818 -1.6207702 22.117233
0.24472952 1.2930853 -0.19086681 -1.8824406 -1.9681125 1.4884162 -0.4241704 0.68984383
-0.5124323 1.267479 0.19799542 2.4956617 0.79039043 -0.6090899 -0.8026531 0.91993576
-0.060713083 -2.342051 0.8877809 0.9151045 5.5787835 -4.0778556 2.3655627 2.6723993
-5.3083925 4.9076653 0.54630715 1.9127632 1.0666125 2.960034 2.2609293 -1.8648288
0.18583149 -0.9114509 1.9089425 0.704988 0.48393017 -0.2543137 0.99450237 0.57468855
-4.494911 2.2847755 0.057708196 3.3634946 -1.6027874 3.9252071 1.3959816 0.21658899
1.1594735 2.746764 2.110162 -1.5871633 -3.2069309 -1.7669268 0.3514005 -0.36052537
-1.4473454 -0.1500382 -0.8053207 -0.82231516 2.2050436 -2.6287348 -1.7784818 -1.0987664
-1.0213928 -0.8192048 2.072322 3.0545795 3.0675628 0.85707825 -0.72137266 -2.2305791
-1.8315271 -1.3717573 -1.3731985 -0.3289277 -2.434487 0.49719885 1.2181348 -0.6460094
-0.41891065 -0.03537605 -4.510205 1.2358278 -2.5775154 -4.077384 0.81338215 -1.9465765
0.70804584 -0.60613936 0.7411112 -4.0140796 -10.916432 -0.87715715 -2.509776 -6.7532105
2.3554976 0.09887787 -4.481086 1.9045297 -4.2435474 -1.4610759 1.2817793 -3.6563206
0.96321046 -4.064865 1.1398183 -1.3081698 1.9305785 -0.45575476 -3.8991964 0.97363734
0.02265197 -4.70495 -0.109257534 -0.44725588 -0.008243418 -0.21074212 0.8201773 0.7734208
0.45022994 0.3611156 -0.63748133 0.8305038 0.5044021 0.45156527 0.7460442 1.9068072
2.2892823 -2.842046 2.4938574 2.0463052 -1.9251684 1.7836646 0.24774417 -5.1758676
-0.7214827 -2.4574566 -0.94566613 0.120908424 2.9469244 1.6707076 -0.8101343 7.1794405
-0.24954128 1.1174955 -0.18807183 1.462737 0.7045688 0.7241385 -0.751202 -0.25929135
-0.2832615 -1.0995399 -0.40519813 -0.62467265 0.46080497 -0.7303683 0.12775171 8.018726
-0.52875894 2.3339248 -1.3228657 0.8979399 -0.770775 1.3641438 -1.2413204 -0.048855398
1.1071206 -0.2944277 0.72156185 -0.14572999 -0.7782583 -2.110254 -0.7586273 -0.27146715
2.3769937 -1.7144703 -1.3592122 -1.1333066 -1.2086848 -0.12415522 -0.3717735 0.2084529
-1.2870843 -2.710197 -1.7917814 2.0124736 1.0242203 2.0621438 -0.07172571 -1.8395535
2.219215 0.5491035 -1.2115518 -1.3419688 -2.7864158 0.4886228 1.6181383 0.6559911
-3.1010327 -3.4552472 -4.4696703 2.3465977 2.663335 3.1774602 -0.41790026 2.0284042
00000000: 7616 563f 4912 bfbe 4cb0 66bf 0c5b 6840
00000010: 273c 7b3f 8a88 3bbf 8b58 b63f 4c76 263e
00000020: 3b3c edbf 3c20 d33f 759d 943f 9208 bfbf
00000030: 008b d63f 3f76 ac3f aa84 dc3e 6b1d cfbf
00000040: 84e6 febe 9756 473f ce8d 66be ceb9 4d3e
00000050: abe6 373f e47e b1bf 6adc ccbe 159e 0140
00000060: 2d5d f4be 9ff5 933f 6c43 c03f e8d2 42be
00000070: 8e56 793f acea 7c3c 2cc7 693f d359 60bf
00000080: 11d1 113e e6e1 c43f 4da5 1340 7c34 a740
00000090: 7828 89c0 bd19 203f d90a 98be e0ef f23e
000000a0: 5e72 72bf 26fa 6bbe deb6 ef3e 47a8 1f40
000000b0: b756 d03f 24ce 44c0 6675 cfbf 18f0 b041
000000c0: 609a 7a3e d283 a53f 9772 43be d0f3 f0bf
000000d0: 1ceb fbbf 6c84 be3f dd2c d9be 9b99 303f
000000e0: c32e 03bf c03c a23f 50bf 4a3e ecb8 1f40
000000f0: 0757 4a3f 51ed 1bbf ac7a 4dbf e980 6b3f
00000100: 48ae 78bd 2ae4 15c0 9c45 633f 4a44 6a3f
00000110: 6585 b240 cb7d 82c0 6165 1740 9708 2b40
00000120: 5ade a9c0 980b 9d40 c9da 0b3f 6dd5 f43f
00000130: c286 883f 3271 3d40 11b3 1040 b6b2 eebf
00000140: 9c4a 3e3e d954 69bf 3a58 f43f 187a 343f
00000150: b2c5 f73e 6835 82be b597 7e3f ca1e 133f
00000160: 50d6 8fc0 c339 1240 6e5f 6c3d 7f43 5740
00000170: 2328 cdbf 9836 7b40 86af b23f 81c9 5d3e
00000180: a169 943f fbca 2f40 e50c 0740 2b28 cbbf
00000190: 5b3e 4dc0 a82a e2bf c4ea b33e c896 b8be
000001a0: 9d42 b9bf 9da3 19be 7f29 4ebf 3f83 52bf
000001b0: 6f1f 0d40 313d 28c0 4ba5 e3bf 61a4 8cbf
000001c0: 00bd 82bf 68b7 51bf eca0 0440 3b7e 4340
000001d0: f352 4440 7b69 5b3f e1ab 38bf cfc1 0ec0
000001e0: 7b6f eabf be95 afbf f8c4 afbf 3669 a8be
000001f0: a3ce 1bc0 d990 fe3e d7eb 9b3f df60 25bf
00000200: 757b d6be 7ae6 10bd 9953 90c0 9b2f 9e3f
00000210: 03f6 24c0 ee79 82c0 d039 503f 6b29 f9bf
00000220: 7e42 353f f32b 1bbf 77b9 3d3f 5773 80c0
00000230: b5a9 2ec1 5f8d 60bf 2ca0 20c0 4d1a d8c0
00000240: 79c0 1640 7b80 ca3d 0e65 8fc0 a1c7 f33f
00000250: 24cb 87c0 8904 bbbf 5811 a43f 2801 6ac0
00000260: f694 763f 6013 82c0 91e5 913f 1c72 a7bf
00000270: 321d f73f b058 e9be 6f8c 79c0 4c40 793f
00000280: a090 b93c f38e 96c0 6ac2 dfbd b9fe e4be
00000290: 670f 07bc c8cc 57be 24f7 513f e8fe 453f
000002a0: 8a84 e63e 25e4 b83e fa31 23bf e69b 543f
000002b0: 7f20 013f 9033 e73e c1fc 3e3f 4212 f43f
000002c0: 9a83 1240 15e4 35c0 5c9b 1f40 aaf6 0240
000002d0: eb6b f6bf 1f4f e43f a6b0 7d3e b5a0 a5c0
000002e0: 17b3 38bf f846 1dc0 2d17 72bf d69e f73d
000002f0: 699a 3c40 bfd9 d53f f664 4fbf fabd e540
00000300: c087 7fbe 180a 8f3f e795 40be f73a bb3f
00000310: 9f5e 343f 2461 393f c64e 40bf d6c1 84be
00000320: a707 91be b9bd 8cbf 2176 cfbe 8cea 1fbf
00000330: a1ee eb3e 6bf9 3abf 58d1 023e b44c 0041
00000340: bf5c 07bf 065f 1540 aa53 a9bf 64df 653f
00000350: 8351 45bf 449c ae3f 96e3 9ebf 991c 48bd
00000360: 21b6 8d3f 3abf 96be 47b8 383f 3e3a 15be
00000370: f03b 47bf 670e 07c0 6635 42bf befd 8abe
00000380: aa20 1840 c373 dbbf aafa adbf 3110 91bf
00000390: 2fb6 9abf 1845 febd 1959 bebe ad74 553e
000003a0: 2ebf a4bf de73 2dc0 1859 e5bf 5ecc 0040
000003b0: a719 833f 2afa 0340 eee4 92bd 7d76 ebbf
000003c0: 9e07 0e40 0c92 0c3f 2114 9bbf a2c5 abbf
000003d0: a354 32c0 c52c fa3e 281f cf3f 08ef 273f
000003e0: 5277 46c0 c522 5dc0 8a07 8fc0 a82e 1640
000003f0: 1574 2a40 825b 4b40 06f7 d5be 60d1 0140

encoder.conv2.q.bias f4 [32]
3.6847763 0.17392235 -0.031188782 1.1949419 1.788673 1.7729911 -1.5203156 -1.812902
0.8765727 1.0633668 -0.88134843 -0.91603935 -2.578908 0.88577425 -0.18355875 0.34261328
1.0911175 -0.909695 2.6753547 -0.52755874 2.5820887 -0.35484433 -2.503017 1.2288043
-0.24139181 -1.1068511 1.5371653 0.06562695 0.10658553 2.0547585 -0.78971785 1.213731
00000000: 60d3 6b40 b318 323e 9e7f ffbc dbf3 983f
00000010: 3df3 e43f 5ff1 e23f b499 c2bf 2c0d e8bf
00000020: 1267 603f 671c 883f 0da0 61bf 8e81 6abf
00000030: d40c 25c0 1ac2 623f d3f6 3bbe 026b af3e
00000040: bda9 8b3f c6e1 68bf 0339 2b40 170e 07bf
00000050: f140 2540 28ae b5be 6e31 20c0 7649 9d3f
00000060: 6a2f 77be 4cad 8dbf d5c1 c43f 6c67 863d
00000070: 8449 da3d 2a81 0340 f32a 4abf 8a5b 9b3f
