trained_model/model_epoch395.chrom3.pkl (torch, 41775 bytes, 18 tensors)

encoder.conv0.q.weight f4 [32, 28]
000000 da 31 20 bf 60 23 85 be 0d e2 e0 3f e8 0b b4 bb
       -0.6257607 -0.2600355 1.7568985 -0.0054945834
000010 a5 ad 1d ba db 5b 8f bf fd 0a ed 3f 4e b1 85 3d
       -0.000601495 -1.1199907 1.8518978 0.06527959
000020 cd 39 32 3d 22 2c 4e bf 3d 04 03 3f 49 40 9d 3f
       0.043512154 -0.8053609 0.5117834 1.2285243
000030 22 fb 7a 3f 60 a2 fa 3f 1f 0e 1c 42 ec d1 0e 42
       0.9803945 1.9580803 39.01379 35.705
000040 77 7d 72 3e 12 4e 2d bd 47 15 5c bc be d2 5e bf
       0.23680674 -0.04231078 -0.013432807 -0.8704032
000050 ef 4e 56 3f 5c b0 8a 3e 1a 51 40 3d 1e 32 ed be
       0.83714193 0.27087677 0.046952344 -0.463273
000060 09 20 3f 40 1a ad 7c 40 d1 69 46 bf f8 a6 fb 3d
       2.9863303 3.9480653 -0.77505213 0.12287706
000070 22 02 64 bb 21 9e b7 bd b2 9f f4 bd bf 80 86 3d
       -0.003479131 -0.089657076 -0.11944522 0.06567525
000080 b6 7c 79 bc 07 4b 28 3e be f3 fe be a6 e5 8f bd
       -0.015227487 0.1643487 -0.49795336 -0.07026224
000090 27 b2 bf bb e3 76 8e 3e b5 e4 de 3e 9d 5d cd be
       -0.005850095 0.27825078 0.43533865 -0.40110484
0000a0 60 c9 6e 3e d3 70 49 be 07 ff 07 c0 ad fe c5 c0
       0.23319006 -0.19671945 -2.1249406 -6.1873384
0000b0 41 7e 1e be 06 6e b6 3d ef 3e ae bb 9e 41 c3 bd
       -0.1547785 0.08907704 -0.005317561 -0.09534
0000c0 e2 46 40 bf 69 62 2b be 42 29 8e 3c a7 b1 d6 3d
       -0.7510816 -0.16736759 0.017353658 0.10483103
0000d0 00 71 05 c0 b0 b7 98 bf bc 06 8d 3f 16 f7 b7 3f
       -2.085022 -1.1931057 1.101768 1.437228
0000e0 26 a7 2f be 45 5e 83 3d 53 fc bc 3d bb b3 a0 3d
       -0.17153606 0.06414465 0.092278145 0.07846781
0000f0 95 96 da 3a 55 57 20 3e c7 d2 88 3d 75 2a 81 be
       0.0016676957 0.15658315 0.066808276 -0.25227705
000100 2e 35 1f 3c 2b 1d 00 be 96 7e 92 3d fa d8 e4 bd
       0.009717269 -0.12511127 0.071530506 -0.111741975
000110 a9 25 31 3e 96 61 2a be ea 45 b3 c1 5c 0b b0 c1
       0.17299522 -0.16638789 -22.409138 -22.005547
000120 f9 3b fa be 01 14 9c 3d ae 63 e9 3b ec 7b cb 3e
       -0.4887388 0.07621003 0.0071224784 0.39742982
000130 a7 ad 3b bf 3c af 0d be 5d 61 16 3c a7 c9 36 bd
       -0.7331185 -0.13836378 0.009178487 -0.044625904
000140 8d 16 08 bf 6f 02 42 bf e8 59 8b be 8f ed b4 3f
       -0.5315941 -0.75784963 -0.2721703 1.4134997
000150 f4 0d 97 bd 9a e0 b9 3d a8 44 a2 be 82 4f 30 bd
       -0.07375708 0.090760425 -0.31693006 -0.043044575
000160 8e dd 8e 3c 2c 8b 89 bc e6 c9 4c 3d 82 19 cd bc
       0.01743963 -0.016789995 0.049997233 -0.025036577
000170 4d 8b 6d 3b f0 f8 91 bc f6 d8 26 be 55 81 07 bd
       0.003624636 -0.017818898 -0.16293702 -0.033082325
000180 ff ec 72 3e 9c c5 72 3e a9 b7 84 42 c6 71 9f 42
       0.2372322 0.23708194 66.35871 79.72221
000190 3c 6f d9 3c d7 9c 13 bc 9b 89 fc 3b 34 69 0e bc
       0.026542298 -0.0090095615 0.0077068335 -0.008692075
0001a0 56 77 85 3d fe de e2 3a 03 c0 59 ba 74 69 5f 3c
       0.06516902 0.0017308888 -0.0008306505 0.013635982
0001b0 d2 54 c2 bc f0 ca b3 bd 2e ef e3 bd 6d 7c 10 3f
       -0.023722086 -0.08778942 -0.11129604 0.5643986
0001c0 94 c8 b5 bf 33 87 a5 bf fc 93 7e 3f a5 f2 8a 3f
       -1.4201837 -1.2931885 0.99444556 1.0855299
0001d0 1f d9 6f be c0 f7 5e 3e d3 00 86 3f 30 2e 25 3e
       -0.23422669 0.21774197 1.0469002 0.161309
0001e0 54 de 6d 3f 50 0e f1 3d 70 e0 c6 3e b1 20 76 3f
       0.9291737 0.11770308 0.38843107 0.96143633
0001f0 44 aa 21 3f 40 a1 89 3f ab 45 0a 41 f0 b5 78 40
       0.6315043 1.0752335 8.642009 3.8861046
000200 04 dc 8c 3f ad f7 a7 3f 50 a3 cb bd ee 1f 24 be
       1.1004643 1.312246 -0.09943259 -0.16027805
000210 85 51 8c 40 aa c9 73 3d f7 2a 8d 3f bc 73 72 be
       4.384951 0.059518494 1.1028737 -0.23676962
000220 c0 32 5d 40 99 ff 7b 40 62 c2 05 c0 8c 52 bf 40
       3.4562225 3.9374754 -2.0899892 5.9788265
000230 77 82 76 40 9d 9e 74 40 29 74 b9 3f 6b 8d 49 bf
       3.851713 3.822181 1.4488574 -0.7873141
000240 61 61 56 be 02 6d 21 3f 55 f6 b7 3f 63 f1 e3 bd
       -0.20935585 0.6305696 1.437205 -0.11130025
000250 55 78 0f 3f aa 62 90 3f 3e 8a 92 3f bd 5c 67 3f
       0.5604299 1.128011 1.1448438 0.9037588
000260 bf 01 42 3f 05 c5 26 40 d5 74 0e 41 d7 aa 0e 41
       0.75783914 2.605775 8.903523 8.916709
000270 4a 32 02 c0 6d 1d 06 bf 54 4c ed bd de c0 22 3f
       -2.0343194 -0.5238865 -0.11586824 0.6357554
000280 83 2a 2c bf 89 83 6f 3d bd 15 13 3f 0f 2d da 3f
       -0.6725237 0.05847505 0.57455045 1.7045001
000290 9c 06 af 40 83 ea 56 40 63 8e 90 c0 75 07 e3 c0
       5.469557 3.3580635 -4.517381 -7.0946603
0002a0 93 66 85 3e 6c e1 b6 3d df 8f 98 3f 12 23 f9 3d
       0.2605482 0.089297146 1.1918906 0.12164892
0002b0 4d 13 cd 3c 31 a2 7a bd 3b d7 28 3f 0c d8 96 bd
       0.025033617 -0.061189834 0.65953416 -0.073654264
0002c0 35 a6 30 be b6 83 82 bd f7 e1 32 be 0c 8d 93 3f
       -0.17250903 -0.06372778 -0.17469011 1.1527419
0002d0 16 00 85 3f 97 05 e0 3f 68 c0 ec 41 9f dc f6 41
       1.0390651 1.7501706 29.593948 30.857725
0002e0 f4 20 9b be 2a 33 91 bd 8a 02 88 3c 8f 25 b7 3e
       -0.3029858 -0.07089837 0.016602773 0.35770842
0002f0 87 06 f6 3e 48 c6 9a 3e b4 10 26 be 20 4a bd 3e
       0.48051855 0.30229402 -0.16217309 0.36970615
000300 54 84 18 be d7 eb 9e 3f 08 96 ad 3f ff 03 a9 bf
       -0.14894229 1.2415723 1.3561411 -1.3204345
000310 24 1f 26 3e c9 0c 64 3e e7 3a 89 bf 3f 6a 10 3f
       0.16222817 0.22270502 -1.07211 0.5641212
000320 43 9f dd bb bf db 86 bd e9 9f 85 bf 93 75 7d bf
       -0.0067633702 -0.06584882 -1.0439426 -0.9900753
000330 83 f7 e6 3d c8 d1 2f bf b2 8b de 3e 24 02 22 bf
       0.11277678 -0.68679476 0.43465954 -0.63284516
000340 99 5a 6c bf c5 3e c1 bf 91 00 ce c1 b1 4b d3 c1
       -0.9232574 -1.5097281 -25.750277 -26.411959
000350 39 95 0b 40 1c 65 fe 3e 78 03 d8 bc 2a e3 81 3e
       2.1809828 0.49686515 -0.026368842 0.25368625
000360 a3 ab 98 bf 0a a7 06 bf 04 12 10 3e 3f 86 8d be
       -1.1927379 -0.5259863 0.14069372 -0.27641484
000370 2c df d6 40 e3 8a 52 c0 c9 14 8c bf f4 2c 5a bf
       6.7147427 -3.289727 -1.0943843 -0.85224843
000380 26 22 42 3f 54 7f 5d 3f 83 d8 83 bf 95 31 0a c0
       0.75833356 0.8652241 -1.0300449 -2.1592762
000390 94 96 7f be 22 1e fe bd d5 ba a6 bf dd 8d 52 be
       -0.24959785 -0.12408091 -1.3025767 -0.20561929
0003a0 31 19 14 3f 16 40 a6 3f 1d 7d c9 bf be 99 85 bf
       0.5785094 1.2988307 -1.5741307 -1.0437543
0003b0 a1 2e 8a bf e9 51 db bf 73 6e e3 3f 82 00 ea 3f
       -1.079548 -1.7134372 1.7768081 1.8281405
0003c0 eb 41 ca 40 48 a8 ab bf db 00 d6 bf ba 25 66 3d
       6.3205466 -1.341073 -1.6719011 0.056188323
0003d0 bd 9a fe 40 7f 0d f8 bc 60 28 58 bf e9 a8 c0 3f
       7.956389 -0.030279873 -0.8443661 1.5051547
0003e0 0a ba 28 40 28 c6 bc 40 ae 3b 29 41 a6 bf cd 3f
       2.636355 5.899189 10.57707 1.6074111
0003f0 eb 6b 9b 3e 1d 78 62 bc 8d 88 9f bd bb fc 88 3f
       0.30355772 -0.013822583 -0.07789717 1.0702127

encoder.conv0.q.bias f4 [32]
000000 05 cc 85 3f 01 01 40 3d 98 30 15 3e 49 81 44 3e
       1.0452887 0.046875957 0.14569318 0.19189943
000010 02 36 d4 3d 4f 15 49 3f e5 3c 94 bf 8d e6 8e 3f
       0.10361864 0.7854814 -1.1581084 1.1164109
000020 78 f5 91 bf b1 91 29 bf 1f ce 51 be 13 45 91 be
       -1.1403036 -0.6623793 -0.20488785 -0.28373012
000030 bc 37 0f 3f f8 12 37 3e 7c de 0c bf b6 10 b5 be
       0.5594442 0.1787833 -0.55026984 -0.35364312
000040 0e 7b 46 3f ec 5d a7 3f 98 7b 9a 3f 75 7e 92 bf
       0.77531517 1.3075538 1.2068968 -1.1444842
000050 ac e2 4e be ff ed 92 be 65 f6 42 3f e1 97 4c 3f
       -0.20203656 -0.28697202 0.7615722 0.7991925
000060 06 55 5c be c8 cf c7 bf 99 49 7a 3f fc 64 49 bf
       -0.21516809 -1.5610285 0.9776855 -0.78669715
000070 ed ee 84 3f 6c ef 18 3f ad 8b f4 3c 80 b0 94 bf
       1.0385414 0.5974033 0.029851759 -1.1616364

encoder.conv0.k.weight f4 [32, 28]
000000 4d 82 05 bd b8 33 14 3d e6 52 bf be b3 24 80 3b
       -0.032594968 0.036182135 -0.37367934 0.003910625
000010 d7 27 ca ba d4 40 89 3d 01 70 ca be 9d 51 31 3d
       -0.001542325 0.06701818 -0.39538577 0.043290723
000020 a9 df 1b 3c 35 aa 0a bd c4 6c e4 3e 43 1b e1 be
       0.009513774 -0.03385373 0.44614232 -0.43966112
000030 df bc d2 be eb db 83 be 16 34 91 42 78 d3 74 42
       -0.41159722 -0.25753722 72.60173 61.206512
000040 2e e2 a9 be 0b 38 c3 3b 5e 55 16 3b ce 4e 83 3d
       -0.33180374 0.0059576086 0.0022939066 0.06411515
000050 36 42 20 be ec 51 2e 3d 1b 47 0c 3c 01 be 49 bb
       -0.15650257 0.042558596 0.008561875 -0.0030783417
000060 eb 70 b3 3d 82 14 28 bf ca 48 a8 3d bf ca c7 3d
       0.08761772 -0.6565629 0.082170084 0.097554676
000070 70 7f 9a bd 22 18 03 be 47 ea 9e bd ef 9d a3 3d
       -0.07543838 -0.12802175 -0.077595286 0.07989108
000080 a8 59 13 bc f6 b3 01 3e e1 41 3d be 63 df a2 be
       -0.008993544 0.12666306 -0.18482162 -0.31811056
000090 12 ef ff bc 25 0d be be c7 91 f1 3e 6a 08 6d be
       -0.031241927 -0.37119403 0.47181532 -0.23147741
0000a0 f0 c7 23 3e 08 7c ce bd 62 10 8b 3f 70 4c 83 3f
       0.15994239 -0.10082251 1.0864375 1.0257702
0000b0 34 9d 35 3f 53 5e 47 3d c5 f6 1c bd a5 a3 73 3e
       0.70943 0.04867394 -0.038321275 0.23792894
0000c0 d3 5c 7f bf 1a 64 07 be 0c 67 53 3d e4 d1 d8 be
       -0.99751014 -0.1322178 0.051611945 -0.42347634
0000d0 47 e9 ab bf 3a 2e 34 bf 00 9d 41 bf 84 06 b6 3f
       -1.3430566 -0.70383036 -0.7563019 1.4220738
0000e0 f2 82 ae bd 8c c4 80 3c e3 e4 dc be 50 91 8f 3b
       -0.085210696 0.01571872 -0.43143377 0.0043813363
0000f0 d2 e8 5f bc d9 ed 8b be 61 b1 83 be af 16 23 3e
       -0.0136663485 -0.273299 -0.25721267 0.15926622
000100 de 8e c4 bb b2 4a b9 3d d7 53 8e bc f7 fa ad 3e
       -0.0059984764 0.0904745 -0.017373962 0.33980533
000110 90 5b 8c 3d 1c b0 1d 3d ef 63 b5 41 c4 7b b8 41
       0.06853402 0.03849803 22.673796 23.060432
000120 c0 7e 0d 3e 33 cb 74 3c d5 cb 7a bc 06 5f c5 be
       0.13817883 0.014941025 -0.015307386 -0.3854906
000130 3c c3 d9 3d c6 ac 9f 3d 10 5b 98 3c ff f0 10 be
       0.10632941 0.07796626 0.01859811 -0.14154433
000140 30 21 f8 3f 68 d3 98 3f 3e 23 cf bf b7 b6 7e bf
       1.9385128 1.1939516 -1.618263 -0.9949755
000150 e8 8d b4 3e 76 33 a7 3e 41 2e 0d c0 b9 b2 ce 3d
       0.35264516 0.3265645 -2.205948 0.100926824
000160 eb 88 09 3d e9 be 13 3f ed 3e f4 bf ba f7 b8 be
       0.03357784 0.5771318 -1.9081703 -0.361265
000170 94 52 31 bd 29 dc 2f 3f a9 7a 42 bf 51 48 e3 bf
       -0.043291643 0.6869531 -0.75968415 -1.7756444
000180 30 2d f1 bf 07 7d 0a c0 c7 c8 bf 41 c5 a7 e8 41
       -1.8841915 -2.163881 23.973036 29.081919
000190 c6 23 a6 c0 56 ef a0 3e bf 89 88 bc 8e 15 d6 3e
       -5.191867 0.314326 -0.016667245 0.4181332
0001a0 b0 ee f7 bf d2 d6 95 be 9f df 9f 3c ab e5 fa 3e
       -1.9369717 -0.29265457 0.01951581 0.49003348
0001b0 ea f5 4c c0 2d fb 29 3f 01 6c 56 c0 26 a7 01 c0
       -3.2025094 0.6639889 -3.350342 -2.025827
0001c0 51 c5 a6 3e bd 13 58 3e 25 db 71 bf 8b 03 0d bf
       0.32572415 0.2110128 -0.94475013 -0.5508353
0001d0 25 64 1a 3c f2 b5 98 bf be 6f 3f bf f7 f4 01 bf
       0.00942329 -1.1930525 -0.7477988 -0.5076441
0001e0 36 c9 44 bf bb 89 81 be a8 1e 20 bf d6 2e 0e 40
       -0.76869524 -0.25300393 -0.6254678 2.2216086
0001f0 b4 ed 89 bf 87 f4 e0 be fc 19 2d 41 e1 bb 16 41
       -1.0775666 -0.4393656 10.818844 9.420869
000200 2a d1 57 c0 d7 2f 35 bf f6 ad ad 3d 75 eb 36 bf
       -3.3721414 -0.7077612 0.08480446 -0.7145303
000210 e8 54 1d 40 95 27 3e bf f5 1a 42 bf c9 1d 91 3e
       2.4583073 -0.7427915 -0.75822383 0.28343037
000220 a4 fd 0a 41 95 cc dd 40 cf 12 88 bf 97 68 18 c0
       8.686924 6.9312234 -1.063074 -2.3813837
000230 8c b6 15 c0 e6 48 02 c0 0c 88 b0 bf 35 19 8d 3f
       -2.3392668 -2.0356994 -1.3791518 1.1023318
000240 40 e8 b8 3d 89 a4 5e bf 89 1b 6d bf 33 f8 3c bf
       0.09028673 -0.8696981 -0.9262014 -0.7381622
000250 45 99 5d be fc 23 16 bf 94 cd 82 be 33 d7 a9 bf
       -0.21640499 -0.5864866 -0.2554747 -1.3268799
000260 fb 1a 93 bf 6f 91 be bf c3 10 83 c1 9a f4 0f c1
       -1.1492609 -1.4888133 -16.383184 -8.997217
000270 cd c3 b9 c0 6a c2 46 3f 23 2e bf 3c 02 ed 2c bf
       -5.8051515 0.776404 0.02333743 -0.67549145
000280 9c cf 9c 40 6d fa b5 bf 06 e3 84 be 4b 41 92 bf
       4.900343 -1.4217049 -0.25954455 -1.1426176
000290 0f c5 ad c0 c2 c7 8c bf 18 02 cc bf e8 38 1d c1
       -5.430305 -1.0998461 -1.5938139 -9.826393
0002a0 a1 1d 0e 3d c3 11 5f 3d 0b 3f 8c bf 1a 55 2e 3e
       0.034696225 0.0544603 -1.0956739 0.17024651
0002b0 b9 4e ff bc 58 00 a6 3e 1d 54 5f bf 27 1f 95 3e
       -0.031165468 0.32422137 -0.8723772 0.2912533
0002c0 52 82 3d 3d 30 ac d9 3e 58 b5 4e 3f 45 f1 0c bf
       0.04626686 0.4251418 0.8074546 -0.5505565
0002d0 c0 e1 84 bf ee 8a a4 bf 44 2b 40 42 b7 e8 14 42
       -1.0381393 -1.2854898 48.04225 37.22726
0002e0 e1 03 e3 3f 81 18 d1 3d 06 56 0f bd c6 68 e5 3e
       1.7735559 0.10209752 -0.034994148 0.44806498
0002f0 e2 61 84 3f 2e 86 c5 3d 2d 39 27 3c b4 30 81 bd
       1.0342371 0.09644733 0.010206503 -0.063081175
000300 32 67 95 c0 37 e6 0b 3f 61 15 d6 3d 97 8a 14 40
       -4.668847 0.54648155 0.104532965 2.3209589
000310 f1 34 8d be ca 83 18 3e 2c 9c 4b bf ff 8c 9e be
       -0.27579454 0.14894024 -0.79535174 -0.30966946
000320 da 01 a6 bc fc d7 76 be d8 55 6d bf fb a3 ba be
       -0.020264555 -0.24105829 -0.9270911 -0.36453232
000330 07 68 83 bd 01 0b d9 be cc 70 7d 3f 5c 33 80 be
       -0.06416326 -0.42391208 0.9900024 -0.25039184
000340 f8 09 35 bf 0c 6d ab bf 32 ad 30 42 68 a6 ff 41
       -0.70718336 -1.3392653 44.169136 31.956253
000350 3e 80 35 c0 87 37 13 be 42 b3 02 bb f4 76 f7 be
       -2.8359523 -0.14376651 -0.0019943272 -0.48332942
000360 4d 90 f4 bf 5e 88 0f be 53 46 f4 bb 63 72 5b 3e
       -1.9106537 -0.14016864 -0.0074546724 0.21430354
000370 c8 1b 8f 40 9b c8 ff bd ea 76 ba bf 3c 26 a5 bf
       4.4721413 -0.12489434 -1.456754 -1.2902293
000380 a4 0a 6a be 3d e9 bb be b0 80 f5 3e fb 31 3c bf
       -0.22855622 -0.36701384 0.47949743 -0.73513764
000390 12 8e 95 bd 52 73 4a bf d6 af 2c 3f ee ab 09 3e
       -0.073024884 -0.79082215 0.67455804 0.13444492
0003a0 7f ef 8b 3e cb 8d 53 bf ef ac 10 bf 09 0c e5 be
       0.2733116 -0.82638234 -0.56513876 -0.44735745
0003b0 85 ab d6 3e 01 7f 01 3f 7a 45 89 c0 af c8 6e c0
       0.41927734 0.5058442 -4.289731 -3.7309988
0003c0 fa 9d 70 c1 41 f9 44 bf b1 c7 41 3f 43 26 18 c0
       -15.0385685 -0.7694283 0.7569533 -2.3773353
0003d0 d1 08 d5 c0 eb 2f 22 3d 13 fc 64 3f c7 fb e1 be
       -6.657326 0.03959648 0.89447135 -0.44137403
0003e0 ba 0f d7 c0 3c 7d e4 40 1b 75 d8 c0 c6 82 8a c0
       -6.7206697 7.1402874 -6.764295 -4.3284636
0003f0 1f 49 89 bf 28 a7 84 bf 77 33 1c be c9 1b 3c 3f
       -1.072544 -1.0363512 -0.15254007 0.73479897

encoder.conv0.k.bias f4 [32]
000000 63 3a 72 3f 33 b7 4a 3e 03 ba 7a 3e a4 2a b6 3e
       0.9462034 0.19796447 0.2448502 0.35579407
000010 ce 46 d3 bf 62 44 8e 3d fc 37 e5 3f 4c ca f3 3f
       -1.6505983 0.06946637 1.790771 1.9046111
000020 29 2d 5c be 80 20 71 3e bd 69 25 bf bd 85 85 bf
       -0.21501602 0.23547554 -0.6461447 -1.0431439
000030 bb c6 3b 3f ad 43 85 be 26 7b 6b bf e8 e6 b4 be
       0.73350114 -0.26028195 -0.91984785 -0.35332417
000040 f8 6c 9b bf e2 3b 0b 3f e4 ec c5 bf 44 65 97 bf
       -1.214263 0.5438825 -1.5462918 -1.1827779
000050 ff 83 d5 3e 9c b6 de be e1 33 43 bf b8 ac 06 3f
       0.41702268 -0.43498695 -0.76251036 0.526073
000060 b2 51 a9 be 58 82 db bc c5 4b 32 3f cb d7 0e c0
       -0.3307014 -0.026795551 0.69646865 -2.231921
000070 da 33 4b 3f c3 ff 17 3f 85 eb c5 3b fc 5f 3f bf
       0.79375994 0.59374636 0.006040039 -0.74755836

encoder.conv0.v.weight f4 [32, 28]
000000 7f ac d0 3d c6 99 33 bd 2e 7e 1f bf 19 42 03 3e
       0.10189151 -0.04384782 -0.6230191 0.12818183
000010 da 9d aa 3c 9b b5 d7 bc e3 51 04 bd f6 85 1b bd
       0.020827223 -0.026331713 -0.032304656 -0.037969552
000020 c1 92 e8 3b 86 8b 8b be 54 7d 85 bf 70 bc bd be
       0.0070975726 -0.27254885 -1.0428872 -0.3705783
000030 60 c3 6f be 4e f9 81 bf 19 16 a4 c1 ea 1f 83 c1
       -0.23414373 -1.0154207 -20.51079 -16.390583
000040 5b 76 20 40 ab 79 98 3c 75 69 9a bb 30 25 c8 bc
       2.5072238 0.018612703 -0.0047122785 -0.024431795
000050 2a 7a a3 c0 f3 cf 72 bd 19 bc b4 3c 1e de 12 be
       -5.1086626 -0.059280347 0.022062348 -0.14342543
000060 6c a8 41 3f 92 4d 1e c0 6d 64 96 bf 26 3a 00 c0
       0.75647616 -2.4734845 -1.1749398 -2.003549
000070 b1 44 43 3d 15 4c 8f 3e a9 9e b9 bf 0d 27 86 be
       0.04767293 0.27987733 -1.4501544 -0.26201668
000080 49 e5 cc 3b ed 7c 5b be a3 26 6c bf da 3f 9b bd
       0.006252919 -0.21434374 -0.92246455 -0.07580538
000090 e9 a9 1d bd 34 72 8b 3d b8 e4 be ba 9c ad a7 be
       -0.038492117 0.06808892 -0.0014564013 -0.3274964
0000a0 de d3 70 bf 9c 8b b9 bf 9a d7 18 42 d1 b1 d6 c0
       -0.94073284 -1.449573 38.21055 -6.709206
0000b0 23 1e da bf ad 64 4b be 9f f8 c6 bc 50 d3 0a be
       -1.7040447 -0.19862624 -0.024288474 -0.13557172
0000c0 14 39 16 c0 70 cb 16 be a5 18 34 bd a3 c2 9d 3e
       -2.3472338 -0.14726043 -0.043968815 0.3081256
0000d0 7e 2d 83 3f cd c3 fd bf f7 f1 e7 3e 4d d2 12 bb
       1.0248258 -1.9825379 0.45301792 -0.002240318
0000e0 60 30 13 3e d1 39 02 be 52 ac bc 3d 15 99 04 3d
       0.14373922 -0.12717368 0.09212555 0.032372553
0000f0 f2 d2 bb bc ed fb 31 3c 86 47 71 3e da 08 74 bd
       -0.022927735 0.010863286 0.2356244 -0.059578754
000100 d1 24 fa 3c 63 e9 72 be 03 46 37 3e f7 7f 3c be
       0.030535134 -0.23721842 0.17897801 -0.1840819
000110 71 6a 22 3f 4b 95 96 3e 8b 0e 67 41 b1 05 f0 41
       0.63443667 0.29410776 14.441051 30.002779
000120 6f 68 ee be d6 c7 38 3d 75 b9 fd 3b 9e d5 b4 3d
       -0.46564052 0.045112453 0.0077430555 0.08829807
000130 b2 2e 22 bf 52 06 60 bd e0 4f b7 3c 55 41 c3 bd
       -0.633525 -0.054693528 0.022376955 -0.095339455
000140 3e 3a 6f be cb af 5a bd 66 33 ab 3f de 1b f3 be
       -0.23362061 -0.053390305 1.337506 -0.47482198
000150 be e9 d5 bd ae d1 8a 3c ad 40 25 bf 4f 0c 4c be
       -0.104449734 0.016945686 -0.6455181 -0.1992657
000160 d4 8e 08 bd 06 25 f9 bc e3 9d 31 bf dc f8 57 3d
       -0.033339337 -0.030413162 -0.6938154 0.052727565
000170 bf 73 8e 3c af d7 36 bd a6 28 56 bd 5f ad 07 bf
       0.017389176 -0.044639286 -0.05228486 -0.5299892
000180 89 8b 42 bf 84 0f 30 bf 8c fc 04 42 ca 8e 46 42
       -0.75994164 -0.68773675 33.246628 49.639442
000190 74 ed 8b c0 d2 69 77 3c 12 e4 5c bd 2e c0 16 bd
       -4.372736 0.015100913 -0.053928442 -0.03680437
0001a0 c0 2b 89 3f 13 8e c0 3d f2 24 ef 3c c4 12 aa bc
       1.0716476 0.094020985 0.029192422 -0.020760901
0001b0 83 84 7a be d4 2b c5 3d 65 f6 34 bf b5 da ca bf
       -0.24464612 0.096275 -0.7068847 -1.5847994
0001c0 c5 85 8b 3f d8 06 a4 3f 48 9a b3 bf 18 b3 5a be
       1.0900198 1.2814589 -1.4031458 -0.21357381
0001d0 a0 23 53 3e b5 04 fc be 56 d1 5f bf 14 72 03 bf
       0.20619059 -0.4922234 -0.87428796 -0.51345944
0001e0 d9 c1 89 be 5b 6f 5d bc f3 4b 91 bd eb eb 6b be
       -0.26905707 -0.013515319 -0.07094564 -0.23039214
0001f0 df d0 75 bf 48 a8 1a bf 83 e5 f8 3f c9 e7 a2 40
       -0.96021837 -0.60413027 1.9445041 5.090794
000200 1a b5 26 40 c8 61 0b be 30 b5 dc 3d ec 9e f4 3c
       2.6048036 -0.1361152 0.10776746 0.029860936
000210 7c d5 89 3f b4 e6 3a 3e a3 ab 85 be 96 d4 cc 3f
       1.0768275 0.18252069 -0.2610751 1.6002376
000220 bc 32 43 bf 31 c6 2e 40 dd 34 3d c0 4a 80 aa c0
       -0.7624929 2.7308466 -2.9563515 -5.3281603
000230 1f f7 1a be b9 5c a7 bd b9 bc ae be 73 dd 83 bf
       -0.15133332 -0.08171982 -0.3412836 -1.0301956
000240 86 5d 3f be 14 65 00 c0 2c e7 18 3f fe 58 fb bd
       -0.1868802 -2.0061693 0.5972774 -0.12272833
000250 07 92 73 3d a1 7c 84 bf 3b 29 aa 3e 2c 29 80 3f
       0.059465434 -1.0350534 0.3323458 1.0012565
000260 62 8f fd bd 5d bd da 3f c5 7e 03 c0 07 62 66 c1
       -0.12380864 1.7089039 -2.0546124 -14.398932
000270 93 9e 9b c0 5b 0d 33 bf af ff d6 bd 26 37 ff bf
       -4.863107 -0.69942254 -0.104979865 -1.9938705
000280 99 da 25 c0 43 4d db 3d 4a 34 ef 3d 4f 5f b7 be
       -2.5914671 0.10708096 0.11679895 -0.35814902
000290 30 b0 30 bf 48 f9 fe 3f bf 28 58 40 8a bd 21 3e
       -0.6901884 1.9919825 3.377487 0.1579496
0002a0 42 08 ac be 7f ea c3 bc 36 b7 c0 3d 0d 10 d7 bc
       -0.3360005 -0.023915527 0.09409945 -0.02625277
0002b0 4d 6e b7 3a b7 be 78 bd 8a b7 ea 3e ad 0f 13 3d
       0.0013994664 -0.060728755 0.45843154 0.03590362
0002c0 84 48 38 3c bb f5 0e be e2 d0 9b 3f ea 04 93 bf
       0.011247758 -0.13960926 1.2173121 -1.1485875
0002d0 c2 26 d5 bf 15 39 05 c0 39 3f 0a 41 21 31 b3 bf
       -1.6652453 -2.081609 8.640435 -1.3999368
0002e0 0d 7e 7c 3f 8d 99 ee bc 8f be 4a 3b 9e 71 1c bd
       0.9862984 -0.029125953 0.0030936336 -0.03819429
0002f0 52 51 97 3f 79 cb 32 3c 95 96 23 3c 5a c2 0b be
       1.1821692 0.0109127695 0.009984632 -0.13648358
000300 cd 9a e6 bf 87 b3 b8 3e 0e 32 90 40 86 d4 e3 3f
       -1.8015991 0.36074468 4.50611 1.7799232
000310 2e 8c cb bd 62 ba a8 3d 8a c4 d4 3f 5d 46 7c 3c
       -0.099388465 0.08238675 1.6622479 0.015397635
000320 f9 22 98 bb fd 27 83 bd 69 eb 71 3f 81 33 95 bd
       -0.004642841 -0.064041115 0.9449983 -0.07285214
000330 19 8b f5 bb ff cc 82 bd 32 8b 7b bf 48 a9 6d 3e
       -0.0074933884 -0.06386756 -0.9825927 0.23209107
000340 17 ed b8 3e cd af 98 3f 29 a7 ce c1 8a 05 07 c2
       0.36118385 1.192865 -25.831621 -33.75541
000350 d7 54 b3 3f 9d d5 9c bb 93 b7 9e bc 41 6d 7b bd
       1.4010266 -0.004786207 -0.019374644 -0.06138349
000360 73 06 05 3f b8 c6 ab bd 17 1e 49 3c db c3 53 bd
       0.51962966 -0.08387512 0.01227524 -0.051700454
000370 41 92 77 bf 12 5b 1d 3f 2a d6 40 3e 1f a9 81 3f
       -0.9670754 0.6146709 0.18831697 1.0129737
000380 56 82 12 3d 73 8b 26 be ad 2b 86 bd 5a be 4d 3e
       0.03576883 -0.16264133 -0.06551299 0.20092145
000390 2f 4a 7e 3d 3d ba b4 bd 8f ed 96 be c2 65 63 3e
       0.062082466 -0.08824585 -0.29478118 0.22206786
0003a0 15 3c 55 bd 4b 7b 24 be c4 6b 08 bf 77 fa 15 3d
       -0.05205925 -0.16062658 -0.5328944 0.036615815
0003b0 96 6a 08 bf 1a ce 6a 3e 6c 6d 91 bf 34 0b d3 bf
       -0.5328764 0.22930184 -1.1361518 -1.6487794
0003c0 f4 8d 98 be 2c a0 2d 3e ba 75 ec bd 8a b6 4f be
       -0.29795802 0.16955632 -0.11545892 -0.20284477
0003d0 a6 4f 4e bf fc b1 03 3e c6 75 ae be 27 82 d8 bd
       -0.80590284 0.12860864 -0.3407423 -0.105716996
0003e0 97 7f 9f 3f 58 de 7b 3e af 37 1a c0 f4 67 6e 3f
       1.2460812 0.24596536 -2.4096487 0.9312737
0003f0 0f c3 6a be b2 eb be bd 3e 0a 05 3f 5e ee 07 bf
       -0.22925971 -0.09322299 0.51968753 -0.53098094

encoder.conv0.v.bias f4 [32]
000000 2f aa c7 bf 69 78 a3 be aa 9d 4d 3f c7 bf ef bd
       -1.5598811 -0.31927803 0.803187 -0.117065005
000010 62 e3 d0 bf fd 42 ca bf 6a 1a 3f 40 42 ed ac bf
       -1.6319392 -1.5801693 2.9859872 -1.3509905
000020 40 07 6e 3e 6c d0 a8 be 4f 3a 07 be 91 63 86 bf
       0.23244953 -0.32971513 -0.13205837 -1.0499135
000030 e1 d3 41 3e d4 01 28 bf bd f3 8a bd 61 a0 1e bf
       0.18928482 -0.6562779 -0.06784771 -0.6196347
000040 6e d7 9a 3f f6 6f b0 ba 01 af 1c 40 07 57 9b bf
       1.2096994 -0.0013461101 2.4481814 -1.2135934
000050 e9 1c b4 bf 21 f9 ce 3e fe cd 9d be d0 de 1b 3e
       -1.4071323 0.40424445 -0.30821222 0.15221715
000060 72 22 dc 3e 57 70 50 bf 44 d9 ed be 68 c1 b6 3e
       0.4299503 -0.81421417 -0.46454823 0.35694432
000070 15 e4 96 3e 44 9d 8a 3f f4 bf 09 3f 0a 43 ac bf
       0.29470888 1.0829244 0.5380852 -1.3457959

encoder.conv1.q.weight f4 [16, 64]
000000 6a 97 75 40 3a d9 b5 3f 8b 92 4e 40 a0 15 a6 be
       3.8373666 1.4206917 3.2276943 -0.32438374
000010 c2 1d 68 40 5d 2d 3a bf fe 65 38 3f aa 48 e0 3f
       3.6268163 -0.7272547 0.7203063 1.7522175
000020 6a dd 18 40 73 b0 0b 40 7c 1d 97 40 3f b0 ca 3f
       2.388514 2.1826446 4.722349 1.5835036
000030 87 76 68 40 09 55 73 3f 73 bb 82 40 ef 77 60 3e
       3.6322343 0.9505163 4.085382 0.21920751
000040 0b ec 86 c0 21 36 e7 bf 44 eb 53 bf 06 fc c0 bf
       -4.216314 -1.8063394 -0.8278086 -1.5076911
000050 50 1b b4 bf f9 ee 2a 40 77 76 6d 40 f0 69 4a 3f
       -1.4070835 2.6708357 3.7103555 0.790679
000060 59 06 fc 3f c3 5f 3c 40 10 be 67 40 c1 e3 5a 40
       1.9689437 2.9433448 3.6209755 3.420151
000070 b8 db d9 3f 87 7d 82 3f 39 4d 6d c0 55 79 a4 3f
       1.7020178 1.0194558 -3.7078383 1.2849528
000080 c7 f7 17 40 f4 72 34 3d 17 61 55 3f cb fa 4f c0
       2.3744981 0.04405494 0.8335127 -3.2496822
000090 ab ab 07 40 2b 15 25 3f 13 1c 8e 3e 55 d3 33 3e
       2.1198528 0.64485425 0.27755794 0.17561086
0000a0 a7 67 ad 3f 39 9e 00 3f 9f 31 4a 3e 85 d2 b0 3f
       1.3547257 0.5024143 0.19745491 1.3814245
0000b0 1d da 7f 3f 98 bb c6 3c 56 95 84 3e be a5 9c 3f
       0.9994219 0.024259374 0.25895184 1.223808
0000c0 0b 88 45 bf 38 44 50 3f 88 34 18 c0 c3 d0 9e bf
       -0.7716071 0.81354094 -2.3782063 -1.2407459
0000d0 99 08 94 bf 6a 82 e1 be 74 52 27 c0 3b ad 28 be
       -1.1565124 -0.4404481 -2.6144075 -0.16472332
0000e0 b1 19 02 c0 c9 cd 9a 3f 48 89 20 bf 51 c4 b9 3f
       -2.032818 1.2094051 -0.62709475 1.4513036
0000f0 4f 3e 3b be 6a 66 9f 3f 84 0f 34 c0 e0 40 97 bf
       -0.18285488 1.2453129 -2.813447 -1.1816673
000100 a8 61 ef bd 11 a7 03 3e 9c 5a 0e 3e cb 45 d3 bf
       -0.11688548 0.128567 0.13901752 -1.6505674
000110 9c 4f 9a 3f 06 47 d0 3f f6 35 ab be 75 ae 76 bf
       1.2055545 1.6271675 -0.33439606 -0.9635995
000120 13 93 3f 40 61 31 13 40 f2 5d f8 be 19 65 18 40
       2.9933517 2.2998888 -0.48509175 2.3811705
000130 9c cc 69 40 c1 07 f8 3f ef dc 0c be ca a6 58 c0
       3.6531134 1.9377366 -0.13756154 -3.38518
000140 b2 1c c1 c0 e1 0c a5 c0 56 7e 39 c0 94 43 2e 3e
       -6.034753 -5.157822 -2.898336 0.17017967
000150 b9 e0 65 3e 7e e1 6a 3e 0b 2e 9e bf 2f 65 11 c0
       0.22449006 0.22937581 -1.2357801 -2.2718008
000160 f3 2e 70 c0 25 f3 e4 bf 80 b2 75 3f 75 a7 1e 3f
       -3.7528656 -1.7886702 0.95975494 0.6197427
000170 e4 21 44 bf c3 7d 7c be 72 41 36 c0 99 7d dd 3f
       -0.76614213 -0.2465735 -2.8477445 1.7303954
000180 ae 3e 16 40 39 bc 97 bf f3 12 48 3f 91 75 68 40
       2.3475757 -1.1854316 0.78153914 3.6321757
000190 8e 47 01 40 ff 65 35 40 d9 3f 16 bf 84 6b b8 bf
       2.0199924 2.8343503 -0.58691174 -1.4407811
0001a0 6e bf 20 40 51 c3 e1 3f d9 b3 90 bd c3 41 50 40
       2.511684 1.7637731 -0.07065553 3.2540138
0001b0 6b 3d 03 40 db 77 8d 3f ab 11 0f 40 a1 e1 5d c0
       2.0506237 1.1052202 2.2354534 -3.4668963
0001c0 53 d3 3c c0 ac 8b 09 c0 4a 68 dc bf 51 ca 73 3f
       -2.9503982 -2.14915 -1.7219326 0.95230585
0001d0 b9 9e f3 be d9 68 77 be c6 b9 12 c0 9e 65 fa bf
       -0.47582033 -0.2416109 -2.2925887 -1.9562261
0001e0 25 30 6c bf 0e b7 b5 bf 74 1a 26 40 5d 14 78 40
       -0.9226096 -1.4196489 2.5953646 3.8762429
0001f0 26 ce 95 3f 42 11 50 3d 33 59 97 bd 0c 67 1a 40
       1.1703537 0.05079771 -0.0739006 2.4125395
000200 ee 9a 24 c0 96 08 7c be 61 97 65 bf 2d cf 4b c1
       -2.5719562 -0.2461265 -0.8968411 -12.73808
000210 40 82 a1 3f c3 78 b7 3f 93 e6 82 bf 71 c5 08 40
       1.2617874 1.4333729 -1.0226616 2.1370509
000220 42 6a a3 bf 38 f4 0f 3f 2a c8 9b 3f 6c 1c dc 3c
       -1.2766802 0.56232023 1.217046 0.026869021
000230 a2 37 55 3f b0 59 c7 bf bb d9 14 3f 02 7d 0b c0
       0.83288014 -1.5574245 0.5814473 -2.1795049
000240 32 7c 05 c0 51 46 25 3f fd cb e7 b8 29 d7 3f 3c
       -2.0857053 0.6456042 -0.00011052934 0.011709013
000250 79 82 4d bf 03 82 8a 3f 85 d7 4e 40 c4 d1 82 3f
       -0.8027721 1.0820926 3.2319043 1.0220265
000260 e1 29 a0 3d d4 f1 61 40 e1 72 fd 3f 70 e7 b5 3e
       0.07820488 3.530385 1.9800683 0.35528135
000270 47 17 ec 3f cf fd 1f 3f 16 02 ed bc cb 90 f1 bd
       1.8444604 0.62496656 -0.028931659 -0.11795195
000280 41 a0 f4 bf a6 31 1d bf 16 6c 05 c0 05 8a 63 c1
       -1.9111406 -0.6140388 -2.084722 -14.221196
000290 38 ad 78 3f 90 67 36 3f 23 a3 39 bd d2 a5 f5 3f
       0.9713931 0.71251774 -0.045321595 1.9191229
0002a0 13 d4 32 be e0 90 dc 3e fd 08 a9 be 99 21 79 3e
       -0.17463712 0.4307928 -0.3301467 0.24329223
0002b0 41 b3 33 3e b8 60 de 3d b6 2a 33 bf 0f 04 83 3f
       0.17548849 0.108582914 -0.69987047 1.0235614
0002c0 c4 fa d0 3f 4e 21 21 3e b3 fb 93 3f 6d 17 f7 3d
       1.6326528 0.15735361 1.1561188 0.12065015
0002d0 fb 37 86 bc 77 6f b0 3f a2 de da 3f 0d b0 e3 3e
       -0.016384115 1.3784016 1.7099192 0.44470254
0002e0 d6 db 51 3f 00 96 85 40 03 bc 6e be 83 0e 95 bf
       0.8197607 4.1745605 -0.23313908 -1.1645054
0002f0 38 18 29 3f be 7b 13 3f 0b f8 da bd 55 aa d7 3e
       0.6605258 0.5761069 -0.10691842 0.4212214
000300 94 0e df 40 19 64 a3 bf 1f 45 33 40 6c ac 5b 41
       6.9705296 -1.2764922 2.8010938 13.729595
000310 c5 63 11 bf b4 da be 3f 17 47 a1 be ea fb 3e 3e
       -0.5679286 1.4910493 -0.3149955 0.18650785
000320 11 ff cc 3f 42 04 e4 3d c4 f1 64 3f 8e 81 c3 be
       1.601534 0.111336246 0.89431405 -0.3818478
000330 21 42 be 3f 00 d7 02 40 4a 94 c9 3f 10 e0 1f 40
       1.4863931 2.0443726 1.5748379 2.4980507
000340 ca ae c9 3f 0b 76 9e 3f af 7b 53 3e 30 fa c8 3e
       1.5756466 1.2379774 0.2065265 0.39253378
000350 77 bd dd be e3 70 a4 3e 5d 3b 8c be 96 09 0a 3e
       -0.43308613 0.32117376 -0.2738904 0.13480219
000360 c0 e2 01 3e fb 23 4f c0 ab 34 d8 3e 33 d2 4c 40
       0.12684155 -3.236571 0.42227682 3.2003295
000370 10 c9 d6 3f 6e 39 07 3e b6 c4 e0 3d f9 34 9a be
       1.678011 0.13205501 0.1097502 -0.3011854
000380 7f ee 16 40 4b 9d dc bf 1b 32 da 3f b2 0c 4e 41
       2.3583066 -1.7235502 1.7046541 12.878099
000390 c1 2b 09 3d d9 ba 01 40 38 f4 f0 3e d8 6f d5 bd
       0.033488993 2.0270293 0.47061324 -0.10421723
0003a0 cc f9 a1 3f b3 7a c7 3d dd 90 90 3e 4f 1e 20 3e
       1.2654357 0.097402 0.28235522 0.15636562
0003b0 46 db bb 3f 58 23 7f 3f 58 fc d7 3e 51 ae ba 3f
       1.4676292 0.99663305 0.4218471 1.4584447
0003c0 43 ad 9a 3f be 41 29 3f 07 f1 a0 3f 9e c0 06 3f
       1.2084125 0.6611594 1.2573556 0.5263766
0003d0 87 1f d0 3e ac 2f 2b 3f 19 d9 19 bf 3c eb 93 be
       0.40649053 0.66869617 -0.6009689 -0.28890407
0003e0 b4 a4 50 be a5 fa 6e c0 37 f7 2f be 75 80 cc 3f
       -0.2037533 -3.7340481 -0.17184149 1.5976702
0003f0 c1 05 9d 3f fc 33 3a 3e 7e d5 d4 bd 42 aa a5 3c
       1.2267381 0.18183893 -0.10392283 0.020222787

encoder.conv1.q.bias f4 [16]
000000 db 88 f3 3f 3f ad 02 40 46 f4 4c 3f 52 f5 55 be
       1.902614 2.041824 0.8006023 -0.20894364
000010 35 8a ec be bd 8c 84 3f 65 ca 5a 3f af d9 64 c0
       -0.46199194 1.035545 0.8546508 -3.5757864
000020 3e d8 a4 be ad a0 fc be 58 d1 3f bf 7f a0 21 3f
       -0.3219623 -0.49341336 -0.7492881 0.6313552
000030 c2 c1 a9 3f 8f c9 17 40 ac 81 81 bf 5f 0b 12 c0
       1.3262255 2.3716772 -1.0117698 -2.281944

encoder.conv1.k.weight f4 [16, 64]
000000 1a 1d 59 40 31 ff 40 40 cc 26 03 c0 e3 94 03 c0
       3.3924012 3.0155756 -2.049243 -2.0559623
000010 e5 84 04 40 55 cb ae bf 25 08 7b bf c7 53 44 40
       2.0706112 -1.3655802 -0.980593 3.0676134
000020 e5 a4 71 3e 60 88 10 3f c8 98 8a bf ce b8 37 3f
       0.23598059 0.5645809 -1.0827875 0.71766365
000030 1f 0b 12 40 b3 dc 82 bf f7 97 33 c0 a3 8c ff bf
       2.2819288 -1.0223602 -2.8061502 -1.9964794
000040 03 96 8c be d7 aa 79 bf bc 2c af 3d f0 17 97 bf
       -0.274582 -0.97526306 0.08553454 -1.180418
000050 71 1f 01 be 5f 9a ec 3e cc 32 2d 40 2c 44 1b 3e
       -0.1260965 0.46211526 2.7062254 0.15162724
000060 76 03 4d 3f 64 c8 2d 40 f2 56 66 3f e6 67 9d 40
       0.80083406 2.7153559 0.8997642 4.918933
000070 b5 f0 b5 3e 82 5d 7f 3e 84 c5 dd bf 05 a3 b6 3f
       0.35535207 0.24938014 -1.7325902 1.42685
000080 18 0d 62 40 eb 70 9e 3f 43 03 61 bf c4 a9 92 c0
       3.5320492 1.237821 -0.878956 -4.5832233
000090 ef c6 0d 40 58 8a a7 bf e8 62 b2 be 9b 0b e2 3f
       2.215267 -1.3089094 -0.34841084 1.7659792
0000a0 09 39 8e be 71 45 d1 be db 1a 9a bf 85 1a 60 3f
       -0.2777789 -0.40873292 -1.2039446 0.87540466
0000b0 ea 95 19 bf a0 94 38 bf 72 1f c4 be 3b dc 86 3f
       -0.59994376 -0.72101784 -0.3830524 1.0535959
0000c0 93 66 e8 be 50 49 ee bd b5 ec eb 3e 59 f2 3e 3e
       -0.45390758 -0.11635077 0.4607903 0.18647136
0000d0 12 de 09 bf 08 f2 19 bf a9 2c 95 3f 48 4c 3c bf
       -0.5385448 -0.60134935 1.1654254 -0.73553896
0000e0 81 9b 1b 40 6a 4f d3 3f 8a d6 f3 3f 49 d1 7c 40
       2.4313662 1.650861 1.9049847 3.9502738
0000f0 56 9f 9d 3e c6 a8 26 bc 67 f9 0e 3f 9c 9a 4b 3f
       0.30785626 -0.010172075 0.5584931 0.7953279
000100 fe 5e 76 3f 8a 65 76 be b0 63 42 c0 6d 34 79 40
       0.96238697 -0.24062172 -3.0373344 3.8938248
000110 d7 83 7f bf de 6d 4f 40 fb 59 d2 3f b3 b4 e1 bf
       -0.99810547 3.2410808 1.643371 -1.763327
000120 06 e7 9f 3f b5 63 39 bf bf 16 1d 40 48 e5 af 3f
       1.2492378 -0.72417766 2.4545133 1.3741846
000130 e0 39 29 40 7f 3b 44 40 0c f0 1e 3f af 6e b6 3f
       2.6441574 3.0661314 0.6208503 1.4252528
000140 c9 8a 41 3f fa e2 96 bf b3 94 85 3f c5 64 1e be
       0.75602394 -1.1788018 1.0436004 -0.15468128
000150 20 08 b0 3f 6d 01 41 be b0 3c 08 c0 47 d3 75 3f
       1.375248 -0.188482 -2.128704 0.9602551
000160 7b c9 aa bf 68 00 8b bf 1d a4 7b 3f 83 4d 9b bf
       -1.3342737 -1.0859499 0.9829729 -1.213303
000170 62 2a 1a 40 ad 9b 06 3f 6c c1 e4 3c 5e 5a 1a c0
       2.4088368 0.5258129 0.027924262 -2.4117656
000180 4d 5a 41 c0 2d 8b 31 c0 f5 02 ba 40 74 b4 04 41
       -3.0211365 -2.7741196 5.812861 8.294056
000190 68 43 09 c0 9e 72 22 bf b1 9d d0 3e 71 eb 60 c0
       -2.1447392 -0.6345614 0.4074531 -3.5143702
0001a0 7c 6a 2f 40 0a f7 12 bf 98 ce d0 3f 9f 01 32 40
       2.7408743 -0.574082 1.6313047 2.781349
0001b0 5b 53 b7 3f ee c6 56 40 ba 51 2d bf f9 49 40 40
       1.4322313 3.3558917 -0.6770283 3.004515
0001c0 a6 9e 03 c0 3f 8c 6a bf fd 69 45 3f 1a 3c f2 3e
       -2.0565581 -0.9162025 0.7711485 0.4731148
0001d0 bf 02 c6 bf ae 27 2c bf 85 1c 82 c0 f1 a7 c5 3e
       -1.5469588 -0.67248046 -4.0659814 0.38604692
0001e0 c3 f3 23 be e9 7e 63 c0 b0 7d 1e bf 35 23 10 3f
       -0.16010956 -3.554621 -0.61910534 0.5630372
0001f0 d8 25 41 40 c1 41 80 3e c9 52 86 3f a7 3f 40 c0
       3.0179348 0.25050166 1.0494014 -3.003885
000200 a1 ef a2 40 dc a7 81 bf a3 b0 75 40 8f 38 cf 40
       5.0917516 -1.0129352 3.838906 6.475654
000210 ad 5f f7 3e 95 36 24 40 46 ba 15 c0 4b 98 e8 3f
       0.48315182 2.5658314 -2.3394942 1.8171476
000220 cb f3 6c 3f f4 06 78 bf 9f 0a 77 bf 1a 73 ee 3e
       0.925595 -0.9688561 -0.9650058 0.4657219
000230 ad b5 31 3f 7f 23 99 3f 32 3e 95 bf e9 e6 4d 3f
       0.6941784 1.1963958 -1.1659606 0.80430466
000240 e9 09 75 3f 55 15 08 bf 41 07 cb 3e 0f 78 5e bf
       0.95718247 -0.5315755 0.39653972 -0.86901945
000250 d0 15 5f c0 3f f5 06 3e b1 24 93 3f 65 44 ca 3f
       -3.4857063 0.13179491 1.1495572 1.5802122
000260 19 6b 77 3f 2e bc d0 3f 26 84 15 3f fe 29 62 40
       0.96647793 1.6307428 0.5840477 3.533813
000270 77 07 5a 3f a1 b2 b4 3e d3 ab 97 3f 98 bf a7 bd
       0.8516764 0.35292533 1.1849312 -0.081908405
000280 bc f0 fa 40 aa 94 1e 3d 4c 2a 15 40 df 8b 06 41
       7.8418865 0.038715996 2.3307066 8.409148
000290 69 3e 35 40 3f fd 0b 40 59 02 cd bf 9d 88 29 40
       2.8319342 2.187332 -1.6016341 2.6489632
0002a0 23 cb 62 3f 84 89 f2 be 7b b9 20 3f 75 d9 8a be
       0.8859121 -0.4737054 0.6278302 -0.27119032
0002b0 bf 0a c8 3f 0a c0 ed 3f d7 c5 35 40 20 48 a8 3c
       1.562828 1.8574231 2.8402002 0.020542204
0002c0 37 f3 1b 40 f6 6f b0 3f 52 b3 9c 3f de 97 81 bf
       2.4367197 1.3784168 1.2242224 -1.0124471
0002d0 53 69 55 c0 5d 14 f9 3d 1b 1f 93 3f 54 4e 97 3f
       -3.3345535 0.12162087 1.1493868 1.1820779
0002e0 c5 3c fc 3f 8a c1 3a 40 01 b2 90 3f 96 c0 4b 40
       1.9706045 2.9180627 1.1304322 3.1836295
0002f0 10 bb 97 3f 8e 01 63 3e 3f a6 1c 3f c0 a5 35 bf
       1.1853962 0.22168562 0.6119117 -0.7095604
000300 3d 5e 46 40 c6 34 27 bf 48 a1 5d 40 55 e3 95 bf
       3.0995018 -0.653149 3.4629688 -1.1710001
000310 a9 76 23 40 9b fe 90 40 b5 78 de bc 1e a7 6b 3e
       2.5541174 4.53108 -0.027157167 0.23012969
000320 72 7c 5a bf 51 6d 0f c0 ec 9c 4d 3e fe 38 43 bf
       -0.8534614 -2.2410471 0.20079392 -0.7625884
000330 53 24 fb be 7f b9 af 3f 7e 25 f3 3f 3a 0c 9e 3f
       -0.4905115 1.3728484 1.8995817 1.2347481
000340 d9 61 23 3f 11 ff ea 3d 25 62 1c 3f b1 30 20 c0
       0.6382118 0.11474431 0.61087257 -2.502972
000350 25 36 bd c0 c4 58 b3 be 81 18 bd 3f ee e9 06 be
       -5.9128594 -0.3502866 1.4773103 -0.13175175
000360 1f 16 1f 40 d7 5e 6a 40 26 8f 01 40 8a 21 34 3f
       2.4857252 3.6620386 2.024362 0.70363677
000370 29 0f 6e bf 6d 93 44 3e 3c c7 2f 40 b2 71 da 3f
       -0.9299188 0.19196863 2.7465353 1.7065947
000380 54 f6 8d bf 92 27 34 3f a2 bf 5c 40 f4 65 26 c1
       -1.1090798 0.7037288 3.4491963 -10.399891
000390 c8 4b 13 40 06 37 b3 bf 14 e5 89 bf 4e 22 ad bf
       2.3015003 -1.4001167 -1.0773034 -1.3526094
0003a0 e9 5e dc bf 5f 19 bc 3d f3 5c 1a bf ea 3a ab 3e
       -1.7216464 0.09184527 -0.6029808 0.33443385
0003b0 19 8a 09 c0 ba e0 ec 3e ad d9 04 bf 37 91 9f bf
       -2.1490538 0.46265203 -0.51894647 -1.2466191
0003c0 e8 9d 3c 3f a9 e0 63 bf 0c c4 86 bf 38 c8 34 c0
       0.73678446 -0.8901468 -1.0528579 -2.8247204
0003d0 76 10 f7 bf ba 6d 5c bf 00 e8 a1 3f 9b 84 86 bf
       -1.9301898 -0.8610493 1.2648926 -1.0509218
0003e0 9b 05 53 3f b5 ff 15 40 11 3a ed 3f 3f 72 7b c0
       0.8243043 2.343732 1.8533345 -3.928848
0003f0 14 c1 21 bf 20 64 1c be 3b ba a2 3f 7a 57 b7 be
       -0.6318524 -0.1527257 1.2713083 -0.35808927

encoder.conv1.k.bias f4 [16]
000000 af db d0 be 81 3a 92 3f 32 64 29 c0 3f a4 81 c0
       -0.40792605 1.1424104 -2.6467404 -4.0512996
000010 77 78 8c bf 84 36 f6 be 8d 76 24 3f bf 2d 8c 3f
       -1.0974263 -0.48088467 0.64243394 1.0951461
000020 70 95 c1 bf 35 fd 3b be 29 e8 cd 3f d9 bc 65 bf
       -1.512373 -0.1835831 1.6086475 -0.89741284
000030 b2 a1 3c 3f 7f 73 01 be 69 c7 bd 3f d2 de 1e 3e
       0.7368423 -0.12641715 1.482648 0.15514687

encoder.conv1.v.weight f4 [16, 64]
000000 54 c4 21 c0 52 aa 27 3f 24 51 20 be 44 24 a4 c0
       -2.527608 0.65494263 -0.15655953 -5.129427
000010 c1 46 8e 3f 64 bf 93 bf 05 da a8 3e 8e 7a 9f bd
       1.1115342 -1.1542783 0.32978836 -0.07787047
000020 26 17 30 40 c0 16 6e 3f 2f 5d 9a 3e 78 4e d2 3f
       2.7514129 0.93003464 0.30149218 1.6430197
000030 9e a1 b1 3f 45 43 9c 3e 46 5e 9a 3f 5b 2e be c0
       1.3877447 0.30520073 1.206002 -5.9431586
000040 2a 7b e7 bf dc e4 84 c0 fd b8 ca bf 1c b5 8b be
       -1.8084462 -4.152937 -1.5837704 -0.27286613
000050 86 a2 36 bf 20 d8 26 be 60 f4 40 3e bc 20 0e bf
       -0.7134174 -0.16293383 0.18843222 -0.555187
000060 c4 4a 08 c0 33 d9 01 be 65 f3 56 3f bd db 4a 3f
       -2.1295633 -0.12680511 0.8396514 0.79241544
000070 3e d3 70 bf 47 00 40 be a8 ab 72 c0 8c ec 27 3e
       -0.9407233 -0.18750106 -3.791727 0.16398829
000080 66 54 80 bf 8c 83 ca 3e c9 65 71 bf 68 9a 86 c0
       -1.0025756 0.39553487 -0.94295937 -4.2063484
000090 08 4b 42 3f 25 56 8f bf e6 34 1b 3f 93 ab 88 be
       0.7589574 -1.1198164 0.6062759 -0.266934
0000a0 b3 31 2c 40 12 4e 24 3f 9d 4d e7 3c 61 d1 c9 3f
       2.6905334 0.64181626 0.028235251 1.5767022
0000b0 cf 6e bb 3f 50 f4 15 3f d5 63 e4 3e ef ec 9a c0
       1.4643191 0.58575916 0.44607416 -4.8414226
0000c0 5b d6 65 be 49 cd 9a c0 5a 88 c9 bf ae 48 fe be
       -0.22445051 -4.837559 -1.5744736 -0.49664825
0000d0 9b 30 d2 3d 48 d9 02 bf db d1 db be c8 89 e6 be
       0.10263177 -0.51112795 -0.42933545 -0.45026994
0000e0 64 06 f8 3e 2b 33 a5 3f 86 86 f6 3e bb fa 0e 40
       0.48442376 1.290624 0.48149508 2.2340534
0000f0 c4 4d 56 bf d7 68 1c be 39 d7 26 c0 24 18 64 3f
       -0.8371241 -0.15274368 -2.6068861 0.89099336
000100 bc a1 81 3f e4 af e8 3f 08 dc 43 bd 30 e3 af c0
       1.0127482 1.8178678 -0.04781726 -5.496483
000110 76 d9 bf be 36 db 4c 40 bb bf b0 bf d8 c1 70 3f
       -0.37470597 3.2008796 -1.3808511 0.9404578
000120 05 52 8d bf f3 b2 9c bf c9 e8 83 3d a1 f4 e0 bf
       -1.1040655 -1.2242111 0.064408846 -1.7574655
000130 79 63 d6 3e 85 2e 41 3f 1d 9f 72 bf c3 ad 3b be
       0.41872767 0.7546161 -0.9477404 -0.18328004
000140 4a 59 23 c0 9f 73 5e c0 cf 9f 71 bf ab ed 5d bf
       -2.5523248 -3.475807 -0.94384474 -0.8669078
000150 d6 a2 f1 be 1f 37 fa 3d 09 bf 30 3e 4d e2 35 bf
       -0.47194546 0.12217545 0.17260374 -0.7104843
000160 96 bd b2 3e 2b a2 4f bd 2e 67 9f bf 79 28 20 bf
       0.34910268 -0.050691765 -1.2453363 -0.62561756
000170 cd cc 26 3f e4 19 67 bf 9b 32 2c c0 af e5 7b 3d
       0.6515625 -0.9027388 -2.6905887 0.06149834
000180 61 4c b1 be d5 3e a3 bf 40 8a 45 40 d6 2f b2 3f
       -0.34628585 -1.275355 3.086563 1.3920848
000190 b3 2d d0 bf 08 13 15 40 32 d5 4d bf 8e 52 22 bf
       -1.6263946 2.3292866 -0.80403435 -0.6340722
0001a0 d5 ed b1 3f 3e 9c 04 bf 87 2a 80 3f ba 15 a2 be
       1.3900706 -0.51800907 1.0012978 -0.316572
0001b0 25 16 03 3f 59 17 90 be de 72 82 3e 11 80 e7 3f
       0.51205665 -0.28142813 0.25478262 1.8085958
0001c0 68 c0 50 bf 50 7a 92 bf 1d fb 0f bf 30 e0 db 3d
       -0.8154359 -1.1443577 -0.56242543 0.1073612
0001d0 00 18 3d bf 47 a1 d9 bf 7a f0 82 bf 9c dc 0b bf
       -0.73864746 -1.7002343 -1.0229638 -0.546335
0001e0 97 81 2f 40 6f 16 25 c0 a3 cb 94 be de fc 95 bc
       2.7422845 -2.5794942 -0.29061612 -0.018309053
0001f0 04 ae ca 3e 6d cc 20 bf 12 74 98 bf ae fb 85 bf
       0.39585888 -0.6281193 -1.1910422 -1.0467432
000200 29 cc 8e c0 2d ae 1a 40 9f f8 c5 40 a6 5b e0 bf
       -4.462422 2.4168808 6.1865993 -1.7527969
000210 4a 8d 7f 3f c3 15 0e 40 34 21 94 bf 25 94 34 3f
       0.99824965 2.2200782 -1.1572633 0.7053855
000220 79 26 23 40 d8 22 1b c0 72 c9 1e bd 68 52 40 c0
       2.5492232 -2.4240017 -0.038766332 -3.0050297
000230 b3 ce ac 40 dd 6b e5 40 b5 78 3a bf a3 7b 8c 40
       5.400232 7.169417 -0.72840434 4.3900924
000240 b2 df 27 c0 23 64 a9 3f 9c c6 a6 3f 38 3a dc 3f
       -2.6230283 1.3233684 1.3029361 1.7205267
000250 03 0d d1 3c a9 fa 50 3e a3 01 c4 3f 3d 49 16 c0
       0.0255189 0.2040812 1.5313 -2.34822
000260 39 0b 65 c0 33 c6 93 bf aa af 14 c0 c1 d7 7d 3f
       -3.57881 -1.1544861 -2.3232217 0.9915734
000270 52 f5 7d 3f cc b3 f7 be a7 3e 65 40 5b 26 c5 bf
       0.99202454 -0.48379362 3.581949 -1.540233
000280 50 3b 1a c0 4f a8 93 3f 7c b0 72 40 96 17 36 40
       -2.4098701 1.1535739 3.7920218 2.8451896
000290 46 f5 f6 3f 96 aa 5a 40 cf d7 93 3e 2b 9e 53 bf
       1.9293602 3.4166617 0.28875586 -0.8266322
0002a0 d8 6b 18 40 d9 b2 43 bf fe 2a 31 3f 60 7b aa bf
       2.3815823 -0.76444775 0.69206226 -1.3318901
0002b0 86 0f 84 40 fb d5 fa 3f a8 30 94 3f 4a f0 8d 40
       4.126895 1.9596552 1.1577349 4.435582
0002c0 89 03 84 3f cb 4d 6a 3f 65 27 1c 40 4c b5 09 40
       1.0313579 0.9152495 2.4399045 2.1516905
0002d0 18 71 11 3f 82 0f 24 3f 93 09 9e bd 83 1a 73 bf
       0.5681319 0.64086163 -0.0771667 -0.9496233
0002e0 c9 91 29 c0 9d b0 45 c0 a5 d8 ec bf 93 45 d2 3f
       -2.649523 -3.0889046 -1.8503615 1.6427482
0002f0 be ca c1 3f 39 de d1 be 17 8b a9 40 c1 4c d0 bf
       1.5139997 -0.40989855 5.2982287 -1.6273423
000300 50 a1 bc 3e c7 03 d6 3e 99 08 98 3d 9e 82 ca be
       0.36841822 0.41799757 0.07423515 -0.39552778
000310 9b 5f 1b 40 a2 39 e0 bf 46 6e 2c 3e b7 70 22 3f
       2.4277103 -1.7517588 0.16838941 0.6345324
000320 01 bb 3f 3f 7e a8 e6 3e f0 b2 c8 3e 7c 6d de 3f
       0.7489472 0.45050424 0.39199018 1.7377162
000330 21 3b 1d 40 95 60 d1 3f 4c 07 a9 bb 5c 24 96 3f
       2.456734 1.63576 -0.0051583406 1.1729846
000340 11 da c3 bf ac c2 23 bf ce 35 c9 bf 09 1f 88 3d
       -1.5300924 -0.6396892 -1.5719545 0.066465445
000350 31 86 b1 bf 42 1f 3b be d6 18 89 3f 2e e7 fd 3e
       -1.3869077 -0.18273643 1.0710704 0.4959044
000360 b7 d1 4b bf e3 4e 2b 3f 92 fb a2 3e aa 6a f5 3f
       -0.79616874 0.66917247 0.31832558 1.9173176
000370 5f 19 d0 3e e9 01 c0 bd 0e 4e 29 c0 25 9f 15 3d
       0.40644357 -0.09375364 -2.645389 0.036528725
000380 9e de 05 3e 92 79 f3 bd 4a 03 b5 3f 69 11 0a 40
       0.13073203 -0.11888422 1.4141629 2.1573126
000390 8e fa 33 40 bc 18 4d c0 56 db 87 be 12 22 13 3f
       2.8121676 -3.2046347 -0.26534528 0.5747386
0003a0 9e f7 92 3f 4b 6d 47 3f fd 82 b9 3e 20 93 a4 3f
       1.1481817 0.7790114 0.3623275 1.2857399
0003b0 63 1f 07 40 51 6d 12 40 8f 16 1d 3f ff 60 24 40
       2.1112907 2.2879221 0.61362547 2.5684202
0003c0 1e 0d a5 bf a6 87 8f be 7c c5 16 c0 cc 2c af bf
       -1.2894628 -0.2803318 -2.3558035 -1.3685546
0003d0 ae 12 7d bf 01 81 0e bf d8 c4 81 3d 0d a5 56 3e
       -0.9885663 -0.55665594 0.06336373 0.209614
0003e0 b3 2b da 3d a2 c8 f1 3f 46 60 27 3d 5f 28 aa 3f
       0.10652866 1.8889353 0.040863298 1.329357
0003f0 61 f9 95 bd 49 cf 27 bd 7c fd b6 bf e1 2c d2 3e
       -0.07322956 -0.040969167 -1.4296107 0.41049865

encoder.conv1.v.bias f4 [16]
000000 f3 9b a6 3f 22 f5 56 40 4d d7 6a 40 a6 bd 9d 3e
       1.3016342 3.3587117 3.669391 0.30808753
000010 ee fb 86 3a bc ab 6f 3f 0e fc a1 bf 96 32 e9 bc
       0.001029847 0.9362142 -1.2655046 -0.028466504
000020 df 43 ab 3f df 10 5a bf 70 d5 b0 3f a6 aa ec 3e
       1.3380088 -0.85181993 1.3815136 0.46223944
000030 29 5d 5f 40 a3 9c b3 3f e7 8e 61 3f 95 ee 74 3f
       3.490061 1.4032177 0.88108677 0.9567655
