trained_model/model_epoch349.chrom1.pkl (torch, 41775 bytes, 18 tensors)

encoder.conv0.q.weight f4 [32, 28]
0	0xbd98192b	-0.074266754
1	0x3d7c414d	0.061585713
2	0x3d5ee19a	0.05441437
3	0x3e9cfeef	0.3066325
4	0xbb03630f	-0.0020048057
5	0xbf610e3b	-0.8791234
6	0xbd49e8b6	-0.049294196
7	0x3c14a96a	0.009073595
8	0x38169ce9	3.590892e-05
9	0x3e8ce094	0.2751509
10	0xbdc82ed4	-0.09774557
11	0x3f55de1f	0.83542055
12	0xbe44fdf4	-0.192375
13	0x3dbca4f7	0.09211152
14	0xbeae5fe6	-0.3405754
15	0x3f262a7b	0.6490857
16	0x3f659541	0.8968087
17	0x3e52d770	0.20589995
18	0x3d23a953	0.039956402
19	0xbf3bb695	-0.73325473
20	0xbf45dff3	-0.77294844
21	0xbdabfb4b	-0.0839754
22	0x3c807119	0.01567893
23	0x3ed015bb	0.4064158
24	0xbff50e94	-1.9145074
25	0x3fb100bc	1.3828349
26	0x3f078e66	0.5295166
27	0xbf1ac6a1	-0.60459334
28	0xbe29f66e	-0.16597912
29	0xbd321d1b	-0.04348479
30	0xbe82b439	-0.25528124
31	0xbe11083a	-0.14163294
32	0xbcd98bfa	-0.026556004
33	0x3d39093e	0.04517483
34	0xbe670adb	-0.22562735
35	0x3bc686aa	0.0060585337
36	0xbc62de2f	-0.013846918
37	0xbe71a8c6	-0.23599538
38	0x3e9b4b0c	0.30330694
39	0xbd3ec11e	-0.04657089
40	0x3d535c6a	0.051601805
41	0xbe6242eb	-0.2209584
42	0x413101a9	11.062905
43	0x410fe25f	8.992766
44	0xbe01c016	-0.12670931
45	0xbe1cd029	-0.15313782
46	0xbd277cba	-0.040890433
47	0x3da44c90	0.08022416
48	0xbf6ae025	-0.9174827
49	0x3dd57b45	0.104239024
50	0x3c9f5654	0.019450344
51	0xbf0e4fcd	-0.55590516
52	0xbfbe564b	-1.4870085
53	0x3f964832	1.1740782
54	0x3eb96afb	0.36214432
55	0xbf181d0f	-0.5941934
56	0xbeaa9f57	-0.33324692
57	0xbc14b234	-0.00907569
58	0x3f637861	0.8885556
59	0x3ea956d2	0.3307405
60	0x3c2501db	0.010071243
61	0xbf72f488	-0.94904375
62	0x3f6f7c06	0.9354862
63	0x3f0c97c0	0.5491905
64	0x3d7a1ef3	0.06106467
65	0xbf80d834	-1.006598
66	0x3f15a54e	0.5845536
67	0x3fb75b4b	1.4324735
68	0x3f8e1e2e	1.110296
69	0x3fc75274	1.5572038
70	0xc219b0a1	-38.42249
71	0xc23dfa3a	-47.49436
72	0x4098fecc	4.781103
73	0xbcd46603	-0.02592755
74	0x3a2b767f	0.00065407896
75	0xbe9c9fa7	-0.30590555
76	0xc01912d4	-2.3917742
77	0xbe1825d8	-0.14858186
78	0x3ca55faa	0.020187218
79	0xbefc5ace	-0.49288028
80	0x3fc198bf	1.512474
81	0x3f3306ed	0.6993244
82	0xbed4879b	-0.4150971
83	0x40022d02	2.033997
84	0x3f5a8f9f	0.853754
85	0x3f481bba	0.7816731
86	0xc054efbb	-3.327132
87	0x3f7cec89	0.98798424
88	0xbe7fb125	-0.24969919
89	0x3fe7ef26	1.8119857
90	0xc0644496	-3.5666862
91	0x3fe9f3ae	1.827749
92	0xbe902f15	-0.2816092
93	0x4017d1a0	2.3721695
94	0xc0136bc2	-2.303452
95	0xbff92875	-1.9465472
96	0xbff6e6d9	-1.9289199
97	0xc03b7b08	-2.9293842
98	0xc21d5e15	-39.341877
99	0xc2358040	-45.375244
100	0xbfcbc95a	-1.5920823
101	0x3f092205	0.53567535
102	0xbe4be630	-0.19912028
103	0x3f881c70	1.0633678
104	0x3fe24934	1.767859
105	0x3fb82d2d	1.4388787
106	0xbe1e9aab	-0.15488689
107	0x3fbfffa9	1.4999896
108	0xbf34f5f0	-0.7068777
109	0x400e8464	2.2268305
110	0xbf11bcee	-0.5692891
111	0xbf8f94b5	-1.1217257
112	0x3d265f03	0.040617954
113	0x3dc7b4fd	0.09751318
114	0x3f6a239a	0.91460574
115	0xbe91d2ad	-0.28481045
116	0x3d0ea0a5	0.03482117
117	0xbde0ce21	-0.10976816
118	0x3ea2c75c	0.31792724
119	0x3e4fb79a	0.20284882
120	0xbd96b1f6	-0.07358162
121	0xbea773a2	-0.32705408
122	0xbf315bfb	-0.69280976
123	0x3e98fde3	0.298812
124	0x3f56251a	0.8365036
125	0x400c9f10	2.1972084
126	0x3f09e1fc	0.5386045
127	0x3f94ca99	1.1624328
128	0xbe6600ac	-0.22461194
129	0xbe51870f	-0.20461677
130	0x3d1f6fc7	0.03892496
131	0xbd9dad99	-0.07699127
132	0xbeef2503	-0.46707925
133	0x3e9d46cb	0.30718073
134	0xbc81e957	-0.015858335
135	0xbe913dd3	-0.2836748
136	0xbf24ec54	-0.6442311
137	0xbf87d69e	-1.0612371
138	0xbf1b271e	-0.60606563
139	0x3ff97567	1.9488953
140	0x3f2a3ae1	0.6649609
141	0x3f500605	0.81259185
142	0x3ee46bbd	0.44613448
143	0x3e8d8bbb	0.27645668
144	0x3fcf0855	1.6174418
145	0x3f48ae69	0.7839113
146	0x3f27b729	0.65513855
147	0xbe087922	-0.13327459
148	0x3cd65431	0.026163192
149	0x3e87b5df	0.26505944
150	0xbf6151c3	-0.88015383
151	0x3fb395a2	1.4030039
152	0x3e8b66d1	0.2722688
153	0x3f5bd549	0.8587232
154	0xc172ed7c	-15.18298
155	0xc16be6d4	-14.7438545
156	0xbf4030c0	-0.75074387
157	0x3e2b1ec7	0.1671096
158	0xbe69102a	-0.22760072
159	0x3eeb4ddb	0.45957837
160	0xc0038582	-2.0550237
161	0x3f3fc643	0.749119
162	0x3d1ce2de	0.038302295
163	0xbefdbdb7	-0.49558803
164	0x40a70e37	5.220485
165	0xc04b0156	-3.1719565
166	0x3fef62f1	1.870207
167	0xbf28b720	-0.65904427
168	0xbe806e41	-0.25084117
169	0x3d60378d	0.054740477
170	0xbfc7d40a	-1.5611584
171	0x3e1bf739	0.15231027
172	0xbbae1dd9	-0.0053136167
173	0xbe7581f5	-0.23975356
174	0xbfc89f00	-1.5673523
175	0xbe08dc26	-0.1336523
176	0x3c964ba3	0.018346613
177	0xbdc645de	-0.09681295
178	0x3fa8b160	1.317913
179	0xbe691d67	-0.22765122
180	0xbf576fdd	-0.84155065
181	0xc00eed04	-2.2332163
182	0xc0df989a	-6.987378
183	0xc1267c5e	-10.405363
184	0x400ae4ec	2.1702223
185	0x3d52af25	0.051436562
186	0xb9e93e93	-0.00044487845
187	0xbdc7b619	-0.09751529
188	0xbf9cba01	-1.2244264
189	0xbbb63ce8	-0.00556146
190	0xbc18ac3d	-0.009318409
191	0x3e37febc	0.17968267
192	0x3fa4cdac	1.2875266
193	0xbf6cb28c	-0.9245994
194	0x3f13f257	0.57791656
195	0x3e9165b2	0.283979
196	0x3ce5364d	0.027979994
197	0xbd1d944d	-0.03847151
198	0x3d84dc36	0.064873144
199	0xbd14379b	-0.036185842
200	0x3b72fab3	0.0037075698
201	0xbd805cdd	-0.06267712
202	0xbe819b80	-0.2531395
203	0xbd223b4e	-0.03960734
204	0xbb69b742	-0.0035662209
205	0x3c4089b7	0.011751584
206	0x3e4fc542	0.20290092
207	0xbe095b65	-0.1341377
208	0x3d614463	0.05499686
209	0xbdc4aa5d	-0.09602807
210	0xc292ecc2	-73.46242
211	0xc28f2bcf	-71.58556
212	0x3dc47ed5	0.09594504
213	0xbd3987d6	-0.04529556
214	0xbba6afa6	-0.005086857
215	0xbdaa5bec	-0.08318314
216	0xbededac0	-0.43526268
217	0xbce74385	-0.028230438
218	0xb993965f	-0.0002815006
219	0x3d4aece8	0.049542338
220	0x3effad78	0.49937034
221	0xbe03a1e9	-0.12854733
222	0x3e4f7b52	0.20261887
223	0xbebf764f	-0.3739495
224	0x3f618858	0.8809867
225	0x3f233e9b	0.63767403
226	0x3f1d97b7	0.61559623
227	0x3ec38e7b	0.3819464
228	0xbeee6c08	-0.46566796
229	0xbf5741a3	-0.8408453
230	0x3eee07b4	0.46490252
231	0xbfa371e8	-1.2769136
232	0x3f15e4cb	0.58552235
233	0xbf94fa67	-1.1638917
234	0x3fe62efd	1.798309
235	0x3d87cd0b	0.06630906
236	0x3f80aada	1.005214
237	0x3f47113d	0.7776068
238	0x3f904ee3	1.1274074
239	0x400402e3	2.0626762
240	0xc00b922d	-2.1807969
241	0x3fa14141	1.2598039
242	0xbddbd07e	-0.10733126
243	0xbf4653ff	-0.7747192
244	0x40237c63	2.554467
245	0xbf916c35	-1.1361147
246	0xbf697ece	-0.91209114
247	0xc0014e13	-2.0203903
248	0xbf79b62e	-0.9754361
249	0x40eda3dd	7.426253
250	0xbf7160ff	-0.9428863
251	0x3fee88f9	1.8635551
252	0x3f8d56fc	1.104217
253	0x3f8c7922	1.0974467
254	0x3f5b716d	0.8571995
255	0xbf84e323	-1.0381817

encoder.conv0.q.bias f4 [32]
0	0xbea92bbb	-0.33041176
1	0x3f1c826c	0.6113651
2	0x3f54671d	0.8296984
3	0xc00fe441	-2.2483065
4	0xbfdb9109	-1.7153636
5	0xbeffcdb6	-0.49961632
6	0x3feb2c0d	1.8372818
7	0xbd2e78a0	-0.042595506
8	0x3f44041f	0.7656879
9	0xbe1793f8	-0.1480254
10	0x3f92d4d4	1.14712
11	0xbf8667ac	-1.0500388
12	0x3f8cafe9	1.0991184
13	0xbf4ccf8c	-0.8000419
14	0xbf12a3d4	-0.5728123
15	0xbe92b506	-0.28653735
16	0xbe41e3e1	-0.18934585
17	0xbfd6dfc8	-1.6787043
18	0x3fe54f8d	1.7914902
19	0xbfa9fb7d	-1.3279873
20	0xbf6ef7d5	-0.9334691
21	0x3f4162d5	0.7554143
22	0x3efa8b5e	0.48934454
23	0x3fdde8d8	1.7336683
24	0xbef6cca0	-0.4820299
25	0x3f1a732a	0.60331976
26	0xc0281121	-2.6260455
27	0x3fc26556	1.5187175
28	0x40304640	2.7542877
29	0xbe2f541e	-0.17121932
30	0xbe7af0fe	-0.24505994
31	0xbee8f3a5	-0.45498386

encoder.conv0.k.weight f4 [32, 28]
0	0x3d413a16	0.047174536
1	0x3de11b19	0.109914966
2	0xbd92e2ac	-0.071721405
3	0xbeb7479e	-0.35796827
4	0xbd288a9e	-0.04114782
5	0x3ea7803f	0.32715032
6	0x3e595a7c	0.21225923
7	0x3e5f30d5	0.21795972
8	0x3c680420	0.01416114
9	0xbe3c13eb	-0.18366973
10	0xbe7d8b53	-0.24760179
11	0x3f5fcf2e	0.87425506
12	0xbf0a94af	-0.54133123
13	0xbeaed181	-0.34144214
14	0xbfb3aaf7	-1.4036549
15	0xc0045fa6	-2.068338
16	0xbfe70fd7	-1.8051709
17	0xbed9a62e	-0.42509598
18	0xbbd6a160	-0.006549999
19	0x3eeef8a1	0.46674064
20	0x3fac5e63	1.3466305
21	0x3ea1b804	0.31585705
22	0x3c817693	0.01580361
23	0xbe876699	-0.26445463
24	0xbf01b4ad	-0.50666314
25	0x3f82915e	1.0200613
26	0x3f9d04bb	1.2267069
27	0xbfdc60d3	-1.7217048
28	0x3dca5df7	0.098812036
29	0xbdf113af	-0.117713325
30	0xbecb45d2	-0.39701706
31	0x3e48271c	0.19546169
32	0x3d21a4be	0.03946375
33	0xbde88196	-0.113528416
34	0xbed5dd08	-0.41770196
35	0x3d07cac2	0.03315235
36	0xbd4da365	-0.050204653
37	0x3e79ccf3	0.24394588
38	0x3e9fccb0	0.31210852
39	0xbeed276c	-0.4631914
40	0x3ea39c98	0.3195541
41	0xbe826612	-0.25468498
42	0x40b717b3	5.721643
43	0x40c2c654	6.08671
44	0xbf399405	-0.72491485
45	0x3e3117b3	0.17294197
46	0xbcea6fb5	-0.02861772
47	0xbe580ed3	-0.21099405
48	0x3f4091c7	0.7522244
49	0xbe013e2b	-0.12621371
50	0xbda2e371	-0.07953537
51	0x3eefb482	0.46817404
52	0xbe4960c8	-0.19665825
53	0x3f2589e9	0.6466356
54	0xbf4cd95e	-0.80019176
55	0xbe7655fb	-0.24056236
56	0xbd094ff5	-0.03352352
57	0x3d6fc84a	0.05854062
58	0xbc7f6075	-0.015586962
59	0xbd313883	-0.043266784
60	0x3b0a15e4	0.0021070177
61	0xbd3b7a56	-0.045770966
62	0xbe7196f5	-0.23592742
63	0x3cbb084e	0.022831108
64	0x3bb2e4bf	0.0054593976
65	0x3d0981ee	0.033571176
66	0x3da61b0e	0.08110629
67	0xbd055008	-0.032547027
68	0xbc328713	-0.010896462
69	0xbdd404dd	-0.1035249
70	0xc267e2a7	-57.97134
71	0xc2865ef8	-67.185486
72	0xbd21b4ef	-0.039479192
73	0x3cdcbcbe	0.026945468
74	0x3c410914	0.01178195
75	0xbd891ba6	-0.06694727
76	0xbe8626f5	-0.26201597
77	0x3d169b0d	0.03676896
78	0x3b343faa	0.0027503767
79	0xbd6ed4bd	-0.05830835
80	0x3e83a7ad	0.25713864
81	0xba91f808	-0.0011136541
82	0x3e44de91	0.19225527
83	0xbe81ae66	-0.25328368
84	0xbc302a20	-0.010752231
85	0xbccd887d	-0.025089497
86	0x3edd18e6	0.43183059
87	0xbc607288	-0.013699181
88	0xba4fbe7d	-0.00079248083
89	0xbd872841	-0.06599475
90	0x3e5b24eb	0.21400802
91	0xbad717ed	-0.0016410329
92	0x3c30b36d	0.010784966
93	0xbd5074c2	-0.0508926
94	0xbe81ab2c	-0.25325906
95	0x3e33b2e5	0.17548712
96	0x3e1f1669	0.15535893
97	0x3f1a9ca7	0.6039528
98	0xc2a65c52	-83.18031
99	0xc2b15d77	-88.68255
100	0x3e2befe9	0.16790737
101	0x3bc13cbc	0.0058971327
102	0x3ad79521	0.0016447642
103	0xbc992a48	-0.01869692
104	0xbe3fbb15	-0.1872371
105	0x38a96a3c	8.078336e-05
106	0x3c318e82	0.010837199
107	0xbc9025ab	-0.017596086
108	0xbe041461	-0.12898399
109	0x3da6bbb6	0.08141272
110	0xbd262e66	-0.040571593
111	0x3e878bad	0.26473752
112	0xbaac370a	-0.0013138962
113	0xbe2023ea	-0.156387
114	0x3f88f597	1.0699948
115	0x3d3a4608	0.045476943
116	0xbcd4ff09	-0.026000516
117	0x3f0dd494	0.55402493
118	0x3ee82ae5	0.45345226
119	0x3e64221c	0.22278637
120	0x3cbfc90a	0.023411293
121	0xbeb53f8c	-0.35400045
122	0xbe74b867	-0.23898469
123	0xbf0af595	-0.5428098
124	0x3e4ed1e0	0.20197248
125	0x3f2498bc	0.64295554
126	0xc1a4b415	-20.58793
127	0xc18fc975	-17.973368
128	0x3e77049d	0.24122854
129	0x3d087220	0.033311963
130	0xbd6d0d2e	-0.057873897
131	0x3efbc5a7	0.49174234
132	0xbecd9f0e	-0.40160412
133	0x3dfb6e0f	0.122768514
134	0xbc94967c	-0.018138163
135	0xbeb58777	-0.35454914
136	0xbf760942	-0.96107876
137	0xbea50512	-0.3223043
138	0xbf47dace	-0.78068244
139	0x3f28e312	0.6597148
140	0xbf2df469	-0.67951065
141	0xbf55efb8	-0.83568907
142	0xbfaa46fa	-1.330291
143	0xbf394a73	-0.72379225
144	0xbff25e31	-1.8934995
145	0xbfa291f6	-1.2700794
146	0xbf60848b	-0.87702245
147	0xbf1bee84	-0.6091082
148	0xbe329895	-0.17441018
149	0xbd875763	-0.066084646
150	0xbf472eb5	-0.77805644
151	0xbf9d42ce	-1.2286012
152	0xbf8a1e8c	-1.0790572
153	0xbfb5d394	-1.4205194
154	0x3feb3927	1.8376817
155	0x3fa91d4a	1.3212063
156	0xbe5c3ad6	-0.21506819
157	0xbea19812	-0.31561333
158	0x3e8df586	0.27726382
159	0xbee003a6	-0.43752784
160	0xbfa2363c	-1.2672801
161	0x3fcf4249	1.6192104
162	0xbe816987	-0.25275823
163	0xbd9beea5	-0.07613877
164	0x400a2d2a	2.1590066
165	0xbec9d314	-0.39418852
166	0xbfc020d8	-1.5010023
167	0x3eefe6d4	0.46855795
168	0x3e2c63f0	0.16834998
169	0xbe2b708e	-0.16742155
170	0x3fcee7a6	1.6164443
171	0x3d866be7	0.065635495
172	0xbc97a357	-0.018510504
173	0xbe9c1926	-0.30487937
174	0x3fcaf072	1.5854628
175	0xbe95942d	-0.29214612
176	0xbc9ca4db	-0.019121578
177	0xbd39755c	-0.04527794
178	0xbf95b68e	-1.1696336
179	0x3e9ca9db	0.3059834
180	0x3f36aeff	0.7136077
181	0x4016405f	2.347679
182	0x408a6c4c	4.32572
183	0x40ce8527	6.453754
184	0x3ff56312	1.9170859
185	0x3d54497c	0.051827893
186	0x3b0f1b84	0.002183647
187	0xbeb675cb	-0.35636744
188	0xbd9e6004	-0.07733157
189	0xbd729928	-0.059228092
190	0xbc0f9def	-0.008765682
191	0x3e90974b	0.28240427
192	0x3ee88d4d	0.45420304
193	0xbf1addbd	-0.60494596
194	0x3fb56065	1.4170042
195	0x3fa3184b	1.2741789
196	0x3e965b7c	0.29366672
197	0x3eff8d64	0.4991256
198	0xc052945f	-3.2903059
199	0xbd484584	-0.04889442
200	0x3c9e4e6c	0.019324504
201	0x3f90b23c	1.1304393
202	0xc02bc41f	-2.6838453
203	0xbe89e30d	-0.26931038
204	0x3d9b8916	0.075945064
205	0x3fd242fb	1.6426691
206	0x3cfb3dce	0.03066912
207	0xbfccab36	-1.598975
208	0xbffd9e2e	-1.9813898
209	0xc02fa13b	-2.7442157
210	0x40c74013	6.2265716
211	0x40d63afc	6.6947002
212	0xc01f5280	-2.4894104
213	0xbe2bc02e	-0.1677253
214	0x3d42b43a	0.04753516
215	0x3f6b3024	0.9187033
216	0xc09aae77	-4.833797
217	0xbe146a01	-0.14493562
218	0x3d544528	0.051823765
219	0x3fbed6d8	1.4909315
220	0xbfd567a6	-1.6672256
221	0x3f250a11	0.64468485
222	0xc06f8808	-3.7426777
223	0xbfbda534	-1.4816041
224	0xbf4f3cee	-0.80952346
225	0xbf64f5c1	-0.8943749
226	0xbebc7bc9	-0.3681319
227	0x3e8a6bff	0.2703552
228	0x3e982a12	0.29719597
229	0x400a64a9	2.1623938
230	0xbf37160b	-0.7151801
231	0x3f8f0e7c	1.1176295
232	0xbd942422	-0.07233454
233	0x3f830ce2	1.0238307
234	0xbe82cabc	-0.255453
235	0xbff4ac84	-1.9115148
236	0xbfbbf9db	-1.4685625
237	0xbfa9a604	-1.3253789
238	0x40ef4de2	7.478257
239	0x40bfb54e	5.990882
240	0xc0a1acf3	-5.052362
241	0x3e90abad	0.28255978
242	0x3d5d3423	0.0540048
243	0x3f864372	1.0489333
244	0xc0c602f0	-6.1878586
245	0x3f13a239	0.5766941
246	0x401765b7	2.3655832
247	0x3fd5bda3	1.6698498
248	0x3ca1050e	0.01965573
249	0x405e9072	3.4775662
250	0xc0b97d5d	-5.796553
251	0xc0e180f1	-7.04699
252	0x3ea2c489	0.3179057
253	0xbd019725	-0.031638283
254	0xbd8be542	-0.06830837
255	0x3f4d2503	0.801346

encoder.conv0.k.bias f4 [32]
0	0xbd73b4a0	-0.05949843
1	0x3e9ec468	0.3100922
2	0x3d9bb7d3	0.07603421
3	0xbf9bfa97	-1.2185849
4	0xbf975b45	-1.1824728
5	0xbebba2a3	-0.3664752
6	0xbfc7bdb5	-1.5604769
7	0x3eafb59b	0.3431824
8	0xbe29c76e	-0.16579983
9	0x3f680807	0.9063725
10	0xbcfdf9d3	-0.031002915
11	0xbede393c	-0.4340304
12	0x3f9f0d53	1.2425941
13	0xbf50a16b	-0.81496304
14	0x3f341bf9	0.7035518
15	0x3fd33708	1.6501169
16	0x3f545331	0.8293944
17	0xbe61223c	-0.21985716
18	0xbe515aa1	-0.20444728
19	0xbfba0e5a	-1.453563
20	0x3efe5b9e	0.49679273
21	0xbf183b20	-0.5946522
22	0x3f1ed78f	0.62047666
23	0x3f217389	0.6306692
24	0x3f713151	0.94215876
25	0x3eac4a25	0.33650318
26	0x3fee6a73	1.8626236
27	0x3fc9e640	1.5773392
28	0x3fd29f69	1.6454898
29	0xbdffcb47	-0.12489944
30	0xbeec4136	-0.46143502
31	0xc0796a5b	-3.8971164

encoder.conv0.v.weight f4 [32, 28]
0	0x3e522c37	0.20524679
1	0x3c102966	0.008798933
2	0x3fcf155b	1.6178392
3	0x3df78232	0.1208538
4	0x3d00dfcd	0.031463433
5	0xbe8b5cb7	-0.27219173
6	0x3fa2d691	1.272173
7	0x3ed201f8	0.41017127
8	0x3d343452	0.04399521
9	0x3e38a756	0.18032584
10	0x3f328656	0.6973623
11	0xbe706e98	-0.23479688
12	0x3f4a0674	0.78916097
13	0x3f65c5d2	0.89754975
14	0x41470723	12.439242
15	0x418ecc63	17.849798
16	0x3f40e447	0.75348324
17	0x3e89e77e	0.26934427
18	0x3c8c9480	0.017160654
19	0xbcb84db7	-0.022497995
20	0xc01aa582	-2.4163518
21	0x3d21bd7c	0.039487347
22	0x3cc1dd94	0.023665227
23	0xbe663a7f	-0.22483252
24	0x3f202b42	0.62566006
25	0x3f9393b4	1.152945
26	0x3e374572	0.17897585
27	0x3d4399d0	0.04775411
28	0x3c9cbb08	0.019132152
29	0x3b83325a	0.004003805
30	0xbe31047c	-0.17286867
31	0xbea2acd9	-0.31772497
32	0xbd648f8e	-0.055800967
33	0xbe22da65	-0.15903623
34	0x3d886e8d	0.06661711
35	0xbe416f46	-0.18890104
36	0xbc460bba	-0.012087757
37	0xbeb44f80	-0.35216904
38	0xbed339bc	-0.41254985
39	0xbf016157	-0.50539154
40	0xbf296d68	-0.66182566
41	0xbecdeb4f	-0.4021859
42	0x414c4484	12.766727
43	0x40c652c2	6.1976023
44	0x4015aac9	2.338549
45	0xbe03ebff	-0.12882994
46	0xbc041091	-0.00806059
47	0xbd84ab29	-0.06477959
48	0xbeff9612	-0.49919182
49	0x3c46f421	0.012143166
50	0xbd3ca193	-0.046052527
51	0x3c255c63	0.0100928275
52	0xc03c6afe	-2.9440303
53	0xbf0a8367	-0.54106754
54	0x40682c64	3.6277094
55	0xbf9efa64	-1.2420163
56	0xbe673bb7	-0.22581373
57	0x3e6e9dda	0.23302403
58	0xc006a1d5	-2.1036274
59	0xbedeba66	-0.43501586
60	0x3cbfb4ce	0.023401644
61	0x3ed2ef00	0.41197968
62	0xc0097436	-2.147718
63	0xbcd167ae	-0.025562134
64	0xbd63a12b	-0.055573624
65	0x3f1101bd	0.5664328
66	0xbfb04d5e	-1.377361
67	0xc009281d	-2.1430733
68	0xbffd3330	-1.9781246
69	0xc02bdbdb	-2.685294
70	0x41bd6404	23.673836
71	0x41c6bc5b	24.84197
72	0xc0f50c41	-7.657746
73	0x3e7bf06b	0.24603431
74	0x3db77134	0.08957139
75	0xbcdc7089	-0.02690913
76	0xbdece8ef	-0.11567866
77	0x3e9e6d6e	0.30942863
78	0x3d8fcb12	0.070211545
79	0x3e69259b	0.22768252
80	0x40302387	2.7521684
81	0xbfb6c70c	-1.4279494
82	0xc08ee3da	-4.465314
83	0xbfd0b519	-1.6305267
84	0xbd307579	-0.04308078
85	0xbd64ecb5	-0.055889804
86	0xbf7bda3a	-0.9837986
87	0x3d077377	0.0330691
88	0x3c868b6c	0.016423903
89	0x3cb59835	0.022167305
90	0xbf4dfede	-0.8046702
91	0xbda0b9e5	-0.078479566
92	0x3d188087	0.03723195
93	0xbd8255c4	-0.06364015
94	0xbe488307	-0.19581233
95	0xbdb487ce	-0.08814965
96	0x3e161ce4	0.14659458
97	0xbefda945	-0.49543205
98	0xc244ba4c	-49.18193
99	0xc24ef64e	-51.740532
100	0x3f4223f2	0.758361
101	0x3cc34a4b	0.023839137
102	0xb9c43feb	-0.00037431656
103	0xbc4959b2	-0.012289451
104	0xc0099728	-2.1498508
105	0xbdb8de18	-0.09026736
106	0x3c9b7c39	0.018980132
107	0xbd6f7cd6	-0.058468662
108	0x3f15f208	0.58572435
109	0xbf2a806f	-0.66602224
110	0xbf54fba9	-0.831965
111	0xbf28c223	-0.6592123
112	0x3cfc88fb	0.030827036
113	0xbd25273f	-0.04032063
114	0x3fdcb07a	1.7241356
115	0x3d26d737	0.04073259
116	0xbc36ab9d	-0.011149314
117	0x3d0e1684	0.03468944
118	0x3fafc4f6	1.3731983
119	0xbd707d5b	-0.0587133
120	0xbc125dc5	-0.008933489
121	0x3db1bc68	0.08678514
122	0xbfa09c4b	-1.2547697
123	0x3f36f06b	0.714606
124	0x3f9cbcd6	1.2245128
125	0x401e1241	2.4698641
126	0xc0b789fe	-5.7355947
127	0xc005f45a	-2.093039
128	0x3fd53e7b	1.6659693
129	0x3bc0e729	0.0058869314
130	0x3a49719c	0.00076844706
131	0x3cc30854	0.023807682
132	0x3e6c166c	0.23055428
133	0xbd46f1b1	-0.04857034
134	0xbc81546f	-0.015787331
135	0x3dec79a0	0.11546636
136	0xbed863f4	-0.42263758
137	0x3eade47b	0.3396338
138	0x3e88033f	0.26564977
139	0x3f46d1b4	0.7766373
140	0x3e181f20	0.14855623
141	0x3deda099	0.11602897
142	0xbe612f49	-0.21990694
143	0xbf5b3b46	-0.8563732
144	0x3f4affbc	0.7929647
145	0x3fba4d82	1.4554904
146	0xbebbbd34	-0.36667788
147	0x3e91af49	0.28454044
148	0xbe836540	-0.25663185
149	0x3e5dace4	0.21647984
150	0x3c2a0b85	0.010378723
151	0x3e4dd71b	0.20101587
152	0x3d5dd364	0.054156676
153	0xbe9fb40d	-0.31192055
154	0xc0b04485	-5.508364
155	0xc0c9bdc6	-6.3044157
156	0x3fc39a56	1.5281475
157	0x3f0db8db	0.5536019
158	0xbd376722	-0.04477609
159	0x3ecc139c	0.3985871
160	0xbf6bd60e	-0.92123497
161	0x3ee397be	0.44451708
162	0x3f18e425	0.5972312
163	0xbf8d98d4	-1.1062264
164	0xbe5dc7fa	-0.21658316
165	0xc023f377	-2.561735
166	0x3ec5a3dd	0.3860158
167	0xbf6a1151	-0.9143267
168	0xbf2fc70c	-0.68663096
169	0xbeedce9c	-0.46446693
170	0xbfa03f99	-1.2519408
171	0x3f4d20ca	0.8012816
172	0x3d6a6caf	0.057232555
173	0xc0115212	-2.2706342
174	0xbfb091ec	-1.3794532
175	0xbf29c05c	-0.6630914
176	0xbdb996ee	-0.09061991
177	0xbfe6e768	-1.803937
178	0xc0200f9d	-2.500953
179	0xc014ed89	-2.326998
180	0xc002da9b	-2.0445926
181	0xbfc3c1b5	-1.529349
182	0x3e67f18e	0.2265074
183	0xbf5511b6	-0.8323015
184	0xc0b1140a	-5.533696
185	0x3ecad7b4	0.39617693
186	0x3d4b96fb	0.049704533
187	0xbf7c979b	-0.9866883
188	0x3fc6476d	1.5490547
189	0xbf00a26c	-0.50247836
190	0xbdb94381	-0.090460785
191	0xbf548902	-0.8302156
192	0x40df1d58	6.972332
193	0xbfebde06	-1.8427131
194	0xbfe7e3c0	-1.8116379
195	0xc0bba3bd	-5.8637376
196	0x3e94509a	0.28967744
197	0xbe909630	-0.28239584
198	0x3f342a54	0.7037709
199	0x3d19aae8	0.037516505
200	0x3aa5ec74	0.001265897
201	0x3d1ef3d3	0.038806748
202	0x3f886b21	1.0657693
203	0x3bd467de	0.0064821085
204	0x3acc282c	0.0015575937
205	0x3d5b13cc	0.053485677
206	0xbf26b5d4	-0.651212
207	0x3e365fcb	0.1780998
208	0x3f65fcbe	0.8983878
209	0x3fd2d9bb	1.6472696
210	0xc0358201	-2.8360598
211	0x4081e3b7	4.059047
212	0xbf054417	-0.5205702
213	0x3c077e29	0.008269825
214	0xbb78535c	-0.0037891483
215	0xbc9193db	-0.017770698
216	0xbdb97408	-0.09055334
217	0x3c6fdeaf	0.014640494
218	0xbc48639c	-0.01223078
219	0x3bbb57f8	0.005717274
220	0xbe6b894d	-0.23001595
221	0x3f0d21cf	0.5512971
222	0xbec27428	-0.37979245
223	0x3eb558dd	0.3541936
224	0xbe54cb97	-0.20780788
225	0xbe526ed5	-0.20550092
226	0x3f07e568	0.5308442
227	0x3e870f42	0.26378828
228	0x3d93ee48	0.07223183
229	0xbe528f23	-0.20562415
230	0x3f367c60	0.7128353
231	0x3ec156f1	0.37761644
232	0xbc8c5a5d	-0.017132932
233	0x3eb990f2	0.36243397
234	0xbf91815b	-1.1367601
235	0x3e36004a	0.17773548
236	0xbe3c3476	-0.18379387
237	0x3ed94944	0.4243871
238	0x40a94acd	5.290381
239	0xbfaad85a	-1.3347275
240	0x3e7331cf	0.23749469
241	0x3e8f6d2e	0.28012985
242	0x3d80199c	0.062548846
243	0xbed0934d	-0.40737382
244	0x4101a607	8.103034
245	0x3e221d34	0.15831453
246	0xbe11f3a0	-0.14253092
247	0x3e69d37c	0.22834581
248	0xc02346ac	-2.5511885
249	0x3e97a243	0.29615983
250	0x40171842	2.3608556
251	0x3f55ea34	0.8356049
252	0xbeac4619	-0.3364723
253	0xbe85040f	-0.2597966
254	0xbf17ef67	-0.59349674
255	0x3f110a0f	0.56655973

encoder.conv0.v.bias f4 [32]
0	0xbe0a860f	-0.13527702
1	0xbf7dca72	-0.9913703
2	0x3eb82c7b	0.35971436
3	0xbf277e03	-0.65426654
4	0xbfed26ef	-1.8527507
5	0xbe879d9e	-0.2648744
6	0xc02819cf	-2.6265752
7	0xbfb28719	-1.3947479
8	0xbf6c088f	-0.9220056
9	0x3e721809	0.23641981
10	0xbe47ae2c	-0.19500035
11	0xc0005d6c	-2.005702
12	0xbf9d5a49	-1.2293178
13	0xbfd0dc06	-1.6317146
14	0x3f35ae52	0.70969117
15	0xbeb6d3ae	-0.35708374
16	0x3fbd45d3	1.4786934
17	0x3cafecfb	0.021475306
18	0xbfc38bad	-1.5277001
19	0x3ef67cfe	0.48142236
20	0x3ce44cc5	0.027868638
21	0x3f1fd847	0.6243939
22	0xbfb1335b	-1.3843797
23	0xc01254fd	-2.2864373
24	0x40018e5b	2.0243137
25	0x3f963be7	1.1737031
26	0xbe5e3a6b	-0.21701972
27	0x4087c238	4.2424583
28	0xbf0f5a17	-0.5599684
29	0xbfb2d41b	-1.397098
30	0xbf256225	-0.6460288
31	0x3e99d3e0	0.3004446

encoder.conv1.q.weight f4 [16, 64]
0	0x403cc9e7	2.9498231
1	0xbf11c9ad	-0.5694836
2	0x3fe7f322	1.8121073
3	0x3f82d09c	1.0219913
4	0xbe2f33b8	-0.17109573
5	0x3fbbf811	1.4685079
6	0x40d36178	6.605648
7	0xbfaeaf8d	-1.3647324
8	0x3f72e40b	0.94879216
9	0x3f671369	0.9026399
10	0xbe488fe9	-0.19586147
11	0xbe8aea95	-0.27132097
12	0x3f435436	0.7630037
13	0x3f129843	0.5726358
14	0x3fbb19a4	1.46172
15	0x3f6f9583	0.9358751
16	0x400ea170	2.2286034
17	0x403ec4aa	2.9807534
18	0xbd9f6f77	-0.07784932
19	0xbebd0e72	-0.36925083
20	0xbeb5c255	-0.35499826
21	0x400539cc	2.0816526
22	0x3fd80664	1.687695
23	0x3ec90446	0.39261073
24	0x3fa35be9	1.2762424
25	0xbf92ead1	-1.147791
26	0x4041c14b	3.0274227
27	0x3bf5bb43	0.00749913
28	0xbeaac3d2	-0.33352524
29	0x3e0e0efb	0.13872902
30	0x4010d771	2.2631495
31	0x3d150eb2	0.036390968
32	0x40236167	2.55282
33	0x40035f5f	2.052696
34	0x40348d28	2.8211155
35	0x40666004	3.5996103
36	0x3e03357a	0.12813368
37	0x3e750b3e	0.2393007
38	0xbd65c330	-0.05609435
39	0xc021311c	-2.5186224
40	0x3e93461b	0.28764424
41	0x4001a1a7	2.0254915
42	0xbe96ba58	-0.29439044
43	0xbf100918	-0.56263876
44	0x3f26de14	0.65182614
45	0x3ec60e64	0.38682854
46	0x3f7034e0	0.9383068
47	0x3ef689e7	0.48152086
48	0x3f561bf3	0.836364
49	0x3ff9bc75	1.9510638
50	0x3de01395	0.10941235
51	0xbdf2fed0	-0.11865008
52	0x3df4c528	0.11951667
53	0x3e61ad4d	0.22038765
54	0x40220c1b	2.5319889
55	0x3ecb9103	0.39759073
56	0x3f5b0521	0.855547
57	0xbf9632c5	-1.1734244
58	0xbf8e266d	-1.1105477
59	0x3eafb53e	0.34317964
60	0xbee36586	-0.44413394
61	0x3dfd0138	0.12353748
62	0x40138ae7	2.305353
63	0xbfb34aa8	-1.4007158
64	0x3fcec3ea	1.6153538
65	0x3d6be443	0.057590734
66	0xc1934e4c	-18.41323
67	0x400634d5	2.0969746
68	0x3f515c3a	0.8178135
69	0x400bda9f	2.1852186
70	0xc0af847b	-5.484922
71	0xbfe70417	-1.8048123
72	0xbe5a8f68	-0.21343768
73	0x3fa35c79	1.2762595
74	0xbfb116b4	-1.3835053
75	0x3d5eec62	0.05442465
76	0x3f8993ca	1.0748227
77	0xbe684b7e	-0.22685048
78	0xbddd8cd2	-0.10817875
79	0xbf081318	-0.53154135
80	0x3eb32f6a	0.34997112
81	0x406e5305	3.723817
82	0xbf60d7f8	-0.8782954
83	0x3f91ea57	1.139964
84	0x3f6f9312	0.93583786
85	0xbf8ea9b8	-1.1145544
86	0xc00fa116	-2.244207
87	0xbe672894	-0.22574073
88	0x40a24452	5.07084
89	0xbe2a2c9b	-0.16618578
90	0x3e960a35	0.29304662
91	0x3f134369	0.57524735
92	0x3f0bbec4	0.5458796
93	0x3ee8412c	0.45362222
94	0x3f8687b5	1.0510164
95	0x3f95ba8f	1.1697558
96	0x3ee4c7ee	0.44683784
97	0xbd006265	-0.031343836
98	0x3dcd3ff3	0.10021963
99	0xbf8b7b4a	-1.0897
100	0xbd7d3a51	-0.061823193
101	0xbf97f474	-1.1871476
102	0x409425ba	4.6296053
103	0x3e537dfa	0.20653525
104	0x3f44d909	0.7689367
105	0x3f93edde	1.1556966
106	0xbfa826b8	-1.3136816
107	0xbe36b317	-0.17841755
108	0x3e5f13e0	0.21784925
109	0xbf22090b	-0.6329505
110	0xbf108c97	-0.56464523
111	0xbfb4e604	-1.4132695
112	0x3f137dd7	0.5761389
113	0x3f0ac880	0.5421219
114	0xbf2ba1e6	-0.6704391
115	0x3f2a3380	0.6648483
116	0x3fc8497d	1.5647427
117	0x3ff6392c	1.9236197
118	0x3fba4ffe	1.4555662
119	0x3e2e1e5e	0.17003772
120	0x40036286	2.0528884
121	0x3d242a90	0.040079653
122	0x3fd22762	1.6418269
123	0x3ec778ce	0.38959354
124	0x3ee9f678	0.45695853
125	0x3deeaf7b	0.11654564
126	0x3e96614f	0.29371116
127	0xbf17ea6f	-0.5934209
128	0x40137d11	2.3045084
129	0x4089fb90	4.3119583
130	0x3da282dc	0.07935116
131	0x3ec11c55	0.37716928
132	0x40167006	2.3505874
133	0x3fd061a3	1.6279796
134	0x3f33d371	0.7024451
135	0xc029e414	-2.6545458
136	0x3fb9aff8	1.4506826
137	0xbf698487	-0.91217846
138	0x3f08265c	0.5318353
139	0xbf05e8ab	-0.5230815
140	0xbfb12a7b	-1.3841089
141	0xc002e5ff	-2.0452878
142	0x3faf1307	1.3677682
143	0x3fa68dd9	1.3012038
144	0xbf2bb641	-0.6707497
145	0x3e937a13	0.28804073
146	0xbf04a10d	-0.51808244
147	0x3e869a98	0.2628982
148	0x40058cba	2.0867143
149	0x3eb65818	0.35614085
150	0x403b519e	2.9268565
151	0xbe4f9fe7	-0.20275842
152	0x3e98f1c1	0.29871944
153	0x3f1570f5	0.58375484
154	0xbe9df3be	-0.30850023
155	0xbea89003	-0.32922372
156	0x3e0937cc	0.13400191
157	0xbf183bd3	-0.59466285
158	0x3fbe3a06	1.4861457
159	0xbe86e1b3	-0.2634407
160	0x3f9cbd78	1.2245321
161	0x3fddcb36	1.732764
162	0xbf843baa	-1.0330708
163	0x4057fa5a	3.3746552
164	0x40156c9e	2.3347545
165	0x3f868b8b	1.0511335
166	0xbea50eca	-0.32237846
167	0xc027be9e	-2.6210093
168	0x3f8ec6eb	1.1154455
169	0x3f80ba58	1.0056868
170	0x3fabec34	1.3431458
171	0xbf870ff8	-1.0551748
172	0xbf2b3905	-0.6688388
173	0xc01c8d34	-2.4461184
174	0x3f87607e	1.0576322
175	0x3f3799f4	0.7171929
176	0xbf279b22	-0.6547109
177	0x3f37a24c	0.7173202
178	0xbf1d4864	-0.61438584
179	0x3e878f23	0.26476392
180	0x3f7b17c1	0.9808312
181	0xc0538646	-3.3050704
182	0x4027b4fc	2.6204214
183	0xbed26f69	-0.41100624
184	0x3f48f595	0.7849973
185	0x3edf6adf	0.43636224
186	0xbd9e94e6	-0.07743244
187	0x3e450455	0.19239934
188	0x3f087377	0.53301185
189	0x3e9fd8b1	0.3122001
190	0x402b0877	2.6723917
191	0xbf88b9fa	-1.0681756
192	0xbfafcb0f	-1.3733844
193	0xbfe8b103	-1.817902
194	0xbd903180	-0.070406914
195	0xc000d3f9	-2.0129378
196	0xc00067e8	-2.006342
197	0x3f80bf6a	1.0058415
198	0xbe6b974c	-0.23006934
199	0x3fe0d742	1.7565691
200	0x3f51de34	0.8197968
201	0xbf4fcbcb	-0.8117034
202	0x3f3763d7	0.7163672
203	0x3ef77781	0.48333362
204	0xbc88a9cf	-0.016682534
205	0x3f1840e8	0.5947404
206	0xbe654019	-0.22387733
207	0x3f9ffc6a	1.2498906
208	0xbee37533	-0.44425353
209	0x3eccd48d	0.40005913
210	0x3fa97ef6	1.324187
211	0x3e7a7262	0.24457696
212	0xbf2569cc	-0.6461456
213	0xbf6eb258	-0.9324088
214	0x3f8d7781	1.1052095
215	0xbdc151d7	-0.09439438
216	0x3f942d8d	1.1576401
217	0xbff5f8e4	-1.921658
218	0x3da83972	0.08214082
219	0xbf405f3b	-0.7514531
220	0x3f9882b8	1.1914892
221	0xbf5512f1	-0.8323203
222	0xbff8cd46	-1.9437644
223	0xbf6f37f1	-0.93444735
224	0xbf90524c	-1.1275115
225	0xbf43dc0a	-0.7650763
226	0x4001f994	2.030858
227	0xc0206711	-2.5062907
228	0xc003a2b5	-2.0568058
229	0x3ee57fbe	0.44824022
230	0x400b54db	2.1770542
231	0x3fe8c258	1.8184309
232	0x3ff72f4b	1.9311308
233	0x3ea38073	0.31933936
234	0x3fa4341a	1.28284
235	0xbeaf9542	-0.34293562
236	0x3edb3eb9	0.4282129
237	0x3f19cbcf	0.6007661
238	0xbf6b39f8	-0.9188533
239	0x3f0e10dc	0.55494475
240	0x3e82eca8	0.2557118
241	0xbeed1c61	-0.46310714
242	0x3f43b67d	0.7645033
243	0xbe27850f	-0.16359352
244	0xbf7f150a	-0.9964148
245	0xbfe74511	-1.8067952
246	0xbf24ee0d	-0.64425737
247	0xbee472c0	-0.44618797
248	0x403870bb	2.8818805
249	0xbfa40376	-1.2813556
250	0x3fd01069	1.6255008
251	0xbd95df4d	-0.07317982
252	0x3ff4b33a	1.9117196
253	0xbdb179bd	-0.08665798
254	0xc01e3483	-2.471955
255	0xbe4af184	-0.19818693

encoder.conv1.q.bias f4 [16]
0	0x3e1644e8	0.14674723
1	0x3f2cdc2a	0.67523444
2	0x3f5bf656	0.85922754
3	0x3fc5c56b	1.5450872
4	0x400c7bb4	2.1950502
5	0xc0407260	-3.006981
6	0xbeee14b6	-0.46500176
7	0xc056afb0	-3.354473
8	0x3fa692b5	1.3013521
9	0x3df72b2b	0.120687805
10	0x3f147574	0.5799172
11	0x3eb5be10	0.3549657
12	0x3f866f50	1.050272
13	0x402daf51	2.7138255
14	0xbf4a1f4e	-0.7895402
15	0x40149958	2.3218594

encoder.conv1.k.weight f4 [16, 64]
0	0x3f1589ba	0.5841328
1	0xc015f47b	-2.343047
2	0x41410163	12.062839
3	0x4020dd68	2.5135136
4	0xbf257690	-0.64634037
5	0x3f0104f5	0.5039819
6	0xbfdc5153	-1.7212318
7	0x3f50dabd	0.8158377
8	0xbe3b401d	-0.18286176
9	0x3f9b73e0	1.2144737
10	0x3db0f249	0.08639962
11	0xbf8a37b1	-1.0798246
12	0x3f8173a7	1.0113419
13	0xbc447937	-0.0119917905
14	0xbf2e2c2e	-0.6803616
15	0xbfee62e8	-1.8623934
16	0xbfa79328	-1.3091784
17	0xbfca0c83	-1.5785068
18	0x3e90df56	0.28295392
19	0x400b100f	2.1728551
20	0x3ef2aca4	0.4739734
21	0x3fb02a0d	1.3762833
22	0xbf98dd64	-1.1942563
23	0x3db3b6f2	0.087751284
24	0x3f2c6b67	0.6735138
25	0x3dc15154	0.0943934
26	0xc03d4bc6	-2.9577498
27	0x3e53f6bc	0.2069959
28	0x3eef9d8d	0.4679989
29	0xbf854b86	-1.0413673
30	0x3d53e99a	0.05173645
31	0x3fbb368a	1.4626019
32	0xc0524dc4	-3.2859964
33	0x3fabca07	1.3421029
34	0xbf8fe92a	-1.1243031
35	0xbca67777	-0.020320637
36	0x3e00b7d4	0.12570125
37	0xbf07ea7c	-0.5309217
38	0x40327485	2.7883618
39	0xbe8e4751	-0.27788785
40	0x3f256262	0.64603245
41	0x3fdd12bb	1.7271341
42	0xbd88a7e6	-0.06672649
43	0xbebe5093	-0.37170848
44	0x3fb0f4bb	1.3824686
45	0x3f99b57b	1.2008508
46	0xbf8757bf	-1.0573653
47	0xbf294dfb	-0.66134614
48	0xbddb55d6	-0.10709731
49	0x3e121c31	0.14268567
50	0x3eaf85d2	0.34281784
51	0x3fbafede	1.4609029
52	0xbf463479	-0.77423817
53	0xbfc66d60	-1.5502129
54	0xbf9a0d53	-1.2035316
55	0x3df37e78	0.118893564
56	0x3fd07c91	1.6288015
57	0x3fca88b2	1.5822966
58	0xc032a527	-2.79133
59	0x3f31e8ec	0.69496036
60	0x3f2bd33f	0.6711921
61	0xbf4cdb2a	-0.8002192
62	0xbf149aa3	-0.58048457
63	0xbe438b14	-0.19096023
64	0xbf638022	-0.8886739
65	0xc03ffbe3	-2.999749
66	0xbe06aac0	-0.13151073
67	0xc04e15ea	-3.2200875
68	0xbffc535a	-1.9712937
69	0xbf429803	-0.760132
70	0x3f30ffa5	0.6914008
71	0x407333e9	3.8000433
72	0x3ff1d82d	1.8894097
73	0x3e323667	0.17403565
74	0xbf340b88	-0.70330095
75	0xbdbaf79d	-0.0912926
76	0x3f1978d6	0.59950006
77	0x3d875d81	0.06609631
78	0xbebae311	-0.36501363
79	0xbea44a29	-0.3208783
80	0xbefb4af1	-0.49080613
81	0xbfd8e2ab	-1.6944174
82	0xbedb5eb0	-0.42845678
83	0x3e164966	0.14676437
84	0x3ee6b94a	0.4506324
85	0xc05abe66	-3.417871
86	0x3eebb23f	0.46034428
87	0x3f86b97a	1.0525353
88	0xc016200c	-2.345706
89	0xbf84a212	-1.036196
90	0x3f686682	0.90781415
91	0x3e1d8e32	0.15386274
92	0x3cabfb5b	0.020993879
93	0x3e5e4444	0.21705729
94	0xc021b83b	-2.5268695
95	0xbdc90d5f	-0.098170035
96	0x3edf42bf	0.4360561
97	0xbfa4cd6f	-1.2875193
98	0x3e90a637	0.28251812
99	0x3ebc7ab7	0.36812374
100	0xbffc1fc2	-1.9697192
101	0xbfbf9fc7	-1.4970635
102	0x3fb3ed0a	1.4056714
103	0x4000c303	2.0119026
104	0x3fcadfa2	1.5849497
105	0x3eb3e2b8	0.3513391
106	0xbf825952	-1.0183508
107	0xbf9bec74	-1.2181535
108	0x3e01b855	0.12667973
109	0xbfbd5b63	-1.4793514
110	0xbf80e1fa	-1.0068963
111	0xc0016c73	-2.0222442
112	0xbf08e600	-0.5347595
113	0xbfeebe57	-1.8651837
114	0xbf4bf1b8	-0.7966571
115	0xbee6eb93	-0.45101604
116	0x3f18394e	0.5946244
117	0xbe37fe6d	-0.1796815
118	0x3b71f9f5	0.0036922668
119	0x3f6814ee	0.90656936
120	0xbfc86d7f	-1.5658416
121	0xbeffeb3f	-0.49984166
122	0xbf047644	-0.5174296
123	0x3eb87e33	0.36033782
124	0xbeb8ff4a	-0.3613227
125	0xbedce01d	-0.43139735
126	0xbfc86cf4	-1.565825
127	0xbf00e117	-0.5034346
128	0xbf61ea57	-0.882482
129	0xbee51ff1	-0.44750932
130	0xbf2703db	-0.6524026
131	0xc0a289dc	-5.0793285
132	0xbde7deb0	-0.11321771
133	0x3eb15a22	0.34639078
134	0xbf19ed07	-0.601273
135	0xbfad10e3	-1.3520778
136	0x3e0edf46	0.1395236
137	0x3e4469fa	0.19181052
138	0x3f68e962	0.90981114
139	0x3f074240	0.52835464
140	0xbebcd6f7	-0.36882755
141	0x3fa3cd58	1.2797041
142	0x3c20d6ac	0.009816807
143	0xbf43b5d7	-0.7644934
144	0xbff4426f	-1.9082774
145	0xbf943bec	-1.1580787
146	0xbe6b233d	-0.22962661
147	0xbf13c18f	-0.5771722
148	0x3f2e787e	0.68152606
149	0x403d7601	2.9603274
150	0xbfe07c0d	-1.7537857
151	0x3f188993	0.5958492
152	0xc08e9ec8	-4.4568825
153	0xbf9657f0	-1.1745586
154	0xbf20dc7d	-0.6283644
155	0xbf91d5f4	-1.1393418
156	0xbf883071	-1.0639783
157	0xbebd50ce	-0.36975712
158	0xbfc6a193	-1.5518059
159	0x3f3f7039	0.74780613
160	0xc0255025	-2.5830166
161	0xc01bdfd9	-2.4355376
162	0xbe573fb0	-0.21020389
163	0xc0f79b73	-7.7377257
164	0xbfb97347	-1.4488305
165	0x3fa56f33	1.292456
166	0x3f6329f0	0.88735867
167	0x3f2105bd	0.6289938
168	0xc036f58b	-2.8587368
169	0xbe8badb5	-0.27280965
170	0x3d94302b	0.0723575
171	0x3fa6b94e	1.30253
172	0xbecdf2c5	-0.4022428
173	0x3ff7f55a	1.937175
174	0xbf0f598d	-0.5599602
175	0x3d8c4f9c	0.06851122
176	0xc086cc7d	-4.212462
177	0xbfb7dd81	-1.4364473
178	0x3e99b231	0.30018762
179	0xbe8fecfd	-0.28110495
180	0x3f1868f1	0.5953513
181	0x404e8e5e	3.2274394
182	0xbf8fc080	-1.1230621
183	0x3fb3860d	1.4025284
184	0xc0f7e630	-7.746849
185	0x3cd49304	0.025949009
186	0xbf0ffbc1	-0.5624352
187	0xbf4b3708	-0.79380846
188	0xbf4c1d6c	-0.79732394
189	0x3d62943c	0.05531715
190	0xc0296d57	-2.6472986
191	0xbf2a03d8	-0.66412115
192	0xbfda0a53	-1.7034401
193	0x3fcca34b	1.5987333
194	0x4041a6e2	3.0258107
195	0xbf7ec1c3	-0.99514407
196	0xbee6a748	-0.450495
197	0xbf5645dc	-0.83700347
198	0x3e8ecf7c	0.27892673
199	0x3d4da42b	0.05020539
200	0x3f74ab96	0.9557432
201	0xc059d3a9	-3.4035437
202	0x3e155002	0.14581302
203	0x3de3fcb4	0.11132184
204	0x3f6d6d4f	0.92744917
205	0x3d3662f5	0.044527967
206	0xbe0651c5	-0.1311713
207	0x3f0efbd9	0.5585304
208	0x3ebb4b6d	0.36580983
209	0xbe70c54d	-0.23512764
210	0x3efdfe15	0.49607912
211	0xbf8df03c	-1.1088939
212	0xbfd0e6fa	-1.6320488
213	0x3f576e5a	0.8415276
214	0x400077bc	2.007308
215	0xbf18ef1c	-0.5973985
216	0x40534440	3.3010406
217	0xbf4cc326	-0.7998527
218	0xbfb58951	-1.4182531
219	0x3e81d9db	0.25361523
220	0x3fc1e14a	1.5146878
221	0x3de43dec	0.11144623
222	0xbfc095f5	-1.5045763
223	0xbd84826b	-0.06470188
224	0xc0a692cb	-5.205419
225	0xc05dae95	-3.4637806
226	0x40bdddbf	5.9333186
227	0xbd3a1dce	-0.04543858
228	0xc0301158	-2.7510586
229	0x3f96ef5d	1.1791798
230	0x401e53a7	2.4738557
231	0x4012e846	2.2954268
232	0x401ff82d	2.4995224
233	0xbfc05905	-1.5027167
234	0x3fa42455	1.2823588
235	0xbf3143cc	-0.69244075
236	0x3fb8193f	1.4382704
237	0xbea83b9f	-0.32857987
238	0x3fac0dd4	1.344172
239	0x3f78a489	0.9712606
240	0x4011a794	2.2758532
241	0x3ac0704b	0.0014681903
242	0x3e74ee59	0.23919047
243	0xbf86a9a1	-1.0520517
244	0xbf77f37b	-0.96855897
245	0xc04b53db	-3.1769931
246	0x404885a6	3.1331573
247	0xbf48578e	-0.782586
248	0x40bf1eee	5.9725256
249	0xbe004e67	-0.12529908
250	0x3f6b27f1	0.9185782
251	0x3eaf0b65	0.3418838
252	0x3f52d824	0.82361054
253	0x3ee68136	0.45020455
254	0xbf119f94	-0.5688412
255	0xc011f894	-2.280797

encoder.conv1.k.bias f4 [16]
0	0x3f365a3e	0.7123145
1	0x3e5e581a	0.21713296
2	0x3f165c9d	0.58735067
3	0x3f663e43	0.89938754
4	0x3f9b2a66	1.2122314
5	0x3df408a6	0.11915712
6	0xbea9aab4	-0.3313805
7	0xbe807979	-0.25092676
8	0xbf979d40	-1.1844864
9	0xbefd2dd7	-0.49449036
10	0x400e11bd	2.2198327
11	0x3f3667d0	0.71252155
12	0xbdbaffec	-0.091308445
13	0x3ec14616	0.37748784
14	0xbf164577	-0.58699745
15	0xbfdd42cd	-1.7286011

encoder.conv1.v.weight f4 [16, 64]
0	0xbfc4432b	-1.5332998
1	0xbecd66bc	-0.40117443
2	0xbd22a9ad	-0.039712597
3	0xc0cb9587	-6.362003
4	0xbf8a2966	-1.0793884
5	0xbfd87dfe	-1.691345
6	0xc0005ac7	-2.0055406
7	0x3ef571b4	0.4793831
8	0xbd86e2d1	-0.065862305
9	0xbe4a82c5	-0.19776447
10	0xbe9692f5	-0.29408994
11	0xbefe2bf9	-0.49642923
12	0x3f1c5017	0.6105971
13	0xbf6313f5	-0.88702327
14	0xbf81d02e	-1.0141656
15	0x3f9fa93a	1.2473519
16	0x3f379752	0.7171527
17	0xbfa3d483	-1.2799228
18	0xbf21d729	-0.63218933
19	0x3ee40228	0.44532895
20	0xbf0d856e	-0.5528172
21	0xbffb5b7f	-1.9637297
22	0x3e87a7cb	0.26495203
23	0xbdc8a286	-0.09796624
24	0x3ff72a35	1.9309756
25	0x3f22977a	0.63512385
26	0xbf8a9370	-1.0826244
27	0x3eaebe1e	0.34129423
28	0x3f68533e	0.9075202
29	0xbe88ddb5	-0.2673165
30	0xc05057a9	-3.2553504
31	0x3fc98a62	1.5745356
32	0xc024c6ff	-2.5746458
33	0xbd420dd8	-0.047376484
34	0x3d8ada93	0.06779971
35	0xc1137279	-9.215447
36	0xbfc1b32b	-1.5132803
37	0xbf983731	-1.1891843
38	0xc0111a16	-2.2672172
39	0x3f3a6a77	0.728187
40	0x3f14c41a	0.5811173
41	0x3ed54642	0.41655165
42	0x3e9bbf1c	0.30419242
43	0xbefd6b42	-0.49495894
44	0x3e0578b7	0.1303433
45	0xbf9e29d2	-1.2356513
46	0xbf2d3425	-0.6765769
47	0x3e213348	0.15742218
48	0x3f522af9	0.8209682
49	0xbf8bb618	-1.0914946
50	0xbf101df0	-0.5629568
51	0x3cd66c23	0.02617461
52	0xbf19f1fb	-0.6013486
53	0xbfeb9da5	-1.8407484
54	0x3f31a7a1	0.69396406
55	0xbd80c864	-0.062882215
56	0x3f145e74	0.57956624
57	0x3ec48cda	0.3838871
58	0xbea63a0b	-0.32466158
59	0x3e371f86	0.17883119
60	0x3f91f55c	1.1403003
61	0x3e6e8163	0.23291545
62	0xc0712606	-3.7679458
63	0x400a0881	2.156769
64	0x3f92138c	1.1412215
65	0x3f31988a	0.6937338
66	0xc09fcfa4	-4.9940968
67	0x3ed07d05	0.40720382
68	0xbda018d8	-0.078172386
69	0x3fbc814c	1.4726958
70	0xc055eaa5	-3.3424466
71	0x3fbf5623	1.4948162
72	0x402b9748	2.6811085
73	0xbfb21194	-1.3911614
74	0x3e9acb1d	0.30233088
75	0xbf856ae0	-1.0423241
76	0xbfa1a957	-1.2629803
77	0xbfdd35b2	-1.7282012
78	0x3de372c8	0.11105877
79	0x3ea2a32f	0.31765124
80	0x3eaf0fba	0.34191686
81	0xbe40aa22	-0.188149
82	0xbd85eef5	-0.06539718
83	0xbe165be9	-0.14683498
84	0x3f338160	0.70119286
85	0xc03ef025	-2.9834073
86	0xc033e474	-2.8108187
87	0xbf1d5b61	-0.6146756
88	0x3ee48630	0.44633627
89	0x3f723fa2	0.94628346
90	0x40016ce7	2.0222719
91	0xbf95f2f6	-1.1714771
92	0x3ea2d7ac	0.3180517
93	0x3f65407e	0.8955153
94	0xbfa9b4f7	-1.3258351
95	0x3fbadb98	1.4598265
96	0x3f955eb5	1.1669527
97	0xbf1d7f6a	-0.61522543
98	0xbda038fc	-0.07823369
99	0xbf19bcb4	-0.60053563
100	0x3f3e4752	0.74327576
101	0x3e16763b	0.14693539
102	0xbfebccff	-1.8421935
103	0xbf848a84	-1.0354772
104	0x402e6d01	2.725403
105	0xbe8b8f49	-0.27257755
106	0x3f55aa2a	0.83462775
107	0xbf0f22c7	-0.5591244
108	0xbf308644	-0.68954873
109	0x3ceaf919	0.028683232
110	0x3ea3a1e0	0.31959438
111	0x3e312b7e	0.17301747
112	0xbed16885	-0.40900055
113	0x3f1a2af5	0.602218
114	0x3f0eaabc	0.5572927
115	0x3ee1676d	0.4402422
116	0xbd2faa6b	-0.042887133
117	0xbff2ee71	-1.8979017
118	0xc0366c8f	-2.850376
119	0xbe9c1078	-0.30481315
120	0x404138db	3.0190952
121	0x3ddb826b	0.10718235
122	0x3f7bd221	0.98367506
123	0xbebbad3d	-0.36655608
124	0x3ed49796	0.415219
125	0x3f1b66a5	0.607035
126	0xbfccf8df	-1.601345
127	0x3effa588	0.49930978
128	0x3fe6d6a7	1.8034257
129	0x3f8660a3	1.0498241
130	0xbf629024	-0.8850119
131	0xbf7dbb32	-0.9911376
132	0xbf06e0bb	-0.5268666
133	0x3fdb29c4	1.7122121
134	0xc0050e59	-2.0790007
135	0xbed875d3	-0.42277393
136	0xbf4cef78	-0.800529
137	0x3f9b1e69	1.2118655
138	0x3e9cb2ed	0.3060526
139	0x3f2c249f	0.6724338
140	0xbf1f72aa	-0.6228434
141	0xbece3e54	-0.40281928
142	0x3f0523f3	0.5200798
143	0x3f1fb743	0.6238901
144	0xc04db637	-3.2142465
145	0x3f50d9e4	0.81582475
146	0x3f364b9b	0.71209115
147	0x3f41abe9	0.7565294
148	0x3ee96596	0.45585316
149	0xbf975310	-1.1822224
150	0x3f36a497	0.71344894
151	0xbf019b73	-0.5062782
152	0xc0824f9f	-4.0722194
153	0xbf532ecf	-0.824933
154	0x3f53e794	0.82775235
155	0xbf2369d1	-0.6383334
156	0xbeb12448	-0.34597993
157	0x3f74bc02	0.9559938
158	0x3ef891c1	0.485487
159	0xbeff98d6	-0.49921292
160	0x40053a28	2.0816746
161	0x3fd488f3	1.6604294
162	0xc0b11fd9	-5.5351377
163	0xbfb89302	-1.4419863
164	0x3e076474	0.13221914
165	0x3ffa203a	1.9541085
166	0xc039fa05	-2.905885
167	0xc01e5b1b	-2.4743106
168	0x3ea99895	0.33124223
169	0x400d4bc4	2.2077494
170	0x3ea04239	0.31300524
171	0x3f27b4ef	0.6551046
172	0xbe43ce0c	-0.1912157
173	0xbe6b583c	-0.22982877
174	0x3f2eb2eb	0.6824176
175	0x3ee8ccbb	0.45468697
176	0xbfc7c961	-1.5608331
177	0x3e91e1c7	0.28492567
178	0x3eee95a3	0.4659854
179	0x3e9358ea	0.28778774
180	0x3f99ee8d	1.2025925
181	0xbef0b2de	-0.47011465
182	0xbef2e21d	-0.47438136
183	0xbec3aa8c	-0.38216054
184	0xbfb4e09a	-1.4131043
185	0xbec80615	-0.3906714
186	0xbfaf1305	-1.3677679
187	0x3d2b0906	0.041756652
188	0x3f0feecc	0.5622375
189	0x3f2f32ea	0.68437064
190	0x3f57b8c1	0.8426629
191	0xbecc7bd0	-0.3993821
192	0xbf2764a1	-0.6538792
193	0xbf7e68c9	-0.9937864
194	0xbf0308a8	-0.51185083
195	0xbed5e56b	-0.41776595
196	0xbf5ddd5e	-0.86665905
197	0xbef67e3c	-0.48143184
198	0xbfb39b24	-1.403172
199	0x3d090b56	0.033458076
200	0x3faabc28	1.3338671
201	0xbdee6f95	-0.11642376
202	0x3c86bc53	0.016447222
203	0xbf8ada6c	-1.0847907
204	0xbd224c44	-0.039623514
205	0xbf50906c	-0.8147037
206	0x3f2e5c83	0.6810991
207	0xbfbd3c8a	-1.47841
208	0xbed42fdb	-0.4144276
209	0x3f981971	1.1882764
210	0xbe6f3f60	-0.2336402
211	0xbf3ab587	-0.7293324
212	0x3e91060a	0.2832492
213	0x3f5661cf	0.83742994
214	0x3fbf7e06	1.4960334
215	0xbfba83ff	-1.4571532
216	0x40615468	3.5207767
217	0xbf60787e	-0.87683856
218	0xbdaacb21	-0.08339525
219	0xbf94e884	-1.1633458
220	0xbda78210	-0.08179104
221	0x3de4ec16	0.11177842
222	0xbf20625a	-0.6265007
223	0x402db06f	2.7138937
224	0xbf466811	-0.7750254
225	0x3d6f5167	0.05842724
226	0x3e31c5a1	0.17360546
227	0x3f7408df	0.95326036
228	0xbefddf19	-0.49584273
229	0x3f2312aa	0.63700354
230	0xbce7d1f9	-0.028298365
231	0x3e7a503c	0.2444467
232	0x403d4afe	2.9577022
233	0x3f04193a	0.5160099
234	0x3f29ea0c	0.6637275
235	0xbf55acd9	-0.8346687
236	0x3f02615a	0.50929797
237	0x3e855294	0.26039565
238	0x3f102e9a	0.5632111
239	0xbf05c8b6	-0.52259386
240	0x3f497617	0.78695816
241	0x3fe798e6	1.8093536
242	0x3edecbd7	0.43514892
243	0xbe5cad1d	-0.21550412
244	0xbf300494	-0.68756986
245	0xbee4d809	-0.44696072
246	0x3fd80ad6	1.6878307
247	0xbe576554	-0.21034747
248	0x40d2c799	6.586865
249	0xbf152b5e	-0.582693
250	0x3fad851b	1.3556246
251	0xbc94a1f9	-0.01814364
252	0xbeefd2c7	-0.46840498
253	0x3f293680	0.66098785
254	0xbe0c2f04	-0.1368981
255	0xbf645d57	-0.89204925

encoder.conv1.v.bias f4 [16]
0	0x3f89ccc8	1.0765619
1	0x3fad9d5a	1.3563645
2	0x4032c0ec	2.793025
3	0x4004113b	2.0635517
4	0xbe5afa28	-0.2138449
5	0x40bf1757	5.971599
6	0x402a7d71	2.6639063
7	0x3fc511fd	1.5396115
8	0xbf64c173	-0.8935768
9	0x40030c6a	2.0476327
10	0x3f2ab9c0	0.6668968
11	0xc042957b	-3.0403736
12	0x3f24f309	0.6443334
13	0x3fa7c053	1.3105568
14	0xbf1dac1d	-0.6159075
15	0x4006347e	2.0969539

encoder.conv2.q.weight f4 [32, 32]
0	0x3f52e0ec	0.82374454
1	0x3fb576ca	1.4176877
2	0x3cf2923d	0.029610747
3	0xbe703ba9	-0.23460259
4	0x3f777ac5	0.96671706
5	0x3fa208bb	1.2658914
6	0x3f46035c	0.77348876
7	0x3f4bbb9a	0.7958313
8	0xbe05e40f	-0.13075279
9	0x3f8a8177	1.082076
10	0xbe5dbd8a	-0.21654335
11	0xbfddfe89	-1.7343303
12	0xbd254af4	-0.040354684
13	0xbf6d19d8	-0.9261756
14	0xbf20cb5c	-0.628103
15	0x3e7fc9c6	0.24979314
16	0xbfb35309	-1.4009715
17	0x3ffd1c89	1.9774333
18	0x3d8a3f2b	0.067503296
19	0x3eda1a57	0.4259822
20	0xbf89cc69	-1.0765506
21	0x3f5d1185	0.8635486
22	0x3e396ad3	0.18107156
23	0x40003a93	2.003575
24	0xbeaac18c	-0.3335079
25	0x40142212	2.3145795
26	0xbfb530c2	-1.4155505
27	0xbf8d3b5e	-1.1033742
28	0x3e7afb33	0.24509887
29	0xbf9345ac	-1.1505637
30	0xbee7959f	-0.4523134
31	0x3f3d1f6d	0.73876077
32	0xbd846aa6	-0.06465654
33	0xbf854150	-1.0410557
34	0xbf82e8a8	-1.0227251
35	0xbe9d0bac	-0.30672967
36	0xbfbb85b0	-1.4650173
37	0x3fba16ba	1.4538186
38	0xbf4be023	-0.7963888
39	0x3f95ed00	1.1712952
40	0x3fee9abf	1.8640975
41	0xbf971184	-1.180222
42	0xbe2a2317	-0.16614948
43	0xbf8deb54	-1.1087441
44	0xc02bcbf4	-2.6843233
45	0xbdfb031a	-0.12256451
46	0xbf836a1e	-1.0266759
47	0x401bdde3	2.435418
48	0xbf24890b	-0.6427161
49	0xbf447d54	-0.76753736
50	0xc0033e1c	-2.0506659
51	0x3e1cb2ef	0.15302633
52	0x3f1802cb	0.5937926
53	0x3f1928b2	0.5982772
54	0xbfd1151a	-1.6334565
55	0xbee8f4df	-0.45499322
56	0x3fa6ed60	1.3041191
57	0x3c17310c	0.009228002
58	0x3e0ee648	0.13955033
59	0xbeb072f3	-0.344627
60	0xbfa95925	-1.323033
61	0xbd5110db	-0.051041465
62	0xbf89ed68	-1.0775576
63	0x3fa7dee8	1.31149
64	0x3ef4afb9	0.47790316
65	0x3fe0524d	1.7525116
66	0xbfdcf68b	-1.7262739
67	0x3fe6fd46	1.8046043
68	0x3ff95904	1.948029
69	0x3c868864	0.016422458
70	0xbfff9983	-1.9968723
71	0xbf2f4dd2	-0.6847812
72	0xc06846ad	-3.6293137
73	0x40dd9bc6	6.9252653
74	0x3f0b2d3d	0.54365903
75	0xbf4f4f10	-0.80980015
76	0x3fa98082	1.3242342
77	0x3fa0a986	1.2551734
78	0x3e0dab3b	0.1383485
79	0x407548d0	3.8325691
80	0x3f0d849c	0.5528047
81	0xbfc3b400	-1.5289307
82	0x3fc40714	1.531466
83	0x3feaafde	1.833492
84	0x4001d1b0	2.0284233
85	0xbf70ba1a	-0.9403397
86	0x3f418c62	0.7560483
87	0x3f61a5f5	0.88143855
88	0xc096b1e4	-4.709215
89	0xbf53dfad	-0.8276318
90	0xbf60c405	-0.877991
91	0x3e855aa0	0.26045704
92	0x3ee054b8	0.43814635
93	0x3f9fcace	1.2483766
94	0x3f7c5da5	0.9858039
95	0x3f99ebb5	1.2025057
96	0x3f40428c	0.7510154
97	0x3fc78501	1.5587465
98	0xbe9a1245	-0.30092064
99	0xbe4ae9f1	-0.19815804
100	0xbed296e5	-0.41130748
101	0x3ff8c57d	1.9435269
102	0xbf53238f	-0.82476133
103	0xbf6b9594	-0.92025113
104	0xc001dd1e	-2.029121
105	0x3ca0f159	0.019646334
106	0x3f5fd8c1	0.87440115
107	0x3f7afe4a	0.98044264
108	0x3eb11975	0.34589735
109	0xbf611c02	-0.8793336
110	0xbe2d7889	-0.16940512
111	0xbfdd23f6	-1.72766
112	0x3fd2850a	1.644685
113	0xbd7a6a7b	-0.061136704
114	0x3e0bae5d	0.13640733
115	0x3ddf54fb	0.109048806
116	0xbf14354e	-0.57893836
117	0x3e127aff	0.14304732
118	0xbf018ee3	-0.5060865
119	0xbdeafc86	-0.11473946
120	0xc005c0ea	-2.0898995
121	0xbec23553	-0.37931308
122	0xbe0b9db6	-0.1363438
123	0xbf878588	-1.0587626
124	0x3f161c67	0.5863709
125	0xbe8d8761	-0.27642348
126	0x3e2a4a38	0.16629875
127	0xbf451a43	-0.769932
128	0xbf18911d	-0.59596425
129	0x3efbc2d2	0.49172074
130	0x3f3add49	0.72993904
131	0x40071344	2.1105509
132	0xbe32b32a	-0.17451158
133	0x3e853a94	0.26021254
134	0x3e672b8b	0.22575204
135	0x3f1582e4	0.5840285
136	0xbf08c471	-0.53424746
137	0x3f30c41a	0.6904923
138	0xbf5ff456	-0.874822
139	0x3eb92553	0.3616129
140	0xbfa37553	-1.277018
141	0xbea006ff	-0.31255338
142	0x3f262e01	0.64913946
143	0xbf37d13e	-0.71803653
144	0xbedc5028	-0.43029904
145	0xbf16ce6b	-0.5890872
146	0x3fba6533	1.4562134
147	0x3febe722	1.8429911
148	0x3e0e75ca	0.1391212
149	0xbeee68a5	-0.46564212
150	0x3f7978bc	0.9744985
151	0x3fe60803	1.7971195
152	0x3e66edf4	0.2255171
153	0x3fac0090	1.3437672
154	0xbfdc196c	-1.7195258
155	0x3fc015b5	1.5006624
156	0xbf898cf9	-1.0746146
157	0x3f150a6d	0.58219033
158	0x3f1901cc	0.59768367
159	0xbef41613	-0.4767309
160	0x40186c7d	2.3816216
161	0x3e4948bc	0.19656652
162	0x3f3e35aa	0.74300635
163	0x3e5dfee8	0.2167927
164	0x3dee13b8	0.11624855
165	0x4077313a	3.8623796
166	0x3edc946a	0.4308198
167	0x3ed2017c	0.41016757
168	0xbfe4d170	-1.7876415
169	0xbea0ea65	-0.3142883
170	0x3f59283a	0.84827006
171	0x3fcd3266	1.6031005
172	0xbf43c7f8	-0.76477003
173	0x3e6bd278	0.23029506
174	0x3fcc45df	1.5958823
175	0xbfbd6efe	-1.4799497
176	0x40330fec	2.7978468
177	0xbd8079df	-0.06273245
178	0x3f397e4e	0.7245835
179	0x3e5bdaa3	0.21470122
180	0xbd43c164	-0.047791854
181	0x402fcfce	2.7470584
182	0xbd6b1605	-0.057394046
183	0x3fb68404	1.4259038
184	0xbd860cf9	-0.06545443
185	0xbf831d4d	-1.0243317
186	0x3da7bca4	0.08190277
187	0x401388d2	2.3052258
188	0xbf7bdb04	-0.98381066
189	0xbedec819	-0.43512037
190	0x3f855e20	1.041935
191	0xbcfc3fb7	-0.0307921
192	0xbf1ae498	-0.60505056
193	0xbf17f598	-0.5935912
194	0x3f778ca5	0.9669898
195	0xbd88ee35	-0.066860594
196	0x3f90ccb4	1.131247
197	0xbe489177	-0.1958674
198	0x40258eca	2.5868402
199	0xbfeffa4a	-1.8748257
200	0xbfb0afe3	-1.3803676
201	0xbeeccf6d	-0.46252003
202	0xbff2f4a7	-1.8980912
203	0x400dcefb	2.215758
204	0x4089cca1	4.306229
205	0x3f42ff7b	0.7617108
206	0x3e7f7c1e	0.2494969
207	0xbf00c145	-0.50294906
208	0xbfc3a1b4	-1.5283723
209	0x3d9f38be	0.077744946
210	0xbd5f05cc	-0.054448888
211	0xbe180dc1	-0.14848997
212	0xbea1d34b	-0.31606516
213	0xbe6f7b41	-0.23386861
214	0x3f7ac844	0.9796183
215	0xbf9528fc	-1.1653132
216	0xbf37dfc2	-0.718258
217	0xbf4a4a34	-0.79019475
218	0xbfbc71e1	-1.4722253
219	0x3fb159d2	1.3855536
220	0x401d4479	2.4573042
221	0x3f8c7934	1.0974488
222	0x3f3a27be	0.7271689
223	0xbdaf84fc	-0.08570287
224	0x3eb3c81d	0.35113612
225	0x3f9d3f78	1.2284994
226	0xbf807272	-1.0034926
227	0x3f04798e	0.5174798
228	0x3ea62db7	0.32456753
229	0xbdcda8ac	-0.10041937
230	0x3dd05c8a	0.101739004
231	0x3f721235	0.9455903
232	0x4003eed3	2.0614517
233	0xbfdb47f1	-1.713133
234	0xbf4ec356	-0.8076681
235	0xbe7670bc	-0.24066442
236	0xbf51f977	-0.8202128
237	0xbe9221ff	-0.28541562
238	0x3e260d68	0.16216052
239	0xbf17b02e	-0.59253204
240	0xbf863edc	-1.0487933
241	0x3fa4d337	1.2876958
242	0xbf382db9	-0.7194477
243	0xbe4fed09	-0.20305265
244	0x3e259db5	0.16173442
245	0x3e109d5e	0.14122531
246	0x3fa3b826	1.2790573
247	0x3e5fc32f	0.218518
248	0x401a635b	2.4123142
249	0xbcb3836f	-0.021913258
250	0xbf9e47fe	-1.236572
251	0x3c76911f	0.015049248
252	0xbf6bff3b	-0.92186326
253	0xbe444f7f	-0.1917095
254	0xbebcb151	-0.36854032
255	0xbf05c573	-0.5225441
