trained_model/model_epoch387.chrom6.pkl (torch, 41775 bytes, 18 tensors)

encoder.conv0.q.weight f4 [32, 28]
000000 8d 52 23 3d 2e 42 7a be bd 20 2e bf a2 b5 f3 bd
       0.03987365 -0.24439308 -0.68018705 -0.11899878
000010 fd 04 84 bc ee e0 18 3d a6 68 f6 3f 06 53 16 be
       -0.01611566 0.037323885 1.9250686 -0.14680108
000020 6b fb f2 3c bd e6 92 bd ea 78 e2 be 72 ff 0d bf
       0.029660901 -0.07172916 -0.44232875 -0.55467904
000030 d1 e1 ac be ae 6e 02 3d f5 6c b4 c0 0e 71 0b 40
       -0.33766034 0.031843834 -5.6383004 2.1787753
000040 2c af d5 3f ad 19 50 3b eb cc 7d bc 2e 33 24 bb
       1.6694083 0.0031753585 -0.015490751 -0.002505492
000050 94 fd 7c bf ee db b3 bd f9 3e 80 bb 4c fb cb 3d
       -0.9882443 -0.08782183 -0.003913757 0.099600405
000060 ba c7 2f 40 7d 76 90 bf 76 28 5f bf ef 7b 86 3e
       2.7465653 -1.128616 -0.87171113 0.2626643
000070 27 02 e5 bd 72 a0 d6 3d f6 4f 1d bf cd 76 b8 3d
       -0.11182051 0.10479821 -0.61450136 0.090070345
000080 d8 98 3e bc 9a d1 8e bd d7 0e be bd d4 8b ad bd
       -0.0116331205 -0.06973572 -0.09280174 -0.08473936
000090 73 85 9b 3c 34 ea 95 be 70 20 e3 3e d4 b4 bc 3e
       0.018984532 -0.29280245 0.44360685 0.3685671
0000a0 b3 e8 94 bd 5c 8c 39 3e c6 55 6d 3f 14 d6 b1 bf
       -0.07270946 0.18119949 0.92709005 -1.3893456
0000b0 2c ad 63 be 69 1f 54 3d d5 19 8e bb 9f ec 03 bd
       -0.22234029 0.051787768 -0.0043365755 -0.03220808
0000c0 ee d7 b3 3d 1d 91 4c bb 56 0b 23 bb 55 76 90 3d
       0.0878142 -0.0031214424 -0.0024878583 0.0705382
0000d0 95 da 43 bb 38 bf a3 3f ad c0 b6 be e7 f7 d1 be
       -0.0029884924 1.279273 -0.35693875 -0.41009447
0000e0 40 be 19 3e 5e 3c 2e be 2e 42 e1 be b6 00 80 be
       0.15013981 -0.17015216 -0.43995804 -0.25000542
0000f0 8a c7 b9 3c 40 7c ce 3d fb 87 29 bf 74 d6 a9 3d
       0.022678155 0.100822926 -0.66223115 0.08292857
000100 ee b1 d6 3b ef 74 15 3e 33 7c 8c 3f d9 24 47 bf
       0.0065519726 0.14595388 1.0975403 -0.777906
000110 6e d5 b2 3e 4e aa d2 be 7a ea 9e c2 a2 53 83 c2
       0.3492846 -0.41145557 -79.45796 -65.663345
000120 96 43 c9 be 60 01 b4 bc b4 42 f6 bb 49 8f e6 3d
       -0.39309376 -0.021973312 -0.007515276 0.11257798
000130 04 ef c6 bf df bb 4f bd 20 8c 36 bc 52 e5 ef 3d
       -1.5541692 -0.050716277 -0.011141807 0.11713661
000140 a4 2f 43 bf 91 58 56 be 31 a6 9e 3f a5 d6 40 3f
       -0.7624457 -0.20932223 1.2394468 0.7532752
000150 6a a4 0f bd b9 a3 a0 3c 5e f4 86 bf 24 35 88 bf
       -0.035068907 0.019609319 -1.0543325 -1.0641217
000160 cd 21 af be 02 54 aa 3e d4 64 3c bc 04 5b c5 bd
       -0.34205475 0.33267218 -0.011498649 -0.096365005
000170 70 e7 0f bb ee 62 17 3d 2f 94 b3 3e 50 5f 01 bd
       -0.0021958016 0.03695958 0.35073993 -0.031585038
000180 81 56 d9 bd bb 94 88 bd a5 96 04 40 96 53 51 40
       -0.106122024 -0.06668993 2.0716946 3.2707267
000190 9d a4 df 3f 96 f9 ac 3e 6a 8e a4 bb 80 ee 17 3e
       1.7472111 0.3378417 -0.00502186 0.14837074
0001a0 fb f6 c9 3e 2b e0 12 bd ba d7 f6 bb d2 bf ae 3c
       0.39446244 -0.035858314 -0.007533041 0.021331701
0001b0 59 0d 82 40 e4 93 9c bf 94 dd 8c 3e 4c 21 db be
       4.0641294 -1.2232633 0.275128 -0.4279884
0001c0 7b bd 87 bf 2e b5 88 bf c6 26 aa bf 91 6e 63 bf
       -1.06047 -1.0680292 -1.3293083 -0.88840586
0001d0 ce c6 a3 be f0 85 18 3f be 32 e1 bf a6 3e f9 bf
       -0.31987613 0.5957937 -1.759361 -1.9472244
0001e0 22 70 4d be 71 64 72 3f 86 a4 9a 3f fd 86 95 3d
       -0.20062307 0.9468451 1.2081459 0.073011376
0001f0 97 10 8b be 6a 82 be bf fc f4 35 40 bd 24 d3 3f
       -0.27161095 -1.4883549 2.8430777 1.6495587
000200 76 a8 c9 be f0 3c 1b bf 54 52 00 40 64 27 32 be
       -0.39386338 -0.6063986 2.005025 -0.17397839
000210 0b ff 99 40 81 2f c1 bf 94 3a 11 bf 8b e2 c8 3e
       4.812383 -1.5092622 -0.5673001 0.3923534
000220 b2 21 06 c1 c8 3a 40 c0 0f 60 01 41 35 5e d0 bf
       -8.383226 -3.0035877 8.085952 -1.627875
000230 30 f9 fe be 52 1c e8 be 97 e9 e8 3e a0 4e e7 be
       -0.4979949 -0.45334107 0.45490715 -0.45177174
000240 02 44 30 3f 3a 14 80 40 be 2b 43 3f 92 8a 41 3f
       0.6885377 4.002469 0.7623862 0.75602067
000250 53 63 c2 bd 48 97 07 40 38 0f 9a 3f 62 18 fa 3e
       -0.09491601 2.1186085 1.2035894 0.48846728
000260 18 02 87 3d 31 8b 82 be 6c 97 40 40 d4 7a 24 40
       0.06592196 -0.2549682 3.009242 2.5699968
000270 c5 23 08 c1 00 1e 25 bd 26 0a 42 3e cd 1c 97 3f
       -8.508733 -0.040311813 0.18949184 1.1805664
000280 20 f7 e0 3f cf f8 ef bb fa 28 c2 bd c8 53 e4 3f
       1.7575417 -0.0073233615 -0.09480472 1.7838068
000290 f5 10 e8 40 04 34 09 41 74 c5 88 40 be 20 c5 40
       7.25207 8.575199 4.274103 6.160247
0002a0 e4 7e 84 3f 32 fd 78 3f f3 b6 d9 bf 08 2a 18 c0
       1.0351224 0.97261345 -1.7008957 -2.3775654
0002b0 7e 9d 74 3f 97 96 27 bf c5 f7 1f bf ae 9d d9 3f
       0.95552814 -0.65464157 -0.6248744 1.7001245
0002c0 7c 54 6b 3c e8 31 8f be d6 57 1a c0 eb f7 dc be
       0.014363404 -0.27967763 -2.411611 -0.43157896
0002d0 73 96 b4 bf 00 5b b7 bf 58 7b a8 c0 fa f1 b7 c0
       -1.4108413 -1.4324646 -5.2650566 -5.748288
0002e0 53 42 86 3f b8 a5 82 c0 32 66 90 3d 6a 57 18 bd
       1.048899 -4.0827293 0.07050742 -0.03719274
0002f0 3d ff 3b 40 a1 c8 ef 3f 6b c1 db 3c f5 de 84 bc
       2.9374535 1.8733102 0.026825627 -0.016219595
000300 2d 22 01 41 40 38 e9 bc 1e b4 8c 40 88 86 1c 40
       8.070844 -0.028469205 4.396987 2.4457111
000310 e8 62 41 40 6b 3d 2f 40 1d 97 0c 40 29 1f 27 3e
       3.0216618 2.7381237 2.1967232 0.1632048
000320 2c 6e 31 bf e6 8d 00 bf 83 c8 00 40 e1 86 a9 3e
       -0.69308734 -0.5021652 2.0122383 0.33110717
000330 52 b3 45 3f 4a a1 1c bf d0 92 24 bf ef b0 2f 3e
       0.77226746 -0.6118361 -0.6428652 0.17157339
000340 55 36 5f 3f 9d 12 07 40 af 5e 1f c0 a8 14 28 40
       0.8719228 2.110511 -2.490154 2.6262608
000350 f2 b0 15 c1 65 60 98 be 42 c5 b8 bd dd ae c2 be
       -9.3557 -0.29761043 -0.09021999 -0.38024035
000360 a0 47 93 c0 e1 6b 95 3e b4 63 18 3f f5 ae 49 bf
       -4.6024933 0.29183868 0.59527135 -0.7878259
000370 0e 46 81 40 7f 08 67 3e 52 82 02 c1 d0 ed 42 c0
       4.0398016 0.22561835 -8.1568165 -3.045765
000380 f1 71 47 3e 2c 1c 75 be 08 f8 45 3f df 59 42 3d
       0.19477059 -0.23936528 0.7733159 0.04744899
000390 e9 4a 96 3b 44 b8 1c be 83 03 15 3f aa c1 cd 3d
       0.0045865667 -0.15304667 0.58208483 0.10046704
0003a0 8a a9 19 3b fc 83 6c bd 46 2c 52 be e0 0f c9 be
       0.0023447 -0.057743058 -0.20524701 -0.39269924
0003b0 6d 54 18 3e 8a cd 93 3e 5c 02 3e 42 8f 6b 5e 42
       0.14875956 0.2886775 47.502304 55.605038
0003c0 1f 75 e8 3d 9c 63 ab 3c 1c 99 14 3c a4 5f d0 bd
       0.11350464 0.02092152 0.009069707 -0.10174492
0003d0 70 4f 27 3e 91 07 83 3d e6 ff fa b9 4f dc e4 bc
       0.16338897 0.063979276 -0.00047874375 -0.027937083
0003e0 23 31 92 be 85 b7 25 39 f3 85 0a bf 98 ad 69 3e
       -0.28553113 0.00015803993 -0.5411064 0.22820127
0003f0 70 7f 87 3e 3e c3 c8 bd 57 49 94 3d 1e e2 0f 3e
       0.26464415 -0.098028645 0.07240551 0.140511

encoder.conv0.q.bias f4 [32]
000000 e2 6f 5b 3e 65 5e b9 bd 2e f4 8c 3f 93 d0 81 3e
       0.21429399 -0.090512075 1.1012018 0.25354442
000010 4b c6 82 3f 0c 2a fe 3f a5 0e 28 c0 e0 b6 24 be
       1.0216764 1.9856582 -2.6258938 -0.16085386
000020 a1 3c 18 bf 33 01 0c bf 43 96 81 bd eb 48 36 3f
       -0.5946751 -0.5468933 -0.06327488 0.71205014
000030 62 46 34 bd 00 46 92 3f 03 2b 8a 3f 14 af 9a bc
       -0.044012435 1.1427612 1.0794376 -0.018882312
000040 97 2f 20 3f cb f0 e9 be 3a eb fa be 77 0c 33 bf
       0.62572616 -0.45691523 -0.4900759 -0.69940895
000050 ce 6a 95 bf 13 f4 db c0 59 a8 01 3f 4f 87 d1 bf
       -1.1673219 -6.873544 0.50647503 -1.6369418
000060 4e a4 f8 3f e9 9c ed 3f 5d 77 bc be 66 69 5c 3f
       1.9425142 1.856351 -0.36809817 0.86098325
000070 6d 03 e9 3d 84 03 2e 3f 9e 84 4b 3f 30 cc 4e bf
       0.113776065 0.67974114 0.7949923 -0.80780315

encoder.conv0.k.weight f4 [32, 28]
000000 48 e6 4d 3e 57 e7 5e be e0 c5 02 40 28 2d 0c 3d
       0.20107377 -0.21767937 2.0433273 0.03422275
000010 40 b0 88 3c e1 c9 db bd da 85 db 3e 07 4a df 3d
       0.016685605 -0.10731865 0.42875558 0.109027915
000020 73 f6 b0 bc 90 46 02 3e 1f 3f c7 bf fc 94 22 bf
       -0.021601891 0.1272223 -1.5566138 -0.6350858
000030 b2 3f b8 bd a3 5d 39 bf 47 54 3e bf af 78 38 40
       -0.08996524 -0.72408503 -0.7434735 2.882366
000040 1a fc 29 be dc 79 f0 bc c1 0a 90 3c f7 1d 23 be
       -0.16600075 -0.029354982 0.017583253 -0.159294
000050 a6 0a 5d 40 c0 a0 74 bc 78 b8 d1 3a 13 f0 2d bd
       3.453775 -0.014930904 0.001600041 -0.04246528
000060 49 a0 62 bd 84 6f 7e bf 0f be 9b 3e 0a 01 81 3a
       -0.05532864 -0.9938891 0.3041844 0.0009842229
000070 50 b2 42 bd a5 60 f6 3c e5 c9 0e bf 65 55 cd 3d
       -0.047533333 0.03007538 -0.55776817 0.10026053
000080 d6 a5 83 bb bc f9 b2 bd 9f cf 8e 3c 4b 96 13 be
       -0.004017572 -0.08739039 0.017432986 -0.14412801
000090 77 e0 a5 bb 61 2e 31 be ce 88 bc bd 07 9e e5 bd
       -0.0050621587 -0.17302848 -0.09205781 -0.11211782
0000a0 fe 45 26 3e 89 6c e8 be 1c 58 fd bf a9 91 ff 3f
       0.16237637 -0.45395306 -1.9792514 1.9966327
0000b0 b4 1a 5a be 6f b4 3e bb 85 c5 a5 3b b0 6e 4e 3c
       -0.21299249 -0.0029099246 0.0050589466 0.012599632
0000c0 c3 19 19 be bd 07 1f 3d 64 9a 8d b8 dd df 00 bd
       -0.14951234 0.03882574 -6.7521614e-05 -0.031463493
0000d0 57 1a d5 bd 75 ca 1b 3f 25 fc 7e bd cb ea 0e bf
       -0.104054146 0.608558 -0.062252183 -0.55827016
0000e0 2c da 39 3e cb de 2a 3e 65 21 48 bf d0 ff b9 be
       0.18149632 0.16686551 -0.78175956 -0.36327982
0000f0 4c c0 36 3d 66 9a 04 3e 9b e4 b6 3d 73 77 c5 bd
       0.044616982 0.12949523 0.08930322 -0.09641924
000100 79 6b 95 bb cb 70 8b 3c 2b cf 2a 3f 52 0b 19 3d
       -0.004559931 0.017021557 0.66722363 0.03736431
000110 67 52 bd 3e bb 8d 2a 3f d5 fc 8a 42 c1 8b 8c 42
       0.3697693 0.66622514 69.49381 70.27296
000120 2f 69 ec 3e 75 aa 50 3b 2d 7a 71 3c 33 f2 bc 3d
       0.46174 0.0031839882 0.014738602 0.09225883
000130 9f 19 7b 3e c0 be 9e bc d6 ca 69 3b 17 10 c3 bb
       0.24521492 -0.019378066 0.0035673878 -0.005952846
000140 df 97 3d bf 92 84 47 bf d1 65 10 40 62 8d 37 3e
       -0.7405986 -0.7793666 2.2562144 0.17925027
000150 c2 bb b3 bd 9c 51 8e bd ee 9b 05 3f 0e 21 ae 3f
       -0.08776046 -0.069491595 0.52191055 1.3603837
000160 de 98 bd 3e 83 46 d8 3c c8 35 d2 bb 2b f6 56 3d
       0.3703069 0.02640081 -0.0064151026 0.052480858
000170 88 b7 2e 3c 64 32 40 3e 74 30 7a bf 04 f7 07 3f
       0.010663874 0.18769222 -0.97730184 0.5311129
000180 51 e0 4e bd 51 6d de 3e 5b 13 83 3f c5 27 ad bf
       -0.050506894 0.43442777 1.0240282 -1.3527762
000190 bf ac 21 c0 db 17 b1 be 22 ff 7c bc be 4d d6 3d
       -2.5261686 -0.34588513 -0.015441688 0.10464047
0001a0 d6 b7 83 be 6f a5 ce bc 6f 5a 14 bc 4c 1f 70 3c
       -0.25726193 -0.02522537 -0.009054764 0.014655899
0001b0 0d 52 32 c0 29 2e 14 3f 8b 0c 5b be 96 66 45 3f
       -2.786258 0.57882935 -0.21391504 0.7710966
0001c0 a9 7b fa bf 55 ce 0d c0 4c a0 8f bf 09 3b ec be
       -1.9568988 -2.2157185 -1.1220794 -0.4613879
0001d0 3b 11 94 bc ba 05 3f 3f ec 54 8a bf 13 0b 29 be
       -0.018074622 0.74618113 -1.0807166 -0.1650813
0001e0 7d 35 5b 3e 55 f9 43 3c c6 e8 fa 3f 4b 62 8c 3e
       0.21407123 0.011961301 1.9602287 0.27418742
0001f0 08 f0 97 be 51 f2 94 bf 71 2a 84 40 fa c5 7f 40
       -0.29675317 -1.1636449 4.130181 3.9964585
000200 aa b3 16 c0 ef 33 60 bf e3 ff 5b bf 1b ff 6f 3f
       -2.3547158 -0.87579244 -0.8593733 0.93748635
000210 e0 e6 f8 bf dd 1b 53 be dd 1d b5 3e 1d 18 c6 3d
       -1.9445457 -0.20616098 0.35374346 0.09672568
000220 9c 5c fa c0 8d 31 d8 bf f2 f8 23 c0 08 81 77 40
       -7.823805 -1.6890122 -2.5620694 3.8672504
000230 8f 26 b8 bf da 35 c8 bf 18 97 90 bf f4 e9 30 3f
       -1.4386767 -1.5641434 -1.129611 0.69106984
000240 2e de 98 be c8 fe e6 3f e9 77 a0 bf 0f fe ca 3f
       -0.2985701 1.8046503 -1.2536594 1.5858783
000250 cf 77 b9 3e bf f3 f9 be e1 aa 48 3e e8 85 47 bf
       0.3622422 -0.48818776 0.19596435 -0.779387
000260 a3 6c 91 bf bf 61 bc bf 82 d0 36 40 59 84 0a 41
       -1.1361278 -1.471733 2.8564763 8.657311
000270 6e ca 27 41 6f b0 4b 3f fe a3 85 be cc ce 99 3f
       10.486921 0.7956609 -0.2610168 1.2016234
000280 d0 b0 f1 40 c8 74 ac 3f d4 32 8a 3e d9 eb 09 c0
       7.5528336 1.3473139 0.26991904 -2.15502
000290 b3 26 9f 3f 51 ae 72 40 8d 20 89 40 20 08 b2 40
       1.2433685 3.7918894 4.2852235 5.563492
0002a0 ed 27 9b 3f 50 e4 84 3f bc c5 5f 3f 87 84 08 c0
       1.2121559 1.0382175 0.87411094 -2.1330888
0002b0 e0 79 48 3d d5 37 e9 3e ce 19 9d 3f b2 6f 74 3e
       0.048944354 0.4555041 1.22735 0.23870733
0002c0 22 ab 10 bf b9 63 32 be c7 98 9c bf 6a b2 36 be
       -0.5651113 -0.17420854 -1.2234124 -0.17841497
0002d0 73 db 04 3f 77 14 12 3f 70 e6 77 41 ba 02 8a 41
       0.5189735 0.57062477 15.493759 17.251331
0002e0 23 91 23 41 4f 4e 22 c0 d9 d3 db 3e 7b 6c ae 3d
       10.222934 -2.5360296 0.42935064 0.08516785
0002f0 bc 96 15 40 f6 8b 16 3f 13 b1 b3 be 03 d7 d1 be
       2.337325 0.58807313 -0.35096034 -0.40984353
000300 61 d6 05 41 e5 49 01 40 2f 49 84 c0 e6 e5 97 40
       8.364839 2.0201352 -4.1339335 4.746814
000310 8a e0 91 3f c8 21 5f 3f 6c e4 b0 bf 4d 88 17 bf
       1.1396649 0.8716092 -1.3819709 -0.59192353
000320 2c e6 1e 3e 35 13 90 be 1c dd 27 bd d3 71 02 3e
       0.15517491 -0.28139654 -0.04098235 0.12738733
000330 e5 81 2e 3f 9b 12 ce bf a7 f1 39 be b1 93 c8 be
       0.68166953 -1.6099428 -0.1815859 -0.3917518
000340 f5 0f 7d bf ba 7a f8 bd f5 f3 9e 41 2a 15 b0 41
       -0.98852473 -0.12132783 19.86912 22.010334
000350 cb 29 c8 be 36 04 21 be 6a be ae be ee ed ae bd
       -0.39094386 -0.15724263 -0.3412965 -0.08541475
000360 35 d1 12 c1 ed 0a e8 bd 56 2d 44 3f 38 55 cf bf
       -9.176076 -0.11330209 0.7663168 -1.6197882
000370 45 c0 70 c1 6c 91 01 3f e0 b1 dd bf 59 7f 55 bf
       -15.046941 0.5061252 -1.7319908 -0.8339744
000380 bc 14 94 3d 7d 6b 88 be 45 6f 9b 3f 97 db 31 bf
       0.07230517 -0.26644507 1.2143332 -0.6947569
000390 48 1b 37 bd ba 0a 58 bf 74 47 12 3f b4 fa 9a be
       -0.04470375 -0.8439137 0.5714028 -0.30269396
0003a0 b0 f2 15 bd db e7 d8 3d 26 1d b8 3f 41 f7 57 3f
       -0.036608398 0.10591098 1.4383895 0.84361655
0003b0 b7 04 9f 3f b2 3b 18 3f 55 11 2c 41 69 2a 49 41
       1.2423314 0.5946609 10.754231 12.572854
0003c0 c5 18 63 40 8c 33 d7 be 10 4b d0 bc 2d 5d 5d bf
       3.5483868 -0.42031515 -0.025426418 -0.864703
0003d0 00 58 de 3e 0f ce a1 bd 04 59 e5 3c 1f 3b 07 3e
       0.43426514 -0.07900631 0.027996548 0.13206147
0003e0 eb 32 27 3e 39 91 1a 40 40 b1 84 40 27 a0 14 c0
       0.16328017 2.4151137 4.146637 -2.322275
0003f0 7e 02 c0 3e c7 27 a3 3e 02 fd 01 be 44 f8 81 be
       0.375019 0.31866285 -0.12694171 -0.25384724

encoder.conv0.k.bias f4 [32]
000000 0b 34 d8 3e 5c c0 50 3f e8 10 23 bf b2 40 44 be
       0.42227206 0.8154352 -0.6369767 -0.19165304
000010 4d 15 eb 3f 50 14 ac 3f 24 ae bc bf 60 08 c3 bb
       1.8365875 1.3443699 -1.4740644 -0.005951926
000020 02 95 bf 3f b5 bc 94 3e d7 01 8a 3e 28 60 03 c0
       1.4967349 0.29050222 0.2695453 -2.052744
000030 e2 cb 9c be b0 69 13 40 65 f9 50 3f 68 81 dd 3d
       -0.306243 2.3033257 0.81630546 0.10815698
000040 0e b3 8b 3e a6 56 94 be 83 a0 9f bd 74 ce 91 3e
       0.27285045 -0.28972358 -0.07794287 0.28477824
000050 ad dd 01 3f e3 be a1 bf 0d 1a d9 be 91 68 70 bf
       0.50728875 -1.2636379 -0.42402688 -0.93909556
000060 56 dc 0a 40 fe da e8 bf 48 81 fb be a9 20 b2 3f
       2.1696982 -1.8191831 -0.4912207 1.3916217
000070 15 b9 7a 3f 39 55 90 3d 2e fe 08 be 14 17 27 3e
       0.9793866 0.07047505 -0.13378212 0.16317397

encoder.conv0.v.weight f4 [32, 28]
000000 93 ce f4 be c4 d6 00 bf 6d db 2d bf b9 07 5f 3f
       -0.47813854 -0.50327706 -0.6791294 0.8712116
000010 6e 95 92 3d a3 22 3c be 34 4e 4b bf 49 87 de 3e
       0.07157408 -0.18372588 -0.79416203 0.4346259
000020 18 87 9c bc 7c 7e af 3e cc f2 ee bf b7 56 ac bf
       -0.019107386 0.34276187 -1.8667846 -1.3463963
000030 0e 30 b2 bf 5c ee 53 bf 3e 74 4b bf 6a c8 0a 40
       -1.3920915 -0.8278558 -0.79474247 2.1684823
000040 99 3c 96 bf 91 db ed bd 1d 9d ae 3c 2f d1 5c be
       -1.1737243 -0.116141446 0.021315152 -0.21564172
000050 c4 43 cb 3f 2f 48 2b 3e 9d 51 ab bd 31 f5 e5 bd
       1.5880055 0.16726755 -0.08365176 -0.11228407
000060 8b f9 bd 40 b2 b6 55 c0 9f 57 2d c0 a0 6d a0 bf
       5.936712 -3.3392758 -2.708473 -1.2533455
000070 a8 ab e5 be 21 b9 e4 3e dd 12 49 3f 57 2e 3a bf
       -0.44857526 0.44672492 0.7854441 -0.7272696
000080 ca c7 9f 3d c1 05 09 bd 31 64 40 3f 1e b5 44 3d
       0.078017786 -0.033452753 0.7515288 0.04802429
000090 e8 1b b4 3c 3a 56 74 bc 0b 9c 53 bf d4 fd 03 40
       0.021985963 -0.014913136 -0.8265998 2.0623674
0000a0 cf e2 3f 3f 9b 70 08 40 85 94 ce 40 14 66 28 c1
       0.7495546 2.131873 6.45563 -10.524921
0000b0 f3 b4 bb 3d 82 94 72 bb e1 60 ac 3b 48 e4 ac 3b
       0.09165373 -0.0037014787 0.0052605723 0.0052762367
0000c0 04 f0 09 3f 77 14 46 bc ae 68 7d 3c a9 10 4a ba
       0.5388186 -0.01208984 0.015466852 -0.0007708171
0000d0 74 52 72 bf 43 70 d9 3e 21 24 43 3f f9 36 95 3e
       -0.94657063 0.4246846 0.76227003 0.29143503
0000e0 79 0c 9f bd d7 bf 11 3e dd ce af 3f b3 80 78 3d
       -0.07766051 0.14233337 1.3735005 0.060669612
0000f0 2c 7c 39 3c c6 ae b1 bd 36 92 33 3f 5a 6f 86 3d
       0.011321109 -0.086759135 0.70144975 0.065642074
000100 90 44 b5 b9 ae a5 4a bd 34 ee 94 bf 39 47 df be
       -0.00034574093 -0.04947441 -1.1635194 -0.43609026
000110 c8 6e 02 3e 6f 79 27 bf 64 47 02 c2 2a 25 1f c2
       0.12737572 -0.6541967 -32.569717 -39.786293
000120 b0 d5 c7 3f 68 76 28 3d 62 be 8e 3c 9a ce 4a bd
       1.5612087 0.041128546 0.017424766 -0.049513437
000130 6b ef 38 3f ea a2 e5 bb 12 33 91 bb d9 85 75 bd
       0.7224032 -0.0070079463 -0.004431137 -0.0599421
000140 f3 b7 51 bf 20 d0 01 bf ca 9a ac 3f 8b 44 52 bf
       -0.8192131 -0.507082 1.3484738 -0.8213584
000150 4d a6 30 bf 26 90 0c 3c 2b 10 4d bf ef 37 1c 3f
       -0.69003755 0.00857929 -0.80102795 0.6102285
000160 7d e8 e2 3e 0d 9a 4e be 9d 31 96 be ea 63 ff be
       0.44318 -0.20175953 -0.29334727 -0.49880916
000170 68 d2 65 3d 0d d0 6c bf b7 e5 cf bd b9 24 6f bf
       0.056108862 -0.9250496 -0.101512365 -0.9341541
000180 c1 4a 64 bf c5 b3 a1 bf cf 59 ff 40 21 fc 6f 3e
       -0.89176565 -1.2632986 7.979713 0.23436023
000190 72 c0 99 40 bf 7c 11 bc 4b 6b 6d bc c5 35 12 be
       4.804742 -0.008879839 -0.014490913 -0.14278324
0001a0 99 cc bb 40 66 cd 40 be 00 3f 21 bc 87 f9 f3 3d
       5.8687253 -0.18828353 -0.0098416805 0.11912828
0001b0 36 23 3d bf 36 c8 b7 3f cb 2f 23 3e e5 ee 04 41
       -0.7388185 1.4357975 0.159362 8.308324
0001c0 fe 4f e0 bf 78 09 ec bf c2 70 ca 3f 4a d9 af 3e
       -1.7524412 -1.844039 1.5815661 0.34345466
0001d0 42 33 70 bd 9b 8a 9b 3e ea 08 ac 3f 2a bf 6d 3f
       -0.058642633 0.30379185 1.344022 0.9286982
0001e0 67 8b 18 be 66 c5 9f 3c 45 00 44 bf dc 5b b3 3e
       -0.14896928 0.019503307 -0.7656291 0.3503102
0001f0 4a 43 26 3f be 29 de 3f 1b 86 17 40 e3 5b 0e 41
       0.64946425 1.7356489 2.3675601 8.897433
000200 ef 1b b2 3f 96 e7 65 3e b6 b3 82 bd f7 70 67 3e
       1.3914775 0.22451624 -0.063819334 0.22601686
000210 43 79 18 3f 9d 6b 80 3f 71 be fc bd 62 3f a4 bd
       0.5956003 1.0032841 -0.12341011 -0.08019902
000220 c5 cf 54 40 0a 47 8a 3f 1c 5f 9b bf 56 d1 e2 3f
       3.3251812 1.0802929 -1.21384 1.7720134
000230 9c bb 31 3e 76 9e bd bd e1 6e 51 3f 5f bc 78 3a
       0.17356724 -0.0925874 0.8180981 0.00094885187
000240 11 2b 25 3d 29 8d c6 3d 66 04 53 3f f4 cf 43 3d
       0.040324274 0.09694893 0.82428586 0.04780574
000250 bd 4e 15 3d 47 f0 06 be 24 d8 7a c0 0a 50 fc bd
       0.036452044 -0.13177596 -3.9194422 -0.12319954
000260 0a a6 77 bf be 31 fa bf 94 23 db 3e 2d e3 6f 3e
       -0.9673773 -1.954643 0.4280058 0.23426504
000270 51 79 04 3f 82 2d 6c bd 1e e2 28 bd a1 49 21 3e
       0.51747614 -0.057660587 -0.041231267 0.15750743
000280 90 bd 08 40 e6 8a 42 3c 76 84 26 bc 10 cb a7 bd
       2.13657 0.011873936 -0.010163417 -0.08193028
000290 e3 a3 82 40 20 d1 cf bf c4 6d 50 bd ab e6 83 bf
       4.0825057 -1.6235695 -0.05088593 -1.0304769
0002a0 12 8b 6d 3d 84 c8 b3 3e 93 a1 d6 be cf 97 8a 3c
       0.057993956 0.3511392 -0.41920146 0.016918091
0002b0 07 60 2e bc 93 03 94 3e 97 77 7a be 02 da de bc
       -0.010643012 0.28908977 -0.24459682 -0.027203564
0002c0 9b fc 42 bc fd 96 50 3e 83 1a bf bd e0 2c 8c 3e
       -0.011901046 0.20370097 -0.093312286 0.27377987
0002d0 26 68 7e be 18 6e 2f bf 9f 0f 81 41 92 e1 4c 41
       -0.24844417 -0.68527365 16.132627 12.805071
0002e0 90 22 d3 be 1f a1 5f 3d 69 79 e8 bc 7f f4 9c 3e
       -0.41237307 0.054597016 -0.028378205 0.30655286
0002f0 63 97 59 be ed 3e 40 bd 47 b6 eb 3b d3 22 1a 3e
       -0.21249156 -0.04693501 0.00719336 0.15052347
000300 ae 60 0a 3c dd e3 81 3e a4 9c 87 be 93 fd 5c bf
       0.008445902 0.25369158 -0.26486695 -0.86324424
000310 84 59 72 bd 17 46 87 bd 6f c9 06 be 35 9c 94 bd
       -0.0591674 -0.066051655 -0.13162778 -0.072563566
000320 32 bf 49 bd f6 6f 0c 3e cd 02 aa be 71 f0 f6 3c
       -0.049254604 0.13714585 -0.33205262 0.030143948
000330 04 62 8a 3c 0f 9b ad 3d 90 28 6d bd b1 02 07 3e
       0.01689244 0.08476841 -0.05790001 0.1318462
000340 53 05 c2 be 1e 1a 57 3e 59 e4 17 c1 a8 5e 2b c1
       -0.37894687 0.21006057 -9.493249 -10.710609
000350 e2 6d b2 3e 3b a4 d6 bd 85 3b 4a bc 3a b3 33 3e
       0.3484946 -0.10480543 -0.012343292 0.17548838
000360 11 8b 1c 3f aa ac c1 bc b6 a5 c8 bb 6e c6 95 3d
       0.611497 -0.023641903 -0.00612327 0.07313238
000370 79 ba a4 3f 7f 46 53 3e 09 4e 4d bf 76 96 28 bd
       1.2869407 0.20632361 -0.801972 -0.041159116
000380 c5 50 2f 3e 4a 73 35 be bf e6 4c 3f d5 7b 67 bc
       0.17120655 -0.1771976 0.8003959 -0.014128645
000390 c7 55 b0 3b 7b 23 28 3e b6 fa a2 3f c4 be b0 bd
       0.005381319 0.16419785 1.2732761 -0.08630136
0003a0 c5 7e c4 3b b7 50 9d 3d 3e 33 e3 be 40 67 bd 3e
       0.0059965574 0.07681411 -0.44375032 0.36992836
0003b0 29 c4 6a 3f 7d 70 e8 3f a7 27 d2 c0 41 8e ae 40
       0.91705567 1.8159329 -6.5673404 5.454865
0003c0 50 ca b1 be ce 33 ec bb 0f 89 20 3c cc 43 20 3e
       -0.34724665 -0.007208324 0.009798302 0.15650862
0003d0 1b 75 99 be 5f 48 26 bd 53 56 96 3b c6 56 bd 3d
       -0.29972157 -0.040596362 0.0045879274 0.09245066
0003e0 3c c8 36 3e 3f 5f 24 bd aa bd a1 bd 4c 91 e9 3e
       0.17849821 -0.040129896 -0.07897504 0.45618665
0003f0 9f a5 6a 3d 47 92 0c 3d de 8e 89 3f 4b 4e 2b 3e
       0.057286855 0.03431919 1.0746725 0.16729085

encoder.conv0.v.bias f4 [32]
000000 4a fc e6 bf 68 fd 74 3e 58 b6 a0 be 62 99 96 3e
       -1.8045743 0.23924792 -0.31389117 0.29413897
000010 84 75 69 bf 5f ae 39 40 03 8f f5 3d 10 a8 79 be
       -0.9119494 2.9012678 0.11990168 -0.24380517
000020 74 a0 ad bf a2 40 96 bf 8a e7 91 bf ae be 96 3f
       -1.3564591 -1.1738474 -1.1398785 1.1776941
000030 86 9a 11 3f 14 28 f4 be ba 0a 4b bf 3b 28 86 be
       0.5687641 -0.47686827 -0.7931324 -0.26202568
000040 69 4d 5b 3f a7 e9 ed be 4f fb a6 bd 10 00 87 bf
       0.85664994 -0.46467325 -0.08153402 -1.0546894
000050 30 15 21 c0 89 66 cd bf fd 68 49 bf 08 48 4d bf
       -2.5169182 -1.6046916 -0.78675824 -0.80188036
000060 29 b2 c8 bf 80 49 59 40 f2 df 9c bf 30 91 b5 bd
       -1.567937 3.395111 -1.2255843 -0.08865583
000070 0b 2a 64 bf 11 33 59 3f 61 64 b5 bf f3 90 a4 bf
       -0.8912665 0.84843546 -1.4171258 -1.2856735

encoder.conv1.q.weight f4 [16, 64]
000000 47 5a f4 3d 85 dc ac 3c e2 87 33 bf 8a 19 8b bf
       0.119312815 0.021101246 -0.70129216 -1.0867169
000010 9e 3c 97 bf e6 b1 37 be 7b 70 e9 bf ac 7b 7f bf
       -1.1815374 -0.17938957 -1.8237451 -0.99798083
000020 4b 1a 92 3d 0f 24 b6 bf 34 0d 8c bf 94 07 32 c0
       0.07133921 -1.4229754 -1.0941529 -2.7817125
000030 30 42 a0 3e db c4 6b 3f 8a 71 ac 3e db d5 14 c1
       0.31300497 0.9209725 0.33680373 -9.302211
000040 79 71 e8 be 44 49 11 c0 d8 55 b2 bf cd ef ed bf
       -0.45399073 -2.2700968 -1.3932447 -1.8588806
000050 15 1a 2a bf 0b 07 ba 3f 59 39 0d c0 71 67 81 3e
       -0.6644605 1.4533399 -2.2066252 0.25274232
000060 9b 48 7c bf 54 7f a5 3e e6 a4 06 bf 86 15 04 bf
       -0.9854829 0.32323706 -0.52595365 -0.5159534
000070 b1 c1 10 bf 69 a7 0b 3f 8b 3b d7 be b8 6d 32 bf
       -0.5654555 0.5455232 -0.42037615 -0.6969867
000080 31 32 6e bf 26 ff 7b be 08 4c 8a 40 53 94 69 3f
       -0.93045336 -0.2460905 4.321781 0.9124195
000090 6c 53 3b bf f2 1f 35 be 22 5d 29 bf 59 34 94 3f
       -0.73174167 -0.17687967 -0.66157734 1.1578475
0000a0 5d bd 69 bf 3c 9e ac 3f aa bb 98 3e 78 ec 20 40
       -0.9130457 1.3485789 0.29830676 2.514433
0000b0 9b 74 a9 be d8 75 09 bf ac bb 47 be 2d 39 12 40
       -0.33096775 -0.5369544 -0.19505185 2.2847397
0000c0 59 6b a6 bf bc cf 91 be b9 56 65 bf 12 6c 24 c0
       -1.300151 -0.284788 -0.89585453 -2.569096
0000d0 20 dd 9a 3f b4 33 78 3f ac e3 2a 40 e4 9f a6 3f
       1.2098732 0.9695389 2.670146 1.3017545
0000e0 4c 63 57 be d6 da 9a 3e b4 93 92 3f 7e 3c c1 be
       -0.21033973 0.30245084 1.1451325 -0.37741464
0000f0 8a ce 8b bf aa 1d 6c 3f e2 dc 94 be 83 f8 00 bf
       -1.0922406 0.92232764 -0.2907477 -0.503792
000100 6c 46 90 3e 35 72 b4 be 59 9e 53 c0 b9 77 df 3f
       0.28178728 -0.35243383 -3.3065398 1.7458411
000110 e7 1c 09 40 0e a6 e0 3e a8 8c 83 bf 64 1c 01 40
       2.142389 0.4387669 -1.02773 2.0173578
000120 f0 11 cb bf 52 55 8b bf b9 dd 08 3f ef 03 39 40
       -1.5864849 -1.0885413 0.5346332 2.890865
000130 92 af 94 c0 6c 89 11 40 31 79 fa 3f a7 95 54 42
       -4.646432 2.2740126 1.9568235 53.146145
000140 02 13 5a c0 e1 0c 16 3f 5c 5d 94 be 50 1b 03 40
       -3.4074101 0.586134 -0.28977478 2.048542
000150 f2 f8 4a 40 bd 2a 21 3e a1 df 6a bf e3 38 66 3e
       3.1714444 0.1573896 -0.9174748 0.22482638
000160 8f 32 94 3f 18 aa 83 bf 2a 4d 92 3f c7 12 6e 3f
       1.1577929 -1.0286283 1.1429799 0.929974
000170 fd f9 9d 3f e5 80 e0 bf 8e 22 81 3e 82 08 63 40
       1.2341915 -1.7539335 0.25221676 3.5473943
000180 8d c9 b9 3f 8b 51 70 3e 9b 4a a4 bf 21 ae 55 40
       1.4514633 0.23468606 -1.2835268 3.338753
000190 2e 6a d4 3f 75 c4 e0 bd 82 b8 b2 bf 78 cd c3 3e
       1.6594903 -0.10974971 -1.3962557 0.38242698
0001a0 3b 27 0a 3e f6 54 44 3f 8c 9a ac bf 94 f0 f4 be
       0.13491528 0.7669214 -1.3484664 -0.47839797
0001b0 ff 1c 84 c0 b4 22 a8 3f 1f 76 4d 40 9f 46 7a 40
       -4.1285396 1.313559 3.2103345 3.9105604
0001c0 9d d4 05 c0 ee 86 ef 3e 50 f8 4a be d7 a5 6d 40
       -2.091102 0.4678263 -0.19821286 3.713247
0001d0 2c ba a3 3f 4a 36 5d bf 29 70 8e be db f9 8f 3f
       1.279119 -0.86410964 -0.27819946 1.1248125
0001e0 0c e0 b7 3d ea ff 81 bf e3 aa cf 3f b1 01 ec 3e
       0.089782804 -1.0156224 1.6224025 0.4609504
0001f0 72 c2 ab 3f 8b 8b da bf ca f1 31 3e 5f c2 13 40
       1.3418715 -1.7073835 0.17377391 2.3087385
000200 da 1e f9 bf dc 56 12 bf b6 b5 5c 3f 31 d3 3b c0
       -1.946254 -0.57163787 0.8621477 -2.934765
000210 dd b9 a8 bf 18 df 99 3f 1b 20 a5 3e 55 8e 7a 3f
       -1.3181721 1.2021208 0.32251057 0.9787343
000220 23 8a a7 3e aa ac 56 40 17 87 47 c0 3c 6c b6 c0
       0.32722577 3.3542886 -3.1176202 -5.700712
000230 9b a1 5d bd 26 e1 08 40 4f 02 05 3f f0 64 b5 bf
       -0.054109197 2.138742 0.5195665 -1.4171429
000240 a5 4b ee be d1 c0 9a be 25 85 2b bf 47 57 4e 3f
       -0.46542087 -0.30225232 -0.6700004 0.80601925
000250 21 74 86 bf 39 52 e2 3f 79 aa a0 3f 81 a6 d0 bf
       -1.050419 1.7681342 1.2552024 -1.6300813
000260 87 14 98 3e 9d 20 7e c0 f2 e6 c2 3d 24 d5 6d c0
       0.2970316 -3.9707406 0.095167056 -3.716134
000270 32 d4 30 bf 44 c3 cf be 44 c6 01 c0 e8 be b8 bf
       -0.69073784 -0.40578663 -2.0277262 -1.443326
000280 4f 0c d4 bf d6 65 91 3e e6 95 b6 3f 63 0d 24 c0
       -1.6566256 0.28398007 1.4264495 -2.563317
000290 93 ce 8f bf d5 a7 93 bf 02 85 9b 3f 31 36 99 3e
       -1.1234916 -1.1535593 1.2149966 0.29924157
0002a0 07 f5 72 3f dd f5 1e 40 62 d2 d0 bf 2b 41 b9 bf
       0.9490513 2.4837563 -1.6314204 -1.4473013
0002b0 a2 56 fc 3f 22 bd b8 3f 3a 00 cc be cb 08 a8 40
       1.9713938 1.4432719 -0.39843923 5.2510734
0002c0 2f 8b 08 3d 87 6f 4a bf a8 27 41 3f 72 9b ec 3e
       0.03333586 -0.7907643 0.75451136 0.46212345
0002d0 b6 fe 27 3e ab 2f 3c 40 9a aa c7 3e 5f 0b 69 bf
       0.16405758 2.9404094 0.38997346 -0.91032976
0002e0 16 66 82 bf 38 da de bf 95 ba 9a bf ec d0 0e c0
       -1.0187404 -1.7410345 -1.208819 -2.2315016
0002f0 2a ca 8b 3f e9 09 a1 3f 96 a3 87 be de 5e 00 bf
       1.092107 1.2581149 -0.26491994 -0.50144756
000300 6d 1d 4c 3f 51 ae 02 be af f1 4c 3f f4 30 01 3e
       0.797324 -0.12761809 0.8005628 0.1261633
000310 19 8e 89 bf 7b fe ca 3f 66 f4 f1 3f fd 2b fa 3d
       -1.074649 1.5858911 1.890271 0.12215421
000320 6e e2 cd 3e 70 8d 31 3f c2 bc d9 3f 57 49 a9 bf
       0.40211815 0.6935644 1.7010729 -1.3225507
000330 73 52 a2 be 7c 01 9c 3f 78 e7 1d c0 42 5d 0f c0
       -0.3170353 1.2187953 -2.4672527 -2.240067
000340 c1 ea 2d 3f cc 84 16 3e fa 2d 91 3f 21 03 d1 3f
       0.6793633 0.14699095 1.1342156 1.632908
000350 ae 3e af be 32 dd 27 3e 57 15 b5 be d3 b5 f1 bf
       -0.34227508 0.16392973 -0.35367844 -1.8883613
000360 8a 3c 90 3e 74 dc ca be 1d bb 22 bf 4c a7 66 3f
       0.28171188 -0.39621317 -0.6356676 0.90099025
000370 ef d1 8f 3d 9d 54 7c 3f da 0d a0 3f 99 10 82 3e
       0.070224635 0.9856661 1.2504227 0.25403288
000380 f2 61 70 bf e8 66 7f bf eb b4 33 c0 20 62 97 c0
       -0.9389945 -0.997664 -2.8079174 -4.730728
000390 38 a7 b5 bf 8c 72 ce bf a4 7e b4 bc 3d 9c bb bf
       -1.4191656 -1.6128707 -0.022033043 -1.4657055
0003a0 ef 85 2e 3f 5a f4 bc 3f e8 2a 36 c0 ba 39 4c c0
       0.68173116 1.476207 -2.8463688 -3.1910233
0003b0 bd 80 38 bf dd fc ea 3f 10 d3 30 bf c2 eb b2 3f
       -0.7207144 1.8358418 -0.69072056 1.3978198
0003c0 39 14 ed be 69 2e 43 bf eb 5e 7d 3e 90 7c f5 bf
       -0.4630449 -0.7624269 0.2474324 -1.9178638
0003d0 73 a6 7e be 19 c0 f1 3d 88 ae 76 bf 81 62 be 3d
       -0.24868183 0.11804218 -0.96360064 0.09296132
0003e0 54 d1 c3 3f 40 0a 0f c0 3f 8f 0b c0 19 c0 f9 bf
       1.5298257 -2.2350006 -2.180618 -1.9511749
0003f0 da 91 8a bf 43 35 9c bf 9c 17 71 c0 bd b4 8e bf
       -1.082576 -1.2203754 -3.767066 -1.1148907

encoder.conv1.q.bias f4 [16]
000000 cd 33 37 3f cc 3b 06 bf 90 30 09 bf a4 f8 35 3f
       0.71563417 -0.5243499 -0.53589725 0.7108252
000010 b4 4e dd bf ab a8 e4 3f 4a 53 ff 3e 67 37 e9 bf
       -1.7289643 1.7863973 0.49868232 -1.8220032
000020 8a 82 65 bf 2b 21 18 40 0a ae b5 3e 2f 8e f8 3d
       -0.8965231 2.3770244 0.35484344 0.12136494
000030 e4 9b 81 c0 90 0c 16 40 29 78 e7 be 97 30 ce bf
       -4.0502796 2.3445168 -0.45208862 -1.6108578

encoder.conv1.k.weight f4 [16, 64]
000000 b2 e1 f6 bf 73 42 1e bf f3 7d a9 3e 38 34 d3 3f
       -1.9287627 -0.61820143 0.33103904 1.6500311
000010 a4 f3 3b c0 1f 98 15 3f 57 cd 91 bf 84 70 66 3f
       -2.9367456 0.58435243 -1.139079 0.90015435
000020 0d 04 c3 be dc 80 0d 40 ce 01 d4 bf 0f 2a 2c c0
       -0.38089028 2.21099 -1.6563051 -2.690067
000030 fa 80 24 40 98 f6 43 bf 93 8e 77 bf 3c 0d dd 41
       2.570372 -0.7654815 -0.96701926 27.631462
000040 52 61 11 40 94 e6 8c be 57 d8 4c bf 9a 44 60 40
       2.271565 -0.27519667 -0.8001761 3.504187
000050 1c 3c 95 bf 45 b1 02 40 e7 40 1d 3f 5f 1c c4 3f
       -1.1658969 2.0420697 0.6142716 1.5321158
000060 b5 ed 15 bf 11 70 3c 3f 9b a2 a6 3c a6 a8 12 bf
       -0.5856584 0.736085 0.020341208 -0.5728859
000070 fc 3a 69 bf 34 53 46 40 00 18 2e 3e 63 0a c4 bf
       -0.9110563 3.0988283 0.17001343 -1.531567
000080 89 70 f1 bf 09 c5 cf 3e 59 6d 00 c0 0a 40 71 3f
       -1.8862468 0.40580013 -2.006674 0.9423834
000090 fe be 0d c0 d7 50 17 3f cd 32 ea bb b1 74 2f 3e
       -2.2147822 0.59107727 -0.007147169 0.17134358
0000a0 fb 7c 69 bf da 40 c6 3e 55 31 e0 3e c4 f0 10 bf
       -0.9120633 0.38721353 0.43787637 -0.5661738
0000b0 0b 3a d0 3f 4b 6f c9 3f 90 37 84 bd 76 8b b6 3e
       1.6267713 1.5737089 -0.0645591 0.35653275
0000c0 77 6b 13 3f a8 85 d8 3e 76 cb b0 bf 4f 87 d9 3f
       0.57585853 0.42289472 -1.3812091 1.6994418
0000d0 26 0b 2e bf cb 4a b0 3f dd 87 ee bd e0 e3 c4 bf
       -0.6798576 1.3772825 -0.116470076 -1.5382042
0000e0 82 5d b7 3c 76 a5 c6 3d ec 98 d7 bf c0 c3 de bc
       0.022383455 0.09699528 -1.6843543 -0.02719295
0000f0 90 6f 35 bf 0b 00 1a 40 b2 18 52 3e d1 f9 93 bf
       -0.70873356 2.4062526 0.20517233 -1.1560613
000100 3f af f6 be 35 89 7b 3e 15 74 5a bf 31 70 5b c0
       -0.48180577 0.24564059 -0.8533338 -3.4287226
000110 6d f7 2c c0 06 8d f0 3d 0e 99 87 bf 94 b3 18 3f
       -2.7026017 0.11745648 -1.0593584 0.59649014
000120 f0 da af 3d 6d f8 94 c0 00 5b ee 3f a7 77 b8 3f
       0.08586681 -4.6553254 1.8621521 1.4411515
000130 16 48 22 40 7f 7b b5 3f 7c 61 7b bf e5 71 0e bf
       2.5356498 1.4178313 -0.98195624 -0.5564254
000140 0a 35 1f bf 1c fc 18 3f f6 1e 3f be 16 c3 9e bf
       -0.62190306 0.5975969 -0.18664154 -1.2403286
000150 08 a6 04 bf 0f 6c 08 3f 0a f3 3a c0 e8 96 9e bf
       -0.51815844 0.53289884 -2.921084 -1.2389803
000160 8a 8c 4f 3f 55 55 d5 be 50 08 ac 3e b6 b0 df be
       0.8107382 -0.41666666 0.33600092 -0.43689507
000170 32 47 34 3f 0c 72 50 3f 38 3e ff be 19 57 4f bf
       0.70421135 0.8142402 -0.49852157 -0.80992275
000180 22 6f b1 3e 80 e9 d8 be 9c 5b ed bf 71 c9 07 c0
       0.346551 -0.42365646 -1.8543582 -2.12167
000190 09 5f 30 c0 89 ce 9b 3f 90 e3 03 bf 5a fe 1b c0
       -2.7558005 1.2172405 -0.5151911 -2.4373994
0001a0 d4 0c 9c 3f 6e 90 b4 3f 51 39 99 3f c0 c5 74 3e
       1.2191415 1.4106576 1.1970617 0.2390356
0001b0 a2 a8 84 40 c7 ae 07 bf 70 43 8a bf 2f ab 04 c0
       4.145585 -0.53001064 -1.080183 -2.0729482
0001c0 09 63 8b 3e 2b 1e b7 bf d2 f1 9d bf d0 6c 87 bf
       0.27223995 -1.4306082 -1.2339423 -1.0580082
0001d0 b3 69 db be 53 ee 46 3e e5 93 76 c0 9e cd 6d bf
       -0.4285408 0.19426851 -3.8527768 -0.9289187
0001e0 01 93 be bc 32 75 9e 3f 4e 43 ee be 56 29 1c bf
       -0.023263456 1.2379515 -0.46535724 -0.61000574
0001f0 34 cf 03 3e 3f be 8e 3f 16 6e c8 be b8 52 35 bf
       0.1287201 1.1151809 -0.3914649 -0.70829344
000200 b6 43 3b bf 2b f8 bc bf 76 f2 9c c0 28 1b 90 c0
       -0.73150194 -1.4763235 -4.9045973 -4.503315
000210 10 82 8c 3d db 6a 42 bf 93 93 1f 3f 43 1a 06 c0
       0.06860745 -0.759443 0.62334555 -2.095353
000220 38 b2 7f bf f1 a6 c6 bf cf fc c0 3c 89 51 ae bf
       -0.99881315 -1.5519696 0.023558049 -1.3618633
000230 ff 39 18 40 2e 28 1f 40 89 2f a8 3f b3 fd b0 bf
       2.3785398 2.4868274 1.3139507 -1.3827423
000240 05 30 72 3f 3c 85 4e c0 67 4d d9 bf c3 71 5d 3c
       0.9460452 -3.226882 -1.6976746 0.013515892
000250 f7 53 86 3f c4 0a 0a 40 08 e2 8e 40 d8 4f 48 c0
       1.0494374 2.156907 4.4650917 -3.1298733
000260 1d 61 5b bf d1 43 42 40 97 8c 36 c0 9d 23 04 40
       -0.8569506 3.0353892 -2.852331 2.0646737
000270 7a d4 71 3f 8a d1 d5 3f 6c c7 01 40 bc 37 4c 40
       0.9446484 1.6704571 2.0277967 3.1909018
000280 38 fa 06 c0 b4 36 ec be 47 fd fe bf f0 19 33 bf
       -2.1090221 -0.46135485 -1.9921044 -0.6996145
000290 97 15 75 be be 8b 03 bf 34 4c 81 be 0c d7 41 c0
       -0.23934017 -0.51385105 -0.2525345 -3.0287504
0002a0 ff 6b 6e 3f 23 29 d4 3e 96 91 4e bf 24 d1 1a bf
       0.9313354 0.41437635 -0.80690897 -0.60475373
0002b0 39 8b 98 3d eb 96 10 40 7e 98 7d be f7 a6 1f 40
       0.074484296 2.2592113 -0.24765202 2.4945657
0002c0 c6 08 21 40 7e a5 3d c0 b1 66 32 bf e5 96 b1 3e
       2.5161605 -2.9632258 -0.69687945 0.34685436
0002d0 75 02 20 3f d3 b8 a8 3f c9 77 59 40 7b cd d4 bf
       0.6250375 1.3181404 3.397936 -1.6625208
0002e0 ed 7e 15 c0 1b a2 13 40 32 09 b7 3e ba 21 74 3f
       -2.335872 2.3067691 0.35749203 0.9536396
0002f0 1b 95 dd bd f8 58 69 3f c8 5c 01 40 3c 50 94 3f
       -0.10819455 0.9115138 2.021288 1.1586986
000300 2f 39 a6 3f 7b 15 36 3f 62 eb 4d 40 32 9a 25 bf
       1.2986201 0.71126527 3.2174916 -0.6468841
000310 a6 bf 5e bf 53 ab 52 c0 6d 5f 4c bf fa fe 02 3e
       -0.8701118 -3.2917068 -0.7983311 0.12792578
000320 4a f3 1a 3f af 62 45 3f 87 23 e5 be d8 68 e2 bf
       0.6052748 0.77103704 -0.44753668 -1.7688246
000330 70 6c ce 3f 0c e5 78 be 0e 26 6e ba a7 35 a3 bf
       1.6126842 -0.24306124 -0.000908465 -1.2750748
000340 c1 9b bb 3f c9 ca 84 3f 39 c1 89 3f cc ca 94 3f
       1.4656907 1.0374385 1.0762092 1.1624389
000350 97 8f 9f bf 40 7a 99 3f 7f 9d d6 3f bc 90 ba bf
       -1.2465695 1.1990433 1.6766814 -1.457542
000360 7a aa 8d bf ae a5 04 3f 19 0f 29 bf 6c df ab 3f
       -1.106765 0.5181531 -0.6603866 1.3427558
000370 13 cc 0b 3d 3e 00 bb 3f 33 d5 31 3f 86 4b fd bf
       0.034130167 1.4609449 0.6946594 -1.9788673
000380 fd 4c 23 40 9c b9 73 3f 50 43 b9 3f d2 1e 7d 3f
       2.551574 0.9520509 1.4473667 0.98875153
000390 92 1e 80 3f 8b 42 41 40 d3 9c 4f 3f ac 17 9d 3e
       1.0009329 3.0196865 0.8109867 0.30682123
0003a0 c1 93 1c be c6 89 b8 bf c7 b0 95 40 ba 8d 0e 40
       -0.15290739 -1.4417045 4.6778293 2.2274003
0003b0 ec e3 20 40 00 d9 59 3e c5 9a 0a 40 90 91 2f 40
       2.5139112 0.21274185 2.1656964 2.7432594
0003c0 93 39 d9 be df a9 1c c0 9d fa 81 bf ff 48 a7 3f
       -0.42426738 -2.447868 -1.0154606 1.3069152
0003d0 41 a8 ac be 38 19 56 3f 3d 98 7c 40 86 ff 60 bf
       -0.33722118 0.8363223 3.946792 -0.878899
0003e0 fb 2f 0a c0 f6 a2 13 3f 02 c5 af be ec 47 4d 40
       -2.1591785 0.57670534 -0.34329993 3.2075148
0003f0 97 62 e7 3d 13 f9 8c 3f 73 37 1f 40 12 39 f5 3f
       0.112981014 1.1013511 2.4877594 1.9158041

encoder.conv1.k.bias f4 [16]
000000 54 16 af 3e 1b 39 c3 3f ca b7 b3 bf 18 6f d2 3f
       0.34196723 1.5251802 -1.4040463 1.6440153
000010 53 b5 cd bf 6f 48 b4 bf cf d9 90 bf b8 8f 98 be
       -1.6070961 -1.4084605 -1.131647 -0.2979715
000020 3b 17 7d 3d 8e 63 4e 3f 6d 18 25 3e f1 c6 f7 3f
       0.061789732 0.8062066 0.16122599 1.9357587
000030 5b 5d 78 bf 1e ef 2b 3f 3b 73 2b bf 5b 5a 17 3f
       -0.9701745 0.6716174 -0.669727 0.59122247

encoder.conv1.v.weight f4 [16, 64]
000000 7e e6 a1 3f b3 e7 8b 3d d5 dc 07 c0 74 0b 09 40
       1.2648466 0.068313025 -2.1228535 2.141324
000010 10 1d 7d bf 6b 1a da 3e 8d 9e 98 bf 34 65 97 3f
       -0.9887247 0.4259828 -1.1923386 1.182776
000020 d7 90 a6 bf 64 dd 61 c0 d2 d6 aa 3e 4c 39 03 40
       -1.3012952 -3.5291376 0.3336702 2.0503721
000030 6d 37 e7 3f 59 2b da c0 e5 8b f8 bf ea a4 93 c0
       1.806379 -6.8177915 -1.9417692 -4.613881
000040 d9 87 d7 bf c4 63 f3 3e 43 81 fd bf ac 54 a7 bf
       -1.6838332 0.47537053 -1.9805073 -1.3072715
000050 db 52 2a 40 a0 74 ca bf cd da 9b 40 96 3b d8 3f
       2.661307 -1.5816841 4.870459 1.6893184
000060 12 d8 a8 be d4 83 91 3c f8 60 22 bf e9 74 86 be
       -0.3297735 0.017763056 -0.6342921 -0.2626107
000070 86 05 6b bf 5b e9 19 40 ad e5 0d bf 68 50 2c c0
       -0.91805303 2.404868 -0.5542858 -2.6924076
000080 2a 59 35 40 35 46 14 bf d3 35 a1 bf a4 c6 77 3f
       2.8335671 -0.5791963 -1.2594551 0.96787477
000090 aa 80 2e bf d9 08 2e 3e 18 9f d9 bf a5 f4 2d bd
       -0.68165076 0.16995563 -1.7001677 -0.04246964
0000a0 fc 17 02 bf ac 3f d4 c0 df 44 6c be fc 49 1b 3f
       -0.5081785 -6.6327724 -0.23073147 0.60659766
0000b0 66 ed a8 3f 43 d0 e6 c0 23 57 a8 be 48 a3 d4 bf
       1.3197448 -7.2129226 -0.3287898 -1.661233
0000c0 b8 83 86 bf b5 a2 2a 3f 42 89 97 bf 1c be 23 bf
       -1.0508947 0.6665452 -1.1838763 -0.6396196
0000d0 8e 5d 5c 3f cb 45 cd bf 51 72 42 40 50 81 88 3f
       0.86080253 -1.6036924 3.0382273 1.0664463
0000e0 cb eb 41 3c 8a 65 cb bd f7 47 19 bf d2 a6 1d be
       0.011836003 -0.099314764 -0.59875435 -0.15395668
0000f0 df 15 01 bf a0 f3 cd 3f 3d b9 a3 be bc 51 bf bf
       -0.50424 1.6089973 -0.31977263 -1.4946818
000100 3e 1e 0f 3f 46 90 09 be aa 41 6a c0 6f 62 99 bf
       0.5590552 -0.13433942 -3.6602578 -1.1983165
000110 cb 55 6f 40 a4 6b 9b bf 17 51 80 c0 f5 75 ae bf
       3.7396114 -1.2142224 -4.0098987 -1.3629748
000120 b8 5d 22 3d 06 b0 56 bf ec fc 7a 3f fa c1 0c c0
       0.03964016 -0.8386234 0.9804218 -2.1993394
000130 00 b5 a6 c0 7d f6 a3 bf d7 04 60 40 21 fb 5c bf
       -5.2095947 -1.2809597 3.5002954 -0.8632069
000140 2e 81 3c c0 83 89 df be 87 2b d3 3d 19 98 dc 3f
       -2.9453845 -0.436596 0.103110366 1.7233917
000150 de ee c2 be 9d 3a 06 bf 6f 7b 4d c0 79 0a d4 be
       -0.38072866 -0.52433187 -3.2106588 -0.4141424
000160 19 d8 50 3f 21 2e 36 c0 bb a4 df be 53 c7 76 3f
       0.8157974 -2.8465655 -0.43680367 0.96397895
000170 0d bc 72 3f 7d 87 83 c0 60 df cd be 23 54 86 40
       0.9481819 -4.110289 -0.40209484 4.1977706
000180 6f 4f 86 bf 72 6f b9 3f 2d 50 a9 40 77 c4 0d bf
       -1.0492991 1.4487135 5.291037 -0.55377907
000190 41 71 3b 40 7b aa 2f c0 f9 e9 67 c0 c7 2c ac 3e
       2.9287875 -2.7447803 -3.6236556 0.33627912
0001a0 dd 40 d8 3e 16 a3 46 bf ec d5 76 be 6f f9 f4 3e
       0.42236987 -0.775926 -0.24105042 0.47846553
0001b0 55 e8 b3 c0 25 3b 27 40 0a 08 1e 3f 44 be bb 40
       -5.622111 2.612985 0.61731017 5.866976
0001c0 4f e7 9d bf 20 8f c2 3d d8 b4 53 3f 31 6e b8 3f
       -1.2336215 0.09499955 0.8269782 1.4408628
0001d0 3a 6c 0f 3f 33 f1 9f 3f ac 8a 48 3f 66 1b d5 3e
       0.56024516 1.2495483 0.78336596 0.41622466
0001e0 4f b2 95 be 15 e6 9a bf be 62 ce 3e 52 8c 50 3f
       -0.292376 -1.2101465 0.4030971 0.8146411
0001f0 19 e7 87 3e 15 20 4d c0 e2 b5 99 bd 5e 6c 3e 40
       0.265435 -3.2050831 -0.075053945 2.9753642
000200 04 64 8a 3e 82 c7 41 3f b7 8d 5d c0 34 da d9 c0
       0.2702943 0.7569505 -3.4617746 -6.807886
000210 58 9e 5b c0 d8 60 bc bf 57 8f 49 3f 2b aa 6b bf
       -3.4315395 -1.4717054 0.78734344 -0.9205653
000220 4d 64 fd be f9 bb 39 c0 f4 a9 92 3f 7b 68 b7 be
       -0.49490586 -2.902098 1.1458116 -0.358219
000230 6d 73 00 41 81 05 45 bf 47 14 93 c0 f7 09 27 3f
       8.02818 -0.76961523 -4.5962253 0.6524958
000240 7f a0 19 40 25 d1 07 c0 69 37 20 bf 34 eb b7 c0
       2.400421 -2.1221402 -0.6258455 -5.7474613
000250 96 ea 21 3f 4c 75 a4 be 8d 11 c3 40 e6 6a d7 bc
       0.63248575 -0.3212074 6.0958924 -0.02629609
000260 ac 84 2d bd 43 ac 6e 3f 55 55 38 c0 6e 66 84 bf
       -0.042362854 0.932316 -2.8802083 -1.0343759
000270 1e 47 0c c0 45 06 d2 40 98 e0 5d bf ae a2 ad c0
       -2.1918406 6.5632653 -0.8667083 -5.4261084
000280 fa 70 c4 be 09 e0 b1 3e ca 78 f8 bf ed 34 21 c0
       -0.38367444 0.34741238 -1.9411862 -2.5188553
000290 73 e0 09 c0 bb 26 87 be 36 d5 5b 3f f2 29 c2 bc
       -2.1543243 -0.26396737 0.8587221 -0.023701642
0002a0 31 80 a1 3e a9 74 00 c0 30 f5 d6 3f d0 f5 58 40
       0.31543115 -2.0071204 1.6793575 3.3900032
0002b0 8f e2 d9 40 2e af ba 3e f0 ad d4 c0 61 65 dc 3f
       6.808906 0.36461776 -6.6462326 1.7218438
0002c0 62 73 59 40 c5 11 1d c0 12 10 be 3f e1 8d b7 c0
       3.3976674 -2.4542096 1.4848654 -5.736069
0002d0 71 46 80 3e 68 a0 0f bf 76 48 89 40 6c 48 37 3d
       0.25053743 -0.56104136 4.2900953 0.0447468
0002e0 8c 0b 43 bf bf c6 ec 3f 1c f3 fa be 31 59 34 bf
       -0.76189494 1.8498152 -0.49013603 -0.70448595
0002f0 2a b4 21 c0 6e 17 b6 40 df 8d 2a be 22 4a 85 c0
       -2.5266213 5.69036 -0.16655682 -4.1652994
000300 85 69 e9 bd ff 4e c8 3e 73 a9 a8 3f d6 d8 21 c0
       -0.113970794 0.3912277 1.3176712 -2.5288596
000310 b7 ac 54 40 79 c5 6b 40 fe c8 08 c0 e5 75 04 40
       3.3230417 3.6839278 -2.1372676 2.0696957
000320 9c cf 11 c0 61 ec ef bf 90 16 ab bf 65 31 10 41
       -2.2782965 -1.8744012 -1.336626 9.012059
000330 58 f5 02 c0 e2 00 2b c0 15 b1 c9 3f a6 ef a2 40
       -2.0462246 -2.671929 1.5757166 5.091754
000340 fd 4f 19 c0 ab d6 cc 3e 46 bb 4b 3f 91 15 9d c0
       -2.395507 0.4000753 0.7958263 -4.9088826
000350 08 4c 67 3f e5 6a 07 40 75 c6 92 c0 63 46 af 3e
       0.9035039 2.1158993 -4.5867257 0.34233388
000360 23 db 75 3f dd 42 2c 40 8f cb 3e 40 b2 47 af 3f
       0.960375 2.691581 2.9811742 1.3693755
000370 94 dd 4a bf f7 3e 1c 3f a4 ae b6 3e f7 14 d0 3f
       -0.7924435 0.61033577 0.35680115 1.6256398
000380 40 d7 5b 40 91 c5 97 3f 22 60 58 40 90 2b 76 bf
       3.4350128 1.1857167 3.3808675 -0.9616022
000390 fa a5 55 40 dd 2f ca 3f 9c e2 1c bf e2 e3 d9 3f
       3.3382554 1.5795857 -0.6128328 1.7022669
0003a0 23 c4 d5 3f 44 29 f4 3f 1a 49 55 c0 b4 29 7e 40
       1.6700481 1.9075093 -3.3325868 3.9712954
0003b0 95 5f 74 bf fe df cd c0 bc fb 23 40 48 28 26 3e
       -0.95458347 -6.433593 2.5622396 0.16226304
0003c0 9d 8d 80 bf 34 73 33 3e c0 1d 56 3f f4 84 91 c0
       -1.0043217 0.17524415 0.83639145 -4.5474796
0003d0 20 50 d5 bd fa 74 dd bf 61 84 ef be 8a 88 5b 3f
       -0.10415673 -1.7301323 -0.46780685 0.8575522
0003e0 0c 9c 95 bf 6f 7b 89 3f 9d 98 80 3f d5 5a d1 3e
       -1.1688247 1.0740794 1.0046574 0.40889612
0003f0 b7 5a d5 3e a4 33 3a bf 71 a8 78 bf 86 27 08 40
       0.41670772 -0.7273505 -0.9713202 2.1274123

encoder.conv1.v.bias f4 [16]
000000 7b 38 c0 3f c3 4a 5e 3f 22 36 7e bd 31 c8 4e c0
       1.5017236 0.8683283 -0.062063344 -3.2309687
000010 0f 3b 07 3f db 2e 43 c0 3c 5d 3e be 07 ab c8 3f
       0.5282449 -3.0497348 -0.18590254 1.5677193
000020 cd 6c 24 40 a2 d2 9b be 90 4b 34 bf a6 ff 84 3f
       2.5691407 -0.30434138 -0.704278 1.0390518
000030 87 07 03 40 c6 24 4f 40 2f 39 c6 3f 78 e4 b4 3f
       2.0473344 3.2366195 1.5486201 1.4132223
