trained_model/model_epoch373.chrom11.pkl (torch, 41775 bytes, 18 tensors)

encoder.conv0.q.weight f4 [32, 28]
0	0x3fd3f605	1.6559454
1	0x3fb48269	1.4102298
2	0x3f960d6a	1.1722844
3	0x3faeed40	1.3666153
4	0xbf9ac185	-1.2090307
5	0xbf1baa8b	-0.608071
6	0x3f324ce8	0.696486
7	0x3d8b7cc3	0.06810906
8	0xbf01e365	-0.507376
9	0xbe275425	-0.16340692
10	0x3fa87e4e	1.3163545
11	0x3fa773fd	1.3082272
12	0x3fda5edc	1.7060199
13	0x3fcce281	1.6006624
14	0xc1856f93	-16.67948
15	0xc17fe7b1	-15.994065
16	0xc0a8c6d2	-5.27427
17	0x3f6bd224	0.92117524
18	0xbe0a1398	-0.13484037
19	0x3fa37cfa	1.2772515
20	0x40ff212f	7.9728007
21	0x3f5aefe9	0.85522324
22	0x3d35ef6f	0.044417795
23	0x3fd2deec	1.647428
24	0xc0386922	-2.8814168
25	0x3f06fa54	0.5272572
26	0xc00a43ab	-2.1603801
27	0x400f6f88	2.2411823
28	0x3e36f470	0.17866683
29	0x3eb63b85	0.35592285
30	0xc03fa501	-2.994446
31	0xbf3d13d9	-0.7385841
32	0xbecb10b7	-0.3966119
33	0xc01b4c98	-2.42655
34	0xc0454a1c	-3.0826483
35	0xbffaeda0	-1.9603767
36	0xbf5c625e	-0.86087596
37	0xbedba0b5	-0.42896047
38	0xc017aa31	-2.3697627
39	0xc06dbdae	-3.7147021
40	0xc0580523	-3.3753135
41	0xc06bfd68	-3.6873417
42	0xc06842c2	-3.6290746
43	0xc096e48e	-4.7153997
44	0xc09beacf	-4.872413
45	0x3f7b0a7f	0.9806289
46	0x3cbfb8c5	0.023403535
47	0x3f3e9df7	0.74459785
48	0xc09c03d8	-4.875469
49	0xbc8b882a	-0.017032702
50	0xbf81f847	-1.0153893
51	0x3fabff64	1.3437314
52	0x3ed057b7	0.4069192
53	0xc02088e6	-2.5083556
54	0xc035326f	-2.8312032
55	0xbdbc0e74	-0.09182444
56	0x3f294f52	0.6613666
57	0x3f768a88	0.9630513
58	0xbf3c8e9b	-0.736551
59	0xbfcd91be	-1.6060102
60	0x3dc99118	0.098421276
61	0xbc6b43df	-0.014359443
62	0xbf68d095	-0.9094327
63	0x3f072632	0.52792656
64	0xbea4c8db	-0.3218449
65	0x3e971bdd	0.29513445
66	0x3e9b06be	0.3027858
67	0xbf9d02c1	-1.2266465
68	0xbe4cb842	-0.19992164
69	0x3dcf13f9	0.10111231
70	0x41845cc5	16.545298
71	0x4167ff8c	14.499889
72	0xc074e384	-3.8263865
73	0xbf9d956c	-1.2311225
74	0xbf416ab4	-0.7555344
75	0xbd95fc1a	-0.07323475
76	0xc10a23df	-8.633758
77	0x3f3a0792	0.726678
78	0xbee8728e	-0.45399898
79	0x3f0b919f	0.54519075
80	0xc0b54bbb	-5.6654944
81	0x401f55d6	2.489614
82	0x40380351	2.8752024
83	0x40af962a	5.4870806
84	0xbf66804d	-0.9003952
85	0xbf2ff5f4	-0.6873467
86	0xbecea42d	-0.4035963
87	0x3ed13b3c	0.40865505
88	0xbd0e3c55	-0.034725506
89	0xbf92c761	-1.1467096
90	0xbee91c78	-0.45529532
91	0xbf9a6f1c	-1.2065158
92	0x3f60106c	0.8752506
93	0xbfcb4d85	-1.5883032
94	0xbc74b3d8	-0.014935456
95	0xbe306acb	-0.17228238
96	0x3e2944a0	0.16530085
97	0xbe3e5570	-0.1858728
98	0x4101a616	8.103048
99	0x40a9a74d	5.3016725
100	0xbf4af4e3	-0.7927992
101	0x3d31758d	0.043324996
102	0x3d4a3fbe	0.049377196
103	0xbfb10a49	-1.3831264
104	0x406fd6d7	3.7474878
105	0xbf943d8d	-1.1581284
106	0xbf813f22	-1.0097392
107	0xbda508f5	-0.08058349
108	0x3ea64d7f	0.32481
109	0x3f7298bd	0.9476431
110	0x406753e0	3.6144943
111	0x3f5e7474	0.86896443
112	0x3f9f6e45	1.2455527
113	0x3fac8f13	1.3481163
114	0x402e6910	2.7251625
115	0x3ed5716a	0.4168809
116	0x3f2db19f	0.67849153
117	0x4069ce64	3.653222
118	0x401ff3b5	2.4992497
119	0xbfb0ed70	-1.382246
120	0x3f433221	0.76248366
121	0x3faf02d6	1.367274
122	0x4051b75c	3.2768164
123	0x40529a6d	3.2906754
124	0x404f8e36	3.2430549
125	0x4031ea0c	2.77991
126	0x4085b0a5	4.177813
127	0x4120f738	10.060356
128	0x3f273b6f	0.65325063
129	0x3ef83564	0.48478234
130	0x3e351ccd	0.17686768
131	0x3f743526	0.953936
132	0xc025181d	-2.5795968
133	0x3e8f8fca	0.2803939
134	0x3eb44e6c	0.3521608
135	0x3eb246a2	0.34819514
136	0x4030c56d	2.76205
137	0xc00d8168	-2.2110233
138	0xbfc59bb4	-1.5438142
139	0xc0635cd1	-3.55254
140	0x3f2ada19	0.6673904
141	0x3eb11be3	0.34591588
142	0x3f9d49b6	1.228812
143	0xbf226c91	-0.6344691
144	0x3e4573a0	0.19282389
145	0x3ebb9dde	0.3664388
146	0x3fef868f	1.8712939
147	0xbe7e44db	-0.24830954
148	0xbda644f1	-0.08118618
149	0x3f8178e4	1.0115018
150	0xbf75c750	-0.9600725
151	0x3dbf4008	0.09338385
152	0x3e8e1b35	0.27755132
153	0x3f82510a	1.0180981
154	0xc0f1c402	-7.5551767
155	0xc096e5cd	-4.715552
156	0x4093bdb9	4.6169095
157	0xbf8567ea	-1.0422337
158	0x3fb1530b	1.3853468
159	0x3f03a93c	0.51430106
160	0x40ebd6ae	7.369956
161	0xbd6549fc	-0.05597876
162	0x400119f9	2.0172102
163	0xbe258f23	-0.16167884
164	0x4092400d	4.5703187
165	0xbf9b3d00	-1.2127991
166	0xbfc8b617	-1.568057
167	0xc0a758d7	-5.2295947
168	0xbfe32a01	-1.7747194
169	0xbff48139	-1.9101936
170	0x3d73af1a	0.05949316
171	0xbf346ec8	-0.7048154
172	0xbe31396d	-0.17307062
173	0xbe3accd7	-0.18242203
174	0x3f07185b	0.5277154
175	0x4006bd53	2.1053054
176	0x3f8a4fed	1.0805641
177	0x3f4136db	0.7547433
178	0xbf8a8f40	-1.0824966
179	0xbf26ddcd	-0.6518219
180	0xbf540284	-0.8281634
181	0xbeef21fc	-0.46705616
182	0xbff4a3fa	-1.9112542
183	0x4007bac6	2.1207747
184	0xc0d53273	-6.6624084
185	0xbedc30eb	-0.4300607
186	0x3f05ae0e	0.5221871
187	0xbfd415ec	-1.656919
188	0x3f7432a9	0.953898
189	0x3fdc107e	1.7192533
190	0xbf79de18	-0.97604513
191	0x3fd1ea76	1.6399677
192	0x3f9ad98f	1.2097644
193	0xc09655b1	-4.6979604
194	0xc0e6e595	-7.215525
195	0xbf081c32	-0.5316802
196	0x3ebcb7ab	0.36858878
197	0x3ec3d85e	0.38251013
198	0x3fae89d1	1.3635808
199	0xbecda98a	-0.4016841
200	0xbe310466	-0.17286834
201	0x3f034de1	0.5129071
202	0x3fc37d6a	1.5272648
203	0x3eb0c3bf	0.34524342
204	0xbedcb420	-0.43106174
205	0xbc1c6ca9	-0.009547391
206	0xbfaa397c	-1.3298793
207	0x3db86235	0.090031065
208	0x3e76c5ce	0.24098894
209	0x3f2ede94	0.6830838
210	0xc1570e12	-13.440935
211	0xc1532d6c	-13.198589
212	0xc0121b8c	-2.2829313
213	0xbf2fdd4d	-0.68697053
214	0x3d512180	0.05105734
215	0x3ed789a8	0.4209721
216	0x3ed41140	0.4141941
217	0x3d8b404c	0.06799373
218	0x3bd4f2a4	0.0064986516
219	0x3c7d6f6e	0.015468461
220	0x41375fcc	11.460888
221	0xbfbeb1ee	-1.489805
222	0xbfd30356	-1.6485393
223	0x3fe4b818	1.7868681
224	0x3eeabe8f	0.4584851
225	0x3e866dfb	0.26255783
226	0xbf5ad2a3	-0.85477656
227	0xbd839b9c	-0.064261645
228	0x3d055b8c	0.03255801
229	0xbd2015ac	-0.039083168
230	0xbf845351	-1.0337926
231	0x3e277e25	0.16356714
232	0x3cdb8b67	0.02679987
233	0x3e9ccf28	0.30626798
234	0x3f11b701	0.56919867
235	0xbf0c9a35	-0.549228
236	0xbefcb836	-0.49359292
237	0xbf9925f4	-1.1964707
238	0x3f86d4cb	1.0533689
239	0xbf64b531	-0.89338976
240	0x3fdde15c	1.7334399
241	0x3e4ba538	0.19887245
242	0x3cb5090e	0.022099044
243	0x3e15f736	0.14645085
244	0xbf86279b	-1.0480837
245	0x3e679e0e	0.22618887
246	0x3ccab399	0.024743842
247	0x3e7e95eb	0.24861877
248	0x3e2fbcc8	0.17161858
249	0xbf329f02	-0.69773877
250	0xc013d4f8	-2.3098736
251	0x3e5fb6cb	0.21847074
252	0x3c78fb07	0.015196568
253	0x3db46532	0.08808364
254	0x3faabeb3	1.3339447
255	0x3d955cd3	0.072930954

encoder.conv0.q.bias f4 [32]
0	0x3d47ff53	0.04882748
1	0xbfad12f0	-1.3521404
2	0x3efbfe04	0.49217236
3	0x3e3703ee	0.17872593
4	0x40709faa	3.7597451
5	0xbf215e06	-0.63034093
6	0xbf51467f	-0.81748194
7	0xbf440143	-0.76564425
8	0x3f4490b7	0.7678332
9	0xbf6a4d57	-0.9152426
10	0x3e04c2a7	0.12964879
11	0xbe7aa035	-0.24475177
12	0xbde13616	-0.10996644
13	0x3fc1c5fe	1.5138547
14	0x3f1d1d06	0.6137241
15	0x402b34b2	2.6750913
16	0x3fd2c10a	1.6465161
17	0x3f8746d9	1.0568496
18	0x3e400c98	0.18754804
19	0xbf41e02d	-0.7573269
20	0x3f9559f5	1.1668078
21	0xbfe11c1c	-1.7586703
22	0xbf96fd8a	-1.1796124
23	0xbf7eb946	-0.99501455
24	0xbf0a15d6	-0.5393957
25	0x3fc1872d	1.5119377
26	0x3f8e2a23	1.1106609
27	0x3f6268ac	0.88440967
28	0x3c80eb8f	0.015737323
29	0xbf94866d	-1.1603523
30	0xbf6cd308	-0.9250951
31	0x3f617094	0.88062406

encoder.conv0.k.weight f4 [32, 28]
0	0xc01cd636	-2.4505744
1	0xc0369776	-2.8529944
2	0xbe898e86	-0.2686655
3	0xbfae93b9	-1.3638831
4	0x3f823d8d	1.0175034
5	0xbee756fe	-0.45183557
6	0xbc07e5c6	-0.008294528
7	0x3f533504	0.8250277
8	0xbed5bd0f	-0.41745803
9	0xbec12516	-0.37723607
10	0xbf066e7f	-0.52512354
11	0xbf48592f	-0.78261083
12	0x3d894c16	0.06703965
13	0xbe97e5a9	-0.29667404
14	0xc175b3b9	-15.356378
15	0xc1581fb7	-13.507743
16	0xc025dd7c	-2.5916433
17	0xbf84e6c3	-1.0382923
18	0x3e116aab	0.14200847
19	0xc04a6e1a	-3.16297
20	0xbfb9fe6e	-1.4530771
21	0xbfab5ab8	-1.338706
22	0xbfb6bdd5	-1.4276682
23	0xc064fa29	-3.5777686
24	0x3f9f5a52	1.2449439
25	0x3fc6740e	1.5504167
26	0xc046b743	-3.1049354
27	0xbffab417	-1.9586209
28	0xbe7a5f30	-0.24450374
29	0x3dd664a0	0.104684114
30	0xbf9d0ec2	-1.2270129
31	0x3dd99e19	0.10625858
32	0x3d4a8b97	0.04944953
33	0xbd387f3b	-0.04504321
34	0xbfd85e6c	-1.6903815
35	0x3e034dbc	0.12822622
36	0x3e838056	0.2568385
37	0xbdc099c3	-0.09404328
38	0x3f440837	0.76575035
39	0xbf153f8d	-0.58300096
40	0xbf6e8609	-0.9317327
41	0xbf9cd923	-1.2253765
42	0xc217681e	-37.851677
43	0xc2558b1a	-53.38584
44	0xbfad56f3	-1.354216
45	0x3d15f6ac	0.036612198
46	0x3d57a4f5	0.05264755
47	0xbc483e97	-0.012221954
48	0xbf941b9d	-1.1570927
49	0x3d1d24cd	0.038365174
50	0x3e029fe4	0.12756306
51	0xbd8f7429	-0.07004578
52	0xbdf03341	-0.11728526
53	0xbf0fe6d6	-0.562116
54	0xbcca8b27	-0.024724556
55	0x3ece4ed2	0.4029451
56	0xbf42b135	-0.76051646
57	0xbeef2b50	-0.46712732
58	0x3fcdf955	1.6091715
59	0x3f5359e4	0.8255904
60	0xbddf1e81	-0.1089449
61	0x3f1f2212	0.6216136
62	0x3f2eb464	0.68244004
63	0xbf358411	-0.7090464
64	0x3eb21ac0	0.34786034
65	0xc0073691	-2.1127055
66	0x3dc9b269	0.09848482
67	0xbe66b8b4	-0.22531396
68	0x3f16d4af	0.5891828
69	0xbcbe24ea	-0.023210961
70	0xc12c1182	-10.754274
71	0xc136abd9	-11.416955
72	0x406a3833	3.6596801
73	0x3f490c32	0.78534234
74	0x3f3fcff1	0.7492667
75	0x3f3384c6	0.7012447
76	0x40c89320	6.2679596
77	0xbe84c5bb	-0.25932106
78	0x3e0f1d93	0.13976125
79	0xbfc27ffb	-1.5195307
80	0x3f947d56	1.160075
81	0x3fcac509	1.584138
82	0x404df993	3.2183578
83	0x4031e6e1	2.7797167
84	0x3deb8b38	0.11501163
85	0x3e3a0efb	0.18169777
86	0xbfb8f060	-1.4448357
87	0x3f741bad	0.9535473
88	0xbe48b91c	-0.19601864
89	0x3f35b6f0	0.70982265
90	0xbf9b12b5	-1.2115084
91	0xbf70c91a	-0.94056857
92	0x3f6502ac	0.894572
93	0xbf279a1b	-0.6546952
94	0xbee60718	-0.44927287
95	0xbf16d10a	-0.5891272
96	0xbf5a8f49	-0.85374886
97	0xbee82b5b	-0.45345578
98	0x3f9fc78c	1.2482772
99	0xbfc10927	-1.5080918
100	0x3fab17b8	1.3366613
101	0x3f06c7ac	0.52648425
102	0xbd1668fb	-0.03672121
103	0x3ea36304	0.3191148
104	0xc01cd970	-2.4507713
105	0xbf3b4d63	-0.7316496
106	0xbff70079	-1.9297019
107	0x3f082752	0.53185
108	0x3ea6c962	0.32575518
109	0xbf3daf04	-0.7409518
110	0x409dba62	4.929002
111	0x3fb46077	1.4091939
112	0x3e452f39	0.19256295
113	0x3e66285d	0.22476335
114	0xbf7a8065	-0.97852165
115	0xbe9f4b56	-0.31112164
116	0x3d1f88f9	0.038948987
117	0x3ea7e00f	0.3278813
118	0xbfbec9e2	-1.490536
119	0xbd84fdef	-0.064937465
120	0x3e1043a0	0.14088297
121	0xbeffecc8	-0.49985337
122	0x3fc90736	1.5705326
123	0x3e8ba15e	0.2727155
124	0x3e418f5f	0.18902348
125	0xbf86979d	-1.0515019
126	0xc1d3ca67	-26.47383
127	0xc1fd6309	-31.673357
128	0xc07fa9fc	-3.99475
129	0xbecafd53	-0.39646396
130	0xbcd3a297	-0.025834365
131	0x3f5230d6	0.8210577
132	0xc084b656	-4.147258
133	0x3b8fe3a0	0.0043911487
134	0xbd7e2bb7	-0.06205341
135	0xbebb03d2	-0.36526352
136	0xc0d9a30b	-6.8011527
137	0xbf130cc1	-0.57441336
138	0xbeaa0410	-0.33206224
139	0xc02a501e	-2.66114
140	0xbee71793	-0.45135173
141	0xbf0c19b8	-0.54726744
142	0x3fad977a	1.3561852
143	0xbe822398	-0.2541778
144	0x3d33c358	0.043887466
145	0xbd1a7ed3	-0.037718605
146	0x3f8a1a00	1.0789185
147	0xbeea2c96	-0.4573714
148	0xbd107d4f	-0.035275754
149	0x3ed46a3c	0.414873
150	0xbfc366c6	-1.5265739
151	0x3dba3e59	0.09093923
152	0x3e442435	0.19154437
153	0x3f842704	1.0324407
154	0xc04db8ab	-3.2143962
155	0xbf001c78	-0.5004344
156	0x404d06d3	3.2035415
157	0x3f9c5468	1.2213259
158	0xbf119a55	-0.56876117
159	0x3fd6d074	1.6782365
160	0x4040c370	3.0119286
161	0x3f3365f6	0.70077455
162	0xbfd7125c	-1.6802478
163	0xbf3c26c5	-0.7349666
164	0x40d86b39	6.7630887
165	0xbfa3f96f	-1.2810496
166	0x3d88e5d9	0.06684465
167	0x40037fd5	2.0546772
168	0xbf39845e	-0.724676
169	0xbf89c1b0	-1.0762234
170	0x3eb5c6e0	0.35503292
171	0xbdcb124d	-0.099156
172	0x3d1f669d	0.03891622
173	0x402464e2	2.5686574
174	0x3f70af2e	0.94017303
175	0xbf89c5b5	-1.076346
176	0xbf095792	-0.53649247
177	0xbf143bb0	-0.57903576
178	0x3c805b3c	0.015668504
179	0x3c85d62a	0.016337473
180	0xbe6a81ea	-0.22901121
181	0xbddfe71a	-0.10932751
182	0xc093858c	-4.610052
183	0xc0bbc332	-5.8675776
184	0x40a076ec	5.014517
185	0xbfc3b3a7	-1.52892
186	0xbf1d9515	-0.61555606
187	0x4089b7e5	4.303698
188	0x3fac3778	1.3454428
189	0xbf8d946b	-1.1060919
190	0x3f7a6431	0.9780913
191	0xbd95628c	-0.07294187
192	0xc05d1639	-3.4544814
193	0xc0ad7cf0	-5.421501
194	0x3f38a469	0.7212587
195	0x4075af9b	3.838843
196	0xbeec9591	-0.4620786
197	0xbeef66b1	-0.46758035
198	0xc01478e7	-2.3198793
199	0x3fb6e812	1.4289572
200	0xbfd391f5	-1.6528918
201	0x3f7a002b	0.97656506
202	0xc002c366	-2.0431762
203	0xbd6dfe38	-0.05810377
204	0xbfd00549	-1.6251613
205	0xbf3b1ca7	-0.73090595
206	0xbf9eca3a	-1.2405465
207	0xbf80ee1d	-1.0072666
208	0xc0017eec	-2.0233717
209	0xc000a2ba	-2.009932
210	0xc0072066	-2.1113524
211	0xc0cc314e	-6.3810186
212	0x3f884767	1.064679
213	0x4014b30f	2.3234289
214	0xbeb578b2	-0.35443646
215	0x3f3b7420	0.7322407
216	0x401ca188	2.447359
217	0xbefe6606	-0.49687213
218	0xbf6c6058	-0.9233451
219	0xbea86812	-0.328919
220	0x406123cd	3.51781
221	0xc02f541a	-2.7395082
222	0x40e0fa8d	7.030585
223	0x3fc82151	1.5635167
224	0x3e026ea1	0.12737514
225	0xbc9c2ab1	-0.019063326
226	0x3e775f23	0.24157386
227	0x3e1b9dac	0.15196866
228	0x3d0d9cc7	0.034573343
229	0x3e32eeeb	0.17473952
230	0x3e79d012	0.24395779
231	0x3d825639	0.06364102
232	0x3d29f720	0.041495442
233	0x3ecaaaea	0.39583522
234	0xbf318c4b	-0.69354695
235	0x3f03cae7	0.5148148
236	0x3f44c30c	0.7686012
237	0x3ef8f74c	0.48626173
238	0xc12559e9	-10.334451
239	0xc136d0eb	-11.426005
240	0xbdee1628	-0.1162532
241	0x3cf4c0a9	0.029877024
242	0x3d0bcf6b	0.034133356
243	0xbde44e07	-0.11147695
244	0xbec9c014	-0.39404356
245	0xbca46927	-0.020069672
246	0x3ca7c670	0.020480365
247	0x3e0a47e2	0.13503984
248	0x3f9e9470	1.238905
249	0x3fa05488	1.2525797
250	0xbfa256a7	-1.2682694
251	0xbe2a66e9	-0.1664082
252	0x3df253ae	0.11832367
253	0x3e1ee9a1	0.1551881
254	0x403351c6	2.801866
255	0xbf8f50c9	-1.1196529

encoder.conv0.k.bias f4 [32]
0	0xbf6583e8	-0.896544
1	0x3fdfce89	1.7484905
2	0x3f2569d5	0.6461461
3	0xbef5ba3a	-0.47993642
4	0x3fc15f46	1.51072
5	0xbf9c6173	-1.2217239
6	0x3ef80fde	0.48449606
7	0xbf27abf0	-0.6549673
8	0xbf6e635a	-0.9312035
9	0x3f605096	0.87622964
10	0x3f420008	0.757813
11	0xbf230f85	-0.63695556
12	0x3e9aedc7	0.30259535
13	0x401a5332	2.4113278
14	0xbe52ca75	-0.20585044
15	0x3fd95c21	1.698124
16	0xbe9c1f31	-0.30492547
17	0x3f755529	0.9583307
18	0xbffbbf6a	-1.966779
19	0x3fb76bf8	1.4329824
20	0x3ef205c1	0.47270015
21	0x3ec32ad2	0.38118607
22	0x3f7f0b9b	0.99627084
23	0xbf764803	-0.9620363
24	0xbeb681ad	-0.3564581
25	0xbf81141e	-1.0084264
26	0xbeb044aa	-0.34427387
27	0x3e270f53	0.1631444
28	0xbf6cd4f7	-0.9251246
29	0xbf9990f5	-1.1997362
30	0xbf66cb19	-0.9015365
31	0x3fc0efc1	1.5073167

encoder.conv0.v.weight f4 [32, 28]
0	0x3e09d299	0.13459243
1	0x3e930085	0.28711334
2	0x3d6d72a2	0.05797065
3	0xbd5292fe	-0.051409714
4	0xbec8382e	-0.39105362
5	0x3f709f89	0.9399343
6	0x3ddc0dd8	0.10744828
7	0xbeb3131f	-0.34975526
8	0xbe85cb9d	-0.26131907
9	0x3ea1c5b8	0.3159616
10	0xbf244d94	-0.64180875
11	0x3e060e92	0.13091496
12	0xbe39706a	-0.18109289
13	0x3f8834ff	1.0641173
14	0xc0061a57	-2.0953577
15	0xbfea0cda	-1.8285172
16	0xbfb21367	-1.3912171
17	0xbe24efb6	-0.16107067
18	0xbdf90f6b	-0.12161144
19	0x3f399631	0.724948
20	0xc1101e4d	-9.007398
21	0xbef4b1a9	-0.47791794
22	0x3ea4fee6	0.32225722
23	0x3e79611a	0.24353448
24	0xc0307c06	-2.7575698
25	0xc06363e2	-3.5529714
26	0x3f583ee1	0.84470946
27	0xbfccad4b	-1.5990385
28	0xbd73b268	-0.059496313
29	0xbcedaf73	-0.029014325
30	0xbecd8515	-0.40140596
31	0x3dd11ffe	0.1021118
32	0x3c43cd6f	0.011950835
33	0xbe2f4c8c	-0.17119044
34	0xbf2f6f3a	-0.68529093
35	0x3dcdc1ca	0.10046728
36	0x3d40bcb2	0.047054954
37	0x3dda1626	0.10648756
38	0xbe64e439	-0.22352685
39	0x3c7adaac	0.0153109245
40	0xbd943aaf	-0.072377555
41	0xbbf0cfbd	-0.007348983
42	0xc229916c	-42.392014
43	0xc22f70f0	-43.86029
44	0x3ddf26fd	0.10896108
45	0x3ddf74d6	0.109109566
46	0x3c0524ae	0.008126421
47	0xbe2332cc	-0.15937346
48	0xbf395966	-0.72402036
49	0xbb8e9ac2	-0.0043519447
50	0x3d1491ed	0.03627198
51	0x3deadc10	0.11467755
52	0xbdeb8d3a	-0.11501546
53	0x3e803f79	0.25048426
54	0xbefb566f	-0.4908938
55	0x3e1a9d20	0.15099001
56	0xbe84ee8f	-0.25963256
57	0xbdb5185c	-0.08842537
58	0xbee7bafe	-0.4525985
59	0xbf3c3283	-0.73514575
60	0xbe8c7ef3	-0.27440605
61	0x3e473044	0.19452006
62	0xbf5958af	-0.84900945
63	0x3e28538f	0.16438125
64	0xbec1bfc2	-0.37841612
65	0x3e967992	0.29389626
66	0x3f097478	0.5369334
67	0x3f6124c9	0.87946755
68	0x3e457f9b	0.19286959
69	0xbd93fc59	-0.07225866
70	0xc095f062	-4.6855936
71	0xc15ebb69	-13.920754
72	0x4136552d	11.395795
73	0xbf64137a	-0.8909222
74	0xbd82d1fe	-0.06387709
75	0xbe1018f5	-0.1407202
76	0x41381b40	11.506653
77	0x3da4d61e	0.08048652
78	0xbf8cb8d0	-1.09939
79	0x3f15a454	0.5845387
80	0xc02c0bb7	-2.688215
81	0x3ff74eb8	1.9320898
82	0xc0ec6b2a	-7.3880816
83	0x3f7ff63b	0.9998509
84	0xbea7302b	-0.32653937
85	0x3eb4fb23	0.35347852
86	0xbf92aea6	-1.1459548
87	0xbcea4f92	-0.028602395
88	0xbb7ac8bb	-0.0038266617
89	0xbc90f8a0	-0.017696679
90	0xbfd69116	-1.6763027
91	0x3c333e5a	0.010940159
92	0xbcc45590	-0.02396658
93	0xbc43e65e	-0.011956779
94	0x3f654b7c	0.89568305
95	0xbca9b1e1	-0.020714702
96	0xbf7405dd	-0.95321447
97	0xbf852755	-1.0402628
98	0x4128e6c1	10.556336
99	0xc1784a72	-15.518175
100	0xbd91c000	-0.07116699
101	0xbcf7da62	-0.0302555
102	0xbbfa5872	-0.007639938
103	0x3c8b9bb1	0.017042013
104	0x3ff8f6c1	1.9450303
105	0xbd5640e3	-0.052307975
106	0xbcc00237	-0.023438556
107	0xbd3e0a78	-0.046396703
108	0xbecff99d	-0.40620127
109	0x3e8ef247	0.27919218
110	0x3f1c25da	0.60995257
111	0xbe57db9a	-0.21079865
112	0x3cab4a84	0.020909555
113	0xbdf76407	-0.120796256
114	0x3d9f7ce5	0.077874936
115	0xbdba87ff	-0.091079704
116	0xbc12e7a3	-0.008966359
117	0x3d625a85	0.055262107
118	0x3df89d16	0.12139337
119	0x3e1a694a	0.15079227
120	0xbcc13332	-0.023583982
121	0x3d78b614	0.06072052
122	0xbf8fa930	-1.1223507
123	0x3cfac450	0.030611187
124	0x3e1780f4	0.14795285
125	0x3e425d59	0.18980922
126	0x41dddffd	27.73437
127	0x41d413f0	26.509735
128	0xbc928cce	-0.017889407
129	0x3d008597	0.0313774
130	0x3cf521b9	0.029923307
131	0x3b88ab17	0.004170786
132	0x3fb36603	1.4015507
133	0x3d936eb1	0.07198847
134	0xbb48a4ee	-0.0030615884
135	0x3cca015f	0.024658857
136	0xc0035747	-2.052202
137	0x3d4ecfcc	0.05049114
138	0x3f586091	0.8452235
139	0x3efda8a9	0.4954274
140	0xbdc4ea2c	-0.09614977
141	0xbcb2b645	-0.021815429
142	0x3f911f17	1.1337613
143	0x3ebb8c33	0.366304
144	0x3e93c714	0.28862822
145	0x3ce94564	0.02847547
146	0x3fc32664	1.5246091
147	0xbf18fd49	-0.5976148
148	0xbc7f20f5	-0.015571822
149	0x3e9f4931	0.31110528
150	0xbfce9847	-1.6140221
151	0xbef55695	-0.4791762
152	0xbe2f5e88	-0.17125905
153	0x3f1eb835	0.6199983
154	0xc0142c44	-2.3152018
155	0x407dc3b7	3.9650705
156	0x3fd34487	1.6505288
157	0x3e627354	0.22114307
158	0xbc2b6852	-0.010461884
159	0xbec0afcb	-0.3763412
160	0xc001ba9e	-2.0270152
161	0xbf29afa9	-0.6628366
162	0xbd8e8df1	-0.06960667
163	0x3f28c27e	0.6592177
164	0x3f04e62f	0.5191373
165	0xbf4913f4	-0.7854607
166	0x3e58deb9	0.21178712
167	0xbfa4be79	-1.2870628
168	0xbdb6ec05	-0.08931736
169	0xbd264497	-0.040592756
170	0x3f8d2313	1.1026329
171	0x3d7e8b0c	0.062144324
172	0x3d73ae14	0.059492186
173	0xbee96bdb	-0.455901
174	0x3f4ae2ca	0.792523
175	0x3eab63b1	0.33474496
176	0x3e19139e	0.1494889
177	0xbebb9158	-0.36634326
178	0xbf8899dc	-1.0671954
179	0xbf4db12a	-0.80348456
180	0xbd44c13e	-0.048035853
181	0x3e994c9e	0.29941267
182	0x4037ed75	2.8738682
183	0x409b017c	4.843931
184	0xbfd0954e	-1.6295564
185	0x3c6a9790	0.014318362
186	0xbbd6e09e	-0.006557538
187	0xbf226b51	-0.63445
188	0xc0271403	-2.6105964
189	0x3ed6f375	0.41982618
190	0x3cda3ca7	0.02664025
191	0xbf32b31f	-0.6980457
192	0x400915ca	2.141955
193	0xbf099ed7	-0.53757995
194	0x3f2e601b	0.68115395
195	0xc0bd7115	-5.920054
196	0xbe088eb8	-0.13335693
197	0x3e096606	0.13417825
198	0x3e344f44	0.17608362
199	0x3ca6d2cc	0.020364188
200	0x3d3a9074	0.045547917
201	0xbd12db9c	-0.035853967
202	0xbcb64202	-0.022248272
203	0x3d8e6eb2	0.06954707
204	0xba6d8c04	-0.00090616965
205	0x3e20d06b	0.15704505
206	0xbfb83fdd	-1.439449
207	0x3eb001c2	0.3437634
208	0x3e00721c	0.1254353
209	0xbef7f49d	-0.48428813
210	0xbf023c1a	-0.5087296
211	0xbfa33fe9	-1.2753879
212	0x3ed6da83	0.41963586
213	0x3d2bc61b	0.041936975
214	0x3c9826d9	0.018573212
215	0xbce92f29	-0.02846487
216	0x3f66db16	0.9017805
217	0x3d718aa5	0.058970112
218	0xbcbaf7dc	-0.022823267
219	0x3e27c988	0.16385472
220	0x40b0caf5	5.524775
221	0xbfd38c78	-1.6527243
222	0xbe5a591f	-0.2132306
223	0x3ef1b542	0.472086
224	0xbe3d819a	-0.1850647
225	0xbd246a08	-0.04014018
226	0xbf85741a	-1.0426056
227	0x3cd94297	0.02652101
228	0x3d6466a2	0.05576194
229	0xbe1da952	-0.15396622
230	0xbf9ef53a	-1.2418587
231	0x3e704f91	0.23467852
232	0xbd399b42	-0.04531408
233	0xbe2c5d67	-0.16832505
234	0xbf82b72e	-1.0212152
235	0x3f16680f	0.5875253
236	0x3eb8382f	0.35980365
237	0xbdbbb342	-0.0916505
238	0xc1239ff4	-10.226551
239	0xc159df76	-13.617056
240	0xbed4ed17	-0.41587135
241	0x3d8cd32b	0.068762146
242	0x3cc87262	0.024468604
243	0xbed1ddfa	-0.40989667
244	0xc08e3b79	-4.44476
245	0x3e989232	0.29799038
246	0xbd53665d	-0.051611293
247	0xbdafe8a7	-0.08589297
248	0xc03a4400	-2.9104004
249	0x3dd2eb62	0.10298802
250	0xbff58dc4	-1.9183888
251	0xbfea3a36	-1.8299015
252	0xbdc7fe8d	-0.097653486
253	0x3d290b58	0.041270584
254	0x3fb314ef	1.3990763
255	0xbda1d36b	-0.07901653

encoder.conv0.v.bias f4 [32]
0	0xbfbf60a5	-1.4951369
1	0x3ead2f35	0.3382508
2	0x3f2960f2	0.6616355
3	0x402bb115	2.6826832
4	0xbf2347f1	-0.6378165
5	0xbf62ba8f	-0.88565916
6	0xbf1b234c	-0.60600734
7	0x3ebb0954	0.36530554
8	0xbfcb1282	-1.5865023
9	0xbf8d56fd	-1.1042172
10	0xbf4935fa	-0.78597987
11	0xbf682342	-0.906788
12	0xbecc902b	-0.3995374
13	0xbfd735b4	-1.6813264
14	0x3e89b330	0.26894522
15	0x3ff2fe3b	1.8983835
16	0xbd7399eb	-0.05947296
17	0xbeb669da	-0.35627633
18	0xbed9ed99	-0.42564085
19	0x3fb826c3	1.4386829
20	0xbf740b2d	-0.9532955
21	0xbf0cc2b9	-0.54984623
22	0x3fd1e706	1.6398628
23	0xbfbdc928	-1.4827013
24	0x3f872760	1.0558891
25	0xbf6844cf	-0.90729994
26	0xbe9f9000	-0.3116455
27	0x3ee24e99	0.4420059
28	0xbe2851e1	-0.16437484
29	0xbf8f37b0	-1.118887
30	0x3f7f9e37	0.9985079
31	0x3f91fbf8	1.140502

encoder.conv1.q.weight f4 [16, 64]
0	0x3f9a40d7	1.2051038
1	0x400d5ffa	2.208983
2	0x3feb31fa	1.8374627
3	0x3d90b208	0.07065207
4	0x3f9e4c61	1.2367059
5	0x3dde089b	0.10841485
6	0x3fa54214	1.291079
7	0x3fb087ca	1.379144
8	0x4072d818	3.7944393
9	0xbe71c1b3	-0.23609047
10	0x3f759ff8	0.9594722
11	0x4007ef2c	2.123973
12	0x3cbe9418	0.023263976
13	0xbf6dadef	-0.92843527
14	0x4049d48a	3.1535974
15	0x3f199716	0.59996164
16	0xc0a01a82	-5.003236
17	0xc01b7127	-2.4287813
18	0x3f7df386	0.9919971
19	0xbfe3114f	-1.7739657
20	0x3e8e277d	0.27764502
21	0x4035d88a	2.8413415
22	0x3f1c9dfb	0.6117856
23	0xbf57126f	-0.840125
24	0x3f74a9b6	0.9557146
25	0x402727f5	2.6118138
26	0x3fa9abeb	1.325559
27	0x3fb3cf8a	1.4047711
28	0x401d68a3	2.4595115
29	0xbed41606	-0.41423053
30	0xbf38e6b3	-0.7222702
31	0x3fa12c96	1.2591732
32	0x4010ca6b	2.2623546
33	0x4084724d	4.1389527
34	0x3f3c8e49	0.7365461
35	0x3f8a314f	1.0796298
36	0x3fb31774	1.3991532
37	0x3f7df037	0.99194664
38	0x3fcb6031	1.588873
39	0x3e8df8c0	0.27728844
40	0x3f8965ae	1.0734155
41	0x3f2f5547	0.684895
42	0xbf4135e4	-0.75472856
43	0x3f010f5f	0.5041408
44	0xbf139cfb	-0.5766141
45	0xbf4bfdd0	-0.7968416
46	0x40292543	2.6428993
47	0x3f5d692f	0.8648862
48	0xc0836ba8	-4.1068916
49	0xbf904c40	-1.127327
50	0x3fb3696b	1.4016546
51	0xbf8d2a71	-1.1028577
52	0xbf04eb76	-0.51921785
53	0x3ead5ddd	0.33860675
54	0x3eee339d	0.46523753
55	0xc00f1677	-2.2357461
56	0x4004eaa0	2.0768204
57	0x3f8dbc31	1.1073056
58	0x3faabac2	1.3338244
59	0x3f8b0cf6	1.086333
60	0x3ff454a3	1.9088329
61	0x3ed28e9f	0.41124436
62	0xbf758c57	-0.95917267
63	0x3ee94076	0.45556992
64	0xbd892f38	-0.066984594
65	0x3feb7d1c	1.8397555
66	0x3e8f50c9	0.27991322
67	0x3fc2aa6f	1.5208262
68	0x3f9a26f9	1.2043144
69	0xbf303af3	-0.6883995
70	0xbf03919f	-0.51394075
71	0x3dd524ff	0.10407447
72	0x3ed5be2e	0.41746658
73	0x3e8405cb	0.2578567
74	0xbed580c2	-0.41699797
75	0x3f8b8b4b	1.0901884
76	0x3f6697a4	0.90075135
77	0x3c9f048e	0.019411352
78	0xbfdee842	-1.741463
79	0x3fd52478	1.6651754
80	0x4084217b	4.129087
81	0x4013e742	2.3109899
82	0xbf3432db	-0.703901
83	0x4033c8b7	2.8091257
84	0x3f20c0bd	0.62794095
85	0x3ff8b57d	1.9430386
86	0xbf25783d	-0.64636594
87	0xbf01852c	-0.5059383
88	0x3f81b798	1.0134153
89	0xbe781294	-0.24225837
90	0xbf207970	-0.626853
91	0xbfd6d8f8	-1.6784964
92	0xbf1103dc	-0.56646514
93	0xc019c945	-2.4029095
94	0x3fb02f4e	1.3764436
95	0x3f887700	1.0661316
96	0x3f5b5f39	0.85692173
97	0xc006573e	-2.0990748
98	0xc0170350	-2.3595772
99	0x4054672e	3.3187976
100	0x401c3f1d	2.4413521
101	0xbf1a2243	-0.6020853
102	0xbfdcbe0d	-1.7245499
103	0xbed0775d	-0.40716067
104	0xc0299797	-2.6498773
105	0x3fc76dd5	1.5580393
106	0x3fde28eb	1.7356237
107	0x3fb1a3d7	1.3878125
108	0x40234d3a	2.5515885
109	0xbf22db32	-0.63615716
110	0xc01eca2e	-2.48109
111	0x40023848	2.0346851
112	0x4051dc92	3.2790875
113	0x40171b40	2.3610382
114	0xbacea4ef	-0.0015765707
115	0x4032a8cc	2.7915525
116	0x3ef3f5e3	0.47648534
117	0xbfc4f420	-1.5387001
118	0xbf2d1ed4	-0.67625165
119	0xbffb4fe6	-1.9633758
120	0x3eea1225	0.45716968
121	0xbf1b4c7b	-0.60663575
122	0xbf662ed4	-0.89915204
123	0xbf87c8f3	-1.06082
124	0xbe4600a0	-0.19336176
125	0x3ebe67f9	0.371887
126	0x3fd3acd8	1.6537123
127	0xbf9cb564	-1.2242856
128	0xbf6a357a	-0.9148785
129	0x3f644005	0.89160186
130	0xbf7ac32f	-0.97954077
131	0xbe229eb0	-0.15880847
132	0xbfa972c0	-1.3238144
133	0x3fa6be93	1.3026909
134	0xbc1fbe09	-0.009749898
135	0x3f01372c	0.5047481
136	0x3f82c12d	1.0215203
137	0x3ec4e737	0.38457653
138	0xc00912a0	-2.1417618
139	0x3faefcfe	1.3670957
140	0x3e5fbe99	0.21850051
141	0x3d615cfa	0.05502031
142	0xbe20d816	-0.1570743
143	0xbc21105c	-0.009830561
144	0x3efe1991	0.4962888
145	0x3f9df207	1.2339486
146	0xc05d9aa5	-3.4625638
147	0x3f6bccf8	0.9210963
148	0xbe853c20	-0.26022434
149	0xbeb412d8	-0.35170627
150	0xbf5e83a3	-0.8691961
151	0x3da99d01	0.08281899
152	0x3f867182	1.050339
153	0x3e5734d5	0.21016248
154	0x3f3b7d75	0.7323831
155	0x3ed7fa6d	0.42183247
156	0x3e2d25ef	0.16909002
157	0x3f395611	0.7239695
158	0xbf2f865c	-0.6856439
159	0x3f244481	0.6416703
160	0xbf181dfe	-0.59420764
161	0x3fb27544	1.3942037
162	0xbe9bb648	-0.30412507
163	0xbf31093d	-0.6915472
164	0xbf811e02	-1.0087283
165	0x3ed01733	0.406427
166	0xbf6e220a	-0.9302069
167	0x3f33f40b	0.70294255
168	0x3f98e7e1	1.1945764
169	0x3e79d0c7	0.24396048
170	0xc00d40d3	-2.2070816
171	0x3e4e46bb	0.20144169
172	0x3e971d9c	0.29514778
173	0xbd6eecb1	-0.058331195
174	0x3de2cc75	0.11074153
175	0xbd8fd1e7	-0.070224576
176	0x3f890155	1.0703532
177	0x3fe1ee62	1.7650874
178	0xc0198e63	-2.3993156
179	0x3f9a918d	1.2075669
180	0x3ee95490	0.4557233
181	0x3eca2282	0.39479452
182	0xbf533222	-0.8249837
183	0xbe818a9f	-0.25301072
184	0x3f72235b	0.945852
185	0x3ee653be	0.44985765
186	0x3f6578e5	0.89637595
187	0x3f4de4fb	0.8042752
188	0x3f1f9f8d	0.6235283
189	0x3e904c15	0.28183046
190	0xbdcb2fbc	-0.09921214
191	0x3f622790	0.8834162
192	0x3e538c8c	0.20659083
193	0xc071d24a	-3.77846
194	0xbf1b4e2e	-0.6066617
195	0x3f5a385b	0.8524224
196	0x40435bcc	3.0524778
197	0x4005b760	2.0893173
198	0x3f19a32b	0.600146
199	0xbebd5368	-0.36977696
200	0xc01aaa75	-2.4166539
201	0x3edb7007	0.42858908
202	0x40952f7c	4.6620464
203	0x3fa8673d	1.3156506
204	0x4052aa5d	3.2916481
205	0x3f1924b0	0.59821606
206	0x3f4878ce	0.78309333
207	0x3f50cf88	0.8156667
208	0xbf34c672	-0.70615304
209	0xbfb52f12	-1.415499
210	0x3d73d224	0.059526578
211	0xbfaf6b0d	-1.3704544
212	0x3fd01a71	1.6258069
213	0xbef1871f	-0.47173402
214	0xbc73c52d	-0.014878553
215	0x3f2f738b	0.6853568
216	0xbf6ba88a	-0.92054045
217	0x3f04a60a	0.51815856
218	0xbf4db6ec	-0.8035724
219	0xbebb1d60	-0.3654585
220	0xbe16cb89	-0.1472608
221	0x3f3ade6a	0.72995627
222	0x3ea3f286	0.32020968
223	0xbf1bf7b7	-0.6092486
224	0x4037bbe6	2.8708434
225	0xbfa15c58	-1.2606306
226	0x3ea437b4	0.32073748
227	0x3f0f4c80	0.55976105
228	0x4083f2ab	4.1233726
229	0x3e2d5dc4	0.169303
230	0x3f049805	0.51794463
231	0xbe4f63d8	-0.20252931
232	0xbf4b989d	-0.79529744
233	0x3f72313b	0.9460637
234	0xbe39a4c4	-0.1812926
235	0xbd7cf8d7	-0.06176075
236	0x402aaf48	2.6669483
237	0x3f4071a6	0.75173414
238	0x3fee4a2d	1.8616387
239	0x3eee3ae1	0.46529296
240	0x3f5dc7f8	0.86633253
241	0xbd6686fb	-0.05628107
242	0x3f383342	0.71953213
243	0xbef09a0c	-0.46992528
244	0x3f642569	0.89119583
245	0x3f983751	1.1891881
246	0x3f8033da	1.0015824
247	0x3f27cb40	0.6554451
248	0x3efbb058	0.49157977
249	0x3faca39d	1.3487431
250	0xbe23bff1	-0.15991189
251	0x3fa1071b	1.2580293
252	0x3eb1dc0b	0.34738192
253	0x3e7b8ab8	0.24564636
254	0x3f9ad645	1.209664
255	0xbbcfe2b5	-0.0063441643

encoder.conv1.q.bias f4 [16]
0	0xbdafb621	-0.0857966
1	0x3f27e645	0.6558574
2	0x3f6d4963	0.92690104
3	0x3fe8900e	1.8168962
4	0x40691581	3.6419375
5	0x3f37b9ac	0.7176769
6	0xc09c57ab	-4.8857017
7	0xc081a565	-4.05144
8	0xbeea955c	-0.45817077
9	0xbf5a70ae	-0.85328186
10	0x3e995f5e	0.29955572
11	0x3ddc2c03	0.10750582
12	0xbfb39d00	-1.4032288
13	0x3e66c8f1	0.2253759
14	0x3edba082	0.42895895
15	0x3fe75f38	1.8075933

encoder.conv1.k.weight f4 [16, 64]
0	0xbf827a72	-1.0193617
1	0xc016cff8	-2.3564434
2	0x40241854	2.5639849
3	0x3f9de9c4	1.2336965
4	0xc07cb553	-3.9485672
5	0xbfe9b0ad	-1.8257042
6	0xbf8d03ea	-1.101682
7	0x3de152a1	0.11002088
8	0xc0907f68	-4.5155525
9	0xbda45f13	-0.080259465
10	0xc0811d45	-4.034823
11	0xc0206eb5	-2.506757
12	0xbfd72beb	-1.6810278
13	0x3fcd0381	1.6016694
14	0xbe96b331	-0.29433587
15	0x3ff7f505	1.9371649
16	0x400e5efc	2.2245474
17	0xbe271b4d	-0.16319008
18	0xc083b939	-4.11636
19	0x3f24621b	0.642122
20	0x3f7fc5df	0.999113
21	0x3e6c4e32	0.23076704
22	0x3fc2f164	1.5229917
23	0x3fbdabab	1.4818014
24	0xc004b8ca	-2.0737786
25	0xbfa5cb60	-1.295269
26	0xbe861af0	-0.26192427
27	0xbf5cd350	-0.8625994
28	0xc0348200	-2.8204346
29	0xbf6cd241	-0.9250832
30	0x40136633	2.3031127
31	0xbf643bec	-0.89153934
32	0x403c0d55	2.9383137
33	0xc010ea6e	-2.2643085
34	0x3f57df35	0.8432496
35	0x40352f08	2.8309956
36	0xbf2fe90b	-0.6871497
37	0xbf83a612	-1.0285056
38	0xbf2f9a2b	-0.68594617
39	0x3f8d6dc7	1.1049126
40	0x3f2253e7	0.63409275
41	0x404ff0ba	3.2490678
42	0xc07348ca	-3.8013177
43	0xbf932897	-1.1496762
44	0x3f9c4da8	1.2211199
45	0x3fe245d8	1.7677565
46	0xc0308d08	-2.7586079
47	0x4029866c	2.6488295
48	0x3d992ffe	0.07479857
49	0x3f333849	0.7000776
50	0xc015d149	-2.3408988
51	0x3eddd2d2	0.43324906
52	0x3ffef818	1.9919462
53	0xc0294442	-2.6447911
54	0x400fbb86	2.2458205
55	0xbf88464b	-1.0646452
56	0xbfb4d50a	-1.4127514
57	0xbf1385d9	-0.5762611
58	0x3ec5217c	0.3850211
59	0xbf12dbd9	-0.5736671
60	0xc0191055	-2.3916218
61	0x3ffce9dd	1.975887
62	0x406edf69	3.7323859
63	0xc0593df8	-3.3944073
64	0x40589125	3.383859
65	0x3f165093	0.58716697
66	0x40940318	4.6253777
67	0x3f97c03c	1.185554
68	0x40453c77	3.0818155
69	0xbf719941	-0.9437447
70	0x3fd7bdc9	1.6854793
71	0x3eb253e7	0.34829637
72	0x3f8864c8	1.0655756
73	0x3f3e540b	0.7434699
74	0xc09a92e0	-4.830429
75	0xbcfd5771	-0.030925484
76	0x3f750f30	0.957263
77	0xbe50a32e	-0.20374748
78	0x3f6ae748	0.9175916
79	0x3dead4f6	0.114664
80	0xbf93db0e	-1.1551225
81	0xbf8b558f	-1.0885485
82	0xc01a7576	-2.4134192
83	0xbf9a4b8e	-1.2054307
84	0x3f9da7e8	1.2316866
85	0xbf0f77d3	-0.5604221
86	0x3db77e0a	0.08959587
87	0xbf775f89	-0.9663015
88	0x3eb7c099	0.35889128
89	0xbdfd8776	-0.12379353
90	0x3f44987e	0.76795185
91	0x3f994d8c	1.197679
92	0x3fb8d110	1.4438801
93	0xbdd77a76	-0.105214044
94	0x3f90959b	1.1295656
95	0xbfaf936e	-1.3716867
96	0xbf019295	-0.5061429
97	0x3ee68184	0.45020688
98	0x40571dc6	3.3611922
99	0xbe4cbc38	-0.19993675
100	0x401d82cd	2.4611084
101	0xbfd044a0	-1.6270943
102	0x3f54ce47	0.83127254
103	0xbe58f8e1	-0.2118869
104	0x3e564564	0.20924908
105	0xbfc9f634	-1.577826
106	0xc0b61f13	-5.6912932
107	0xbfae623e	-1.3623731
108	0x3e18f90e	0.14938757
109	0xbf946a69	-1.1594974
110	0x4025f961	2.5933459
111	0xbf79326a	-0.9734255
112	0xbe82f927	-0.25580713
113	0xbf91d58d	-1.1393296
114	0xbfd91235	-1.6958681
115	0xbf519d05	-0.8188022
116	0xbf88686e	-1.065687
117	0x3f73493f	0.9503364
118	0xbdbe39fa	-0.09288402
119	0x3f171ddb	0.5902993
120	0xbe6551f0	-0.22394538
121	0x3dd8e593	0.10590663
122	0x3ec1658d	0.3777279
123	0x3f8e0d96	1.1097896
124	0x3ef968dd	0.48712817
125	0xbff251e2	-1.8931239
126	0x3df2eb5d	0.11861298
127	0x3fbc6ca3	1.4720653
128	0x3f274c91	0.65351206
129	0xc06080a6	-3.507852
130	0x3fd27cf2	1.644438
131	0x3fae69b6	1.362601
132	0xbfef650e	-1.8702714
133	0x3cf8860f	0.030337362
134	0xc0137ec1	-2.3046114
135	0xbf87f2cd	-1.0620972
136	0xc0184fbd	-2.3798668
137	0x3ef055ec	0.46940553
138	0xc005a513	-2.0882003
139	0xbe959fc1	-0.29223445
140	0xbe378d70	-0.17925048
141	0x3f383723	0.7195913
142	0xbfcc5827	-1.5964402
143	0x3ef37f58	0.47558093
144	0x3f0274ce	0.5095948
145	0xbf087f69	-0.5331941
146	0x3ffa38e1	1.9548608
147	0xbfb4c680	-1.4123077
148	0xbf3a00fc	-0.7265775
149	0xbfaf98d2	-1.3718512
150	0x3f616a34	0.8805268
151	0x3eae0ea1	0.33995536
152	0xbfb8f397	-1.4449338
153	0xbf490e52	-0.78537476
154	0x3d94765f	0.0724914
155	0xbfc3e63c	-1.5304637
156	0xbfa59603	-1.2936405
157	0x3f65cf9f	0.8976993
158	0x3eb76ac6	0.3582365
159	0xbfd9cb45	-1.7015158
160	0x4006f77e	2.1088557
161	0xbf9a437e	-1.2051847
162	0x403d8752	2.9613843
163	0x3fb61df7	1.4227895
164	0xbf7479a9	-0.9549814
165	0xbd8546fe	-0.06507681
166	0xc0292591	-2.6429179
167	0xbf2ffcbe	-0.6874503
168	0xbf3d521d	-0.7395342
169	0x3f44df8c	0.76903605
170	0x3eca010e	0.3945393
171	0x3f699e09	0.9125677
172	0x3f253a0d	0.64541703
173	0x3f589740	0.8460579
174	0xbf59da32	-0.85098565
175	0x3eeebf7d	0.4663047
176	0x3f4702d0	0.77738667
177	0x3e9927b0	0.29913092
178	0x3f8b7d40	1.0897598
179	0xbf2e8766	-0.6817535
180	0xbd8aea04	-0.06782916
181	0xbf44471b	-0.76671
182	0x3fb452be	1.4087751
183	0x3eee8b38	0.4659059
184	0xbf7213e2	-0.9456159
185	0xbeabc942	-0.33551985
186	0x3f1afaf1	0.60539156
187	0xbf03f6cd	-0.51548463
188	0xbf1be3e8	-0.6089463
189	0x3f46284f	0.77405256
190	0x3f678e5c	0.904516
191	0xbfd67b87	-1.6756448
192	0xbf60824c	-0.8769882
193	0x3e132c7d	0.1437244
194	0x3f33348d	0.7000206
195	0xbf262b8b	-0.6491019
196	0xbf8bfc6e	-1.093641
197	0xbed6be46	-0.41942042
198	0xbf2ff434	-0.68732
199	0x3f3ebf37	0.7451052
200	0x3fe06658	1.7531233
201	0x3db99f36	0.0906357
202	0xc14bb6ca	-12.732126
203	0x3e82b4f3	0.25528678
204	0x3f179c9c	0.5922334
205	0x3d4fc7a4	0.0507275
206	0xbe62bce2	-0.22142366
207	0xbdb2b9fe	-0.087268814
208	0x3f153ec7	0.58298916
209	0x3f94977f	1.1608733
210	0xc0ddca1c	-6.9309216
211	0x3f79a25c	0.97513366
212	0x3dfd88a4	0.12379578
213	0x3d57d288	0.052691013
214	0xbe6a4e4a	-0.22881427
215	0xbeb6a229	-0.35670593
216	0x3ebbc089	0.3667033
217	0x3e565bbc	0.20933431
218	0x3e879e29	0.26487854
219	0x3f02ce21	0.5109578
220	0x3ed6b5ca	0.4193557
221	0xbebf75cb	-0.37394556
222	0x3f02cb19	0.5109115
223	0x3e978d1c	0.29599845
224	0xbeec8bc7	-0.46200392
225	0x3d980242	0.07422306
226	0xbe78a9b4	-0.24283487
227	0xbeb3bf12	-0.35106713
228	0xbfbc2efe	-1.4701841
229	0xbf207ef1	-0.626937
230	0xbd95d48f	-0.07315933
231	0x3ea9a9c8	0.33137345
232	0x3f8a64f4	1.0812058
233	0x3e82d313	0.25551662
234	0xbfcae2a4	-1.5850415
235	0x3b8a7b18	0.0042260997
236	0xbed8502d	-0.4224867
237	0xbea245a2	-0.3169375
238	0xbe18fb93	-0.14939718
239	0xbe45ae64	-0.19304806
240	0x3e5cfb9a	0.21580353
241	0x3ecd2c43	0.40072832
242	0xbf9a392c	-1.2048697
243	0x3f138690	0.576272
244	0x3f1a1e46	0.60202444
245	0xbd9b3575	-0.075785555
246	0x3df7b3de	0.12094854
247	0x3e17c127	0.14819776
248	0x3e2c32d4	0.16816264
249	0xbe760f62	-0.24029306
250	0xbbce3f23	-0.0062941476
251	0x3ea54c99	0.32285002
252	0xbd329442	-0.04359842
253	0xbec41933	-0.38300475
254	0x3d908b31	0.07057799
255	0x3e121dcf	0.14269184

encoder.conv1.k.bias f4 [16]
0	0xbf43c4a6	-0.76471937
1	0x3f535396	0.82549417
2	0xc01e37fa	-2.4721665
3	0xbdb1696e	-0.08662687
4	0x3f3137a1	0.6922551
5	0x3e9224f2	0.28543812
6	0xbf40d1e1	-0.7532025
7	0xbea106b8	-0.31450438
8	0xbee99ef0	-0.45629072
9	0x3f81c8c9	1.01394
10	0x3f4f0d4d	0.8087967
11	0x3f0e4806	0.5557865
12	0xbe296ad9	-0.16544665
13	0x401f8517	2.4924982
14	0xc03c676f	-2.943813
15	0xbe714017	-0.23559605

encoder.conv1.v.weight f4 [16, 64]
0	0xc0338811	-2.8051798
1	0xbf9ac85a	-1.2092392
2	0xbfdfe940	-1.7493057
3	0xbfa5dfd0	-1.2958927
4	0x3ed7047d	0.41995612
5	0x40425d5f	3.036949
6	0x4012ea48	2.2955494
7	0xbf3c4d3a	-0.7355534
8	0xbf7366a9	-0.9507852
9	0x3eb81755	0.359553
10	0xbe92117c	-0.28528965
11	0x403dde6d	2.9667008
12	0x3de78573	0.1130475
13	0x3f1b524d	0.60672456
14	0x3f6ebe59	0.932592
15	0xbfc184f5	-1.51187
16	0x3f050702	0.5196382
17	0x3e232af4	0.15934354
18	0x3ec78eae	0.38976043
19	0xbf0dd1c5	-0.5539821
20	0x3f840aa8	1.0315752
21	0x3fa26650	1.2687473
22	0xc08810aa	-4.252034
23	0x3eb3dc66	0.35129088
24	0x4029faa9	2.655924
25	0x401009d5	2.2506
26	0xbea03d33	-0.3129669
27	0xbf06561e	-0.52475154
28	0x3ef6fe59	0.48240927
29	0x3f9a9c81	1.2079011
30	0xc0197b2a	-2.3981423
31	0xbf6937da	-0.9110085
32	0xbf68b20a	-0.90896666
33	0xbe8a80bf	-0.2705135
34	0xbe9a4fc8	-0.30138993
35	0xbe537069	-0.2064835
36	0xbde132b1	-0.10995997
37	0x401401e5	2.3126156
38	0x4019022a	2.390757
39	0xbf982f63	-1.1889461
40	0x3f93e420	1.1553993
41	0x3f430b76	0.76189363
42	0x3f5ed54b	0.8704421
43	0x400d6359	2.2091887
44	0x3fb3367f	1.4001006
45	0x3e8a96e2	0.2706824
46	0x3ed8ed35	0.42368475
47	0xbe862aa3	-0.26204404
48	0x3ec545f3	0.3852993
49	0x3f184c94	0.5949185
50	0x3e34a303	0.17640309
51	0xbe09ed2d	-0.13469382
52	0x401d925c	2.462058
53	0x3faf10e8	1.3677034
54	0xc032b444	-2.7922525
55	0x3e291b77	0.16514383
56	0x40073070	2.1123314
57	0x3f8e8dbe	1.1137006
58	0xbe5b8981	-0.21439172
59	0xbf03e82f	-0.5152616
60	0x3f001c00	0.50042725
61	0x3f32f8f7	0.6991114
62	0xbfc9fbd4	-1.5779977
63	0xbf7b9cc9	-0.9828611
64	0xbf286b45	-0.6578868
65	0x3fc42bee	1.5325906
66	0xc027d5ac	-2.6224165
67	0xbf771c27	-0.9652733
68	0xbf02c707	-0.5108494
69	0x3fb0ce57	1.381297
70	0x3d1cffa8	0.03832975
71	0x3f951c7a	1.1649315
72	0xbfe80942	-1.8127825
73	0x3ca0c06b	0.019623002
74	0x3dcb2a31	0.09920157
75	0x3fa7a04b	1.3095793
76	0xbff7fa47	-1.9373254
77	0x3ee35b91	0.44405797
78	0x3f950b2c	1.1644034
79	0xbebce47b	-0.36893067
80	0x3fc7fc32	1.5623839
81	0x405074ba	3.2571244
82	0xbf0b3e19	-0.5439163
83	0x3fde462e	1.7365167
84	0x3f354164	0.70802903
85	0xbf4a7ede	-0.79099834
86	0x3d15168c	0.036398456
87	0x3f5cca69	0.86246353
88	0x3eebf4e7	0.46085283
89	0x3fc34d8f	1.5258044
90	0x3f27af05	0.65501434
91	0x3f84e781	1.0383149
92	0x3f94b341	1.1617204
93	0x3f8feb59	1.1243697
94	0xbf2516b6	-0.6448778
95	0x3fa716b4	1.3053803
96	0x4000c967	2.0122926
97	0x3fba5cb7	1.4559544
98	0xbf830e23	-1.0238689
99	0xbe95f41e	-0.2928781
100	0xbe695a9f	-0.22788475
101	0x401ae20c	2.4200468
102	0x401c3694	2.4408312
103	0x3fa0c3de	1.2559774
104	0x3ed8bf96	0.42333668
105	0x3e26caf7	0.16288362
106	0x3e4b225f	0.1983733
107	0x3f6f82b1	0.93558794
108	0xbf88619b	-1.0654787
109	0x3f6d4780	0.92687225
110	0x4002227b	2.0333545
111	0x3ee40f81	0.4454308
112	0x3fe898b5	1.8171602
113	0x40655bff	3.58374
114	0xbe8749fe	-0.2642364
115	0x4001e399	2.0295165
116	0x401b38ba	2.4253373
117	0x3f052c7e	0.52021015
118	0xbee447a6	-0.44585913
119	0x3f0e0daf	0.5548963
120	0x3fa036c9	1.2516719
121	0x3fb51e8c	1.4149947
122	0x3e9b55bb	0.30338845
123	0x3fb1fbb6	1.3904941
124	0x3eeb2e50	0.4593377
125	0x3f12088a	0.5704428
126	0xbe80db07	-0.25167105
127	0x3f9f473e	1.2443616
128	0xc0978841	-4.7353826
129	0xbe913676	-0.28361863
130	0xc0bd0dcc	-5.907934
131	0xbfef6bdf	-1.8704795
132	0xbf808c90	-1.0042896
133	0x3f4e1c72	0.80512154
134	0xbf2387f7	-0.6387934
135	0xbf92bedd	-1.1464497
136	0xc0a7d344	-5.2445393
137	0x3f2cd48c	0.6751182
138	0x3f280c0a	0.6564337
139	0x3f29f058	0.6638236
140	0x3fb079a3	1.378712
141	0x3ebb196a	0.36542827
142	0x3fa5ecc5	1.2962881
143	0xbf251e9f	-0.6449985
144	0xbec53ebc	-0.38524425
145	0x3ee5023a	0.4472826
146	0xbf06a329	-0.5259271
147	0x3e2e80f2	0.17041376
148	0xbfbcc1b8	-1.4746618
149	0xbe8bd794	-0.2731291
150	0xbe3f2c8f	-0.18669342
151	0x3e69a644	0.22817332
152	0x3f208b57	0.62712616
153	0xbdbd1eef	-0.09234416
154	0xbbf86c63	-0.00758128
155	0x3f8b76c5	1.089562
156	0xbfecdc9e	-1.8504827
157	0x3f061cb2	0.52387536
158	0xbe8c4621	-0.27397254
159	0xbe2a54f9	-0.16633977
160	0x3f07e452	0.53082764
161	0xbfa9d78d	-1.3268906
162	0x40c9f608	6.311283
163	0x3f20a461	0.6275082
164	0xbef1621f	-0.47145173
165	0x3f4d8471	0.80280215
166	0xbf5d7f45	-0.8652232
167	0xbf6c0ba4	-0.9220526
168	0xc08327d7	-4.0986133
169	0x3e5981ae	0.21240875
170	0xbe9b256b	-0.30301985
171	0x3f876f72	1.0580885
172	0x3f8b1435	1.0865542
173	0x3e9c2191	0.3049436
174	0x3fdde21f	1.7334632
175	0xbd577248	-0.05259922
176	0x3eed99e7	0.4640648
177	0xbf202001	-0.62548834
178	0x3ed05ac1	0.4069424
179	0xbe6d2eb6	-0.2316235
180	0xbfb7d8dc	-1.4363055
181	0x3e0b9c45	0.13633831
182	0xbfa1e60e	-1.2648332
183	0xbf30b4d6	-0.69025934
184	0x3ef57dca	0.47947532
185	0xbef816a9	-0.48454788
186	0x3e2bf5d5	0.16792996
187	0x3f9c8fd5	1.2231394
188	0xc00aaa3e	-2.1666408
189	0x3f4f6d87	0.810265
190	0x3f543905	0.82899505
191	0xbf0955a7	-0.5364632
192	0xbc81fa6b	-0.015866479
193	0xc0397794	-2.8979235
194	0x40386cb2	2.8816342
195	0x3f8ed972	1.1160109
196	0xc08056a8	-4.010578
197	0xbf917a91	-1.1365529
198	0xbf2e5238	-0.68094206
199	0xbf9a0bb5	-1.2034823
200	0xc0586451	-3.3811228
201	0x3f3e582c	0.7435329
202	0xbfce1300	-1.6099548
203	0xbfbf72c7	-1.4956902
204	0x4087d573	4.244806
205	0x3f979307	1.1841744
206	0xc06331db	-3.549918
207	0x3fac1396	1.3443477
208	0xc00b03e4	-2.1721125
209	0xc0a29970	-5.08123
210	0xbf2194a8	-0.63117456
211	0xc07f8abd	-3.992843
212	0x3da7076e	0.08155714
213	0xc037f618	-2.8743954
214	0x3f810cba	1.0082009
215	0x3ee02b97	0.43783256
216	0xbfff6d77	-1.9955281
217	0xc012e8ac	-2.2954512
218	0xbf4862b1	-0.7827559
219	0xbff7f9c6	-1.93731
220	0xbfaf0e83	-1.3676304
221	0xbf45c812	-0.7725841
222	0x3f05eef8	0.5231776
223	0xc031ea18	-2.779913
224	0xbf86534a	-1.0494168
225	0xc00a22e9	-2.1583807
226	0x3fda3350	1.7046909
227	0x401914fa	2.3919053
228	0xc05055e0	-3.2552414
229	0xbe49f51b	-0.19722407
230	0xbfd14f4e	-1.6352327
231	0xbfae78a0	-1.3630562
232	0xc05a32f4	-3.40936
233	0x3e9f990b	0.3117145
234	0x4103a26f	8.227157
235	0xbfac0bd5	-1.3441111
236	0x402179b2	2.5230527
237	0x3f74b8d9	0.95594555
238	0xc09a5caf	-4.823814
239	0x3f738c53	0.9513599
240	0xc072b5ac	-3.7923384
241	0xc0dd9f76	-6.9257154
242	0x4151311a	13.074488
243	0xc09890bd	-4.7676682
244	0x3d73173b	0.059348326
245	0xc035632e	-2.8341784
246	0xbf38a08e	-0.72119987
247	0x3f5ad4a8	0.8548074
248	0xc0279234	-2.6182985
249	0xc01274e9	-2.2883856
250	0xbf9d1e9d	-1.2274967
251	0xc04df9e0	-3.2183762
252	0xc03bde76	-2.935453
253	0xbf14269d	-0.5787142
254	0x3f83a833	1.0285705
255	0xc053a366	-3.306848

encoder.conv1.v.bias f4 [16]
0	0xbdf02127	-0.11725073
1	0xc07012b8	-3.7511425
2	0x3f2a70cc	0.66578364
3	0x3f8b7660	1.08955
4	0x3f570c9f	0.84003633
5	0x409807d0	4.7509537
6	0x3ef09913	0.46991786
7	0x4087c3f6	4.242671
8	0x3f0cf052	0.550542
9	0x3ef8f818	0.4862678
10	0x405fdae6	3.4977355
11	0xbef6119b	-0.48060307
12	0x3f289c19	0.65863186
13	0x3f888d17	1.0668057
14	0x3fc4edb9	1.5385047
15	0x40955a2e	4.6672583

encoder.conv2.q.weight f4 [32, 32]
0	0x3eb88107	0.3603594
1	0x3f171f4a	0.5903212
2	0x4047e9b1	3.1236384
3	0xbf159e39	-0.58444554
4	0xbf972105	-1.1806952
5	0xbfd45417	-1.6588162
6	0x3d453584	0.04814674
7	0x3f0fcff8	0.5617671
8	0x3ff7d069	1.9360477
9	0x3fd58978	1.6682577
10	0xbe86e82f	-0.26349017
11	0x3dba4dfa	0.09096904
12	0xbeba8db3	-0.36436233
13	0xbe165366	-0.14680251
14	0x3d55429b	0.052065473
15	0x3ec9314d	0.39295426
16	0x4001b08f	2.0264013
17	0x3f83536b	1.0259832
18	0x3ea03219	0.3128822
19	0xbe23de14	-0.16002685
20	0xc00e975f	-2.227989
21	0x3f1835cc	0.5945709
22	0x4008e6ad	2.1390793
23	0xbe0dee05	-0.13860328
24	0x3eb2ee13	0.3494726
25	0x3f85524b	1.0415739
26	0x3f02088e	0.50794303
27	0xbe7774a3	-0.24165587
28	0xbf20a293	-0.6274807
29	0x3fcf8d2a	1.6214955
30	0xbfca7688	-1.5817423
31	0x402d0e23	2.7039878
32	0xbf3179fe	-0.6932677
33	0xbf5bc2a9	-0.858439
34	0xbf537c16	-0.82611215
35	0xc003823f	-2.0548246
36	0xbf890c1c	-1.070682
37	0xbd13e2b5	-0.036104877
38	0x3f6991a2	0.91237843
39	0xc03a619b	-2.9122074
40	0x3fd0c440	1.6309891
41	0xbeef58d3	-0.46747455
42	0x401e5da4	2.4744654
43	0xbe5aaf49	-0.21355928
44	0xc01b36af	-2.4252126
45	0xc033a359	-2.806845
46	0xc019851c	-2.3987494
47	0xc00a9872	-2.1655545
48	0x3f2fee16	0.68722665
49	0xbfe75264	-1.8072019
50	0xbdb2850a	-0.087167814
51	0xc0708240	-3.7579498
52	0xbff63331	-1.9234372
53	0x3f8b78f4	1.0896287
54	0x3ebb887e	0.36627573
55	0xc077829a	-3.8673463
56	0x3f540b41	0.8282967
57	0x3daaa95e	0.083330855
58	0xbf6f1931	-0.93397814
59	0x3f88710b	1.0659498
60	0x3eab5a0a	0.33467132
61	0xbf2d0207	-0.6758122
62	0xbf630470	-0.88678646
63	0xbf3cf48b	-0.7381064
64	0xbfbb3e5b	-1.4628404
65	0x4059275c	3.3930273
66	0x3f9b2c19	1.2122833
67	0xc0083c96	-2.1286979
68	0x40355d08	2.8338032
69	0x413be2ad	11.742841
70	0x40401948	3.001543
71	0xc092b9fc	-4.585203
72	0xc0003297	-2.0030878
73	0xbfd71f74	-1.6806474
74	0xc01ae92b	-2.4204814
75	0x3f9d647f	1.2296294
76	0x3ebae46a	0.3650239
77	0x3f6237bd	0.883663
78	0xbf913bdb	-1.1346391
79	0x3f03c5e0	0.5147381
80	0xbf398125	-0.72462684
81	0x411a7187	9.652717
82	0x3f4d9828	0.80310297
83	0x4071d7b7	3.7787912
84	0x3fcfa1b2	1.622122
85	0x3d11ca52	0.03559334
86	0x3edc6f3f	0.43053624
87	0xc0000ec4	-2.0009012
88	0xbfb76def	-1.4330424
89	0xbf746e42	-0.9548074
90	0x3dcbd179	0.09952063
91	0x3f130d34	0.5744202
92	0xbf2c3b43	-0.67277926
93	0xbf53a815	-0.8267835
94	0x3f99ffc9	1.2031184
95	0x3f101280	0.5627823
96	0x3e4703cb	0.1943504
97	0xbfb0610c	-1.3779616
98	0x3ec1a4de	0.37821096
99	0xc046a136	-3.1035895
100	0xbe7edbec	-0.24888581
101	0xbef36937	-0.4754121
102	0xbf177f0a	-0.5917822
103	0x4075fac3	3.8434303
104	0x3faa01dd	1.3281819
105	0x3df54246	0.11975531
106	0xbe6ec363	-0.23316722
107	0x3e8d8dcf	0.27647254
108	0xbd73b616	-0.059499823
109	0x3fc5f46f	1.546522
110	0xbf5e0a93	-0.86734885
111	0x3f8d40dd	1.103542
112	0x3f746e61	0.95480925
113	0xbe103c5d	-0.14085527
114	0xbf8d9461	-1.1060907
115	0xbfd4e10f	-1.6631182
116	0xbe999037	-0.2999284
117	0x3f57a865	0.84241325
118	0x3e5705b4	0.2099827
119	0x3fe2f68b	1.7731489
120	0xbe9fd309	-0.31215695
121	0xbdc79e39	-0.097469755
122	0x3f4e5b51	0.8060809
123	0xbed7e84d	-0.4216942
124	0x3f348feb	0.705321
125	0x3fb1cae0	1.3890038
126	0xbf7b7980	-0.9823227
127	0xbbaf1aa2	-0.005343751
128	0x3f6a737c	0.91582465
129	0xc02ce032	-2.7011838
130	0xbe3c3d46	-0.18382749
131	0x40c5a261	6.1760716
132	0xbabea05f	-0.0014543644
133	0x418e0661	17.753115
134	0xbea09e8e	-0.31370968
135	0xc070aa73	-3.7604034
136	0xbf933ff5	-1.1503893
137	0xbf1b4ff0	-0.6066885
138	0x40cd270d	6.411017
139	0xbec2afcc	-0.38024747
140	0x3f9ca8a1	1.2238961
141	0x3ee3d5f9	0.44499186
142	0x3f85cef0	1.0453777
143	0x3da4d241	0.08047915
144	0x3dcf48d5	0.101213135
145	0xc0dde6b7	-6.9344134
146	0x3f77f63e	0.9686011
147	0x401f78aa	2.4917397
148	0xbfa02577	-1.2511433
149	0x40ac8610	5.391365
150	0x3fd9ba9d	1.7010075
151	0xbfc6e04e	-1.5537202
152	0x3e70776b	0.23483054
153	0xbecf5da3	-0.40501127
154	0xbe76bf54	-0.24096423
155	0x3ebcdc5f	0.3688688
156	0x3d9dc80b	0.07704171
157	0xbe969e52	-0.29417664
158	0xbe38f8d5	-0.18063672
159	0x40841d9d	4.128615
160	0x400143c6	2.0197616
161	0x3fe22c1d	1.7669712
162	0x3fcb50fe	1.5884092
163	0x3f2ad104	0.6672518
164	0xbfb52c3c	-1.4154124
165	0xbfe36da2	-1.7767832
166	0x3f0349c6	0.51284444
167	0x3fbb0160	1.4609795
168	0x3fea3b1e	1.8299291
169	0xbe2786fd	-0.16360088
170	0x3fb7f767	1.4372376
171	0xbe15410f	-0.14575599
172	0xbe6f297f	-0.23355673
173	0xbfdb229c	-1.7119937
174	0x3f8acc04	1.0843511
175	0xbfc2d8e4	-1.522244
176	0x4022e205	2.5450451
177	0x4004a4ac	2.0725508
178	0xbfb4c836	-1.41236
179	0x3fbd2f56	1.4780071
180	0x3dd108e6	0.10206775
181	0xbfe34000	-1.7753906
182	0x3ead699a	0.3386963
183	0x40891ae2	4.2845316
184	0x3fcf14e6	1.6178253
185	0xbe61e514	-0.22060043
186	0xbf742670	-0.9537115
187	0x3e9cd28b	0.30629382
188	0xbfbf02f6	-1.4922779
189	0xc0215dde	-2.5213542
190	0x3f95f3db	1.1715044
191	0xbf7d1997	-0.9886717
192	0x3f84ac9a	1.0365174
193	0x40e9c2de	7.3050375
194	0xbf04893e	-0.51771915
195	0x409c59a7	4.885944
196	0xbe203aaf	-0.15647386
197	0x4117c6f1	9.48607
198	0xbde1d9c3	-0.11027863
199	0x40a3d0f3	5.1192565
200	0x3f36c8ae	0.7139996
201	0xbf785369	-0.97002274
202	0x3fb591ef	1.418516
203	0x3e2596b0	0.16170764
204	0xbf194954	-0.59877515
205	0x3f8f431b	1.1192354
206	0x3ed8f0cd	0.42371216
207	0xbfe10e7e	-1.7582548
208	0x3f4c7d81	0.79879004
209	0x3f7b4215	0.9814771
210	0x3eaea395	0.34109178
211	0x3f415788	0.7552419
212	0xbf947f45	-1.160134
213	0xc08dd498	-4.4322014
214	0x3fb1c326	1.388768
215	0xc005cb06	-2.0905166
216	0x3f5bf031	0.8591338
217	0xbf05a4c7	-0.52204555
218	0xc07a70d4	-3.9131365
219	0x4004a5c1	2.0726168
220	0xbfc67b57	-1.550639
221	0x3f54ee2f	0.8317594
222	0x3d1614bd	0.03664087
223	0xbf3d707d	-0.7399977
224	0xbd8be7c3	-0.068313144
225	0xc00309db	-2.0474765
226	0x3f80beb0	1.0058193
227	0x3f1b0cda	0.60566485
228	0xbfaa31ee	-1.3296487
229	0x40114027	2.2695405
230	0x3f89e4c2	1.0772936
231	0x40ea045e	7.313033
232	0x3ca72a98	0.020406052
233	0xbdd1582d	-0.10221896
234	0x406f8e91	3.7430766
235	0xbfc4aae0	-1.5364647
236	0x3cda0878	0.026615366
237	0x3fb80975	1.4377886
238	0xbee5b34a	-0.4486335
239	0xbe89580a	-0.2682498
240	0xbea923f8	-0.33035254
241	0xbdeb3364	-0.11484411
242	0x3f41e865	0.7574523
243	0x3ff063c6	1.8780448
244	0xbfa63813	-1.2985862
245	0x40433605	3.050172
246	0x3ffc4ba7	1.9710587
247	0x3f96721b	1.1753572
248	0xbea5c611	-0.32377675
249	0xbe942ce3	-0.28940496
250	0x4090bc8f	4.5230174
251	0xbec5aa9f	-0.38606736
252	0xbeb69063	-0.35657033
253	0x3f2d5b65	0.6771758
254	0x3ca80bda	0.020513464
255	0x3ddf8501	0.1091404

encoder.conv2.q.bias f4 [32]
0	0xbf82322a	-1.0171559
1	0xc0388967	-2.8833864
2	0xbe6727ee	-0.22573826
3	0x4001794f	2.023029
4	0x3e2721ac	0.16321439
5	0xc082b59d	-4.0846696
6	0x3fe76dda	1.8080399
7	0x3fc302bd	1.5235211
8	0x3ff760d9	1.932643
9	0xbebaa674	-0.3645512
10	0xc028092a	-2.6255593
11	0xbf22c369	-0.6357942
12	0x3fbce366	1.4756896
13	0x40027a38	2.0387096
14	0xbeb38aab	-0.35066733
15	0xbfda5e80	-1.7060089
16	0xbfbb6898	-1.4641294
17	0x3ebf77be	0.37396044
18	0xbfa180fd	-1.2617489
19	0x3f88d39d	1.0689579
20	0x3fcca8dd	1.5989033
21	0xbdf42d53	-0.119227074
22	0x3e4d8e12	0.20073727
23	0xbf11dea1	-0.5698033
24	0xc0434263	-3.050927
25	0x3fbb0c52	1.4613135
26	0x40314347	2.7697313
27	0xbf684f2c	-0.90745807
28	0xbf9a382e	-1.2048395
29	0xbec8caab	-0.39217123
30	0x405883bc	3.3830404
31	0x404e4273	3.2228057
