trained_model/model_epoch371.chrom18.pkl (torch, 41775 bytes, 18 tensors)

encoder.conv0.q.weight f4 [32, 28]
000000 67 3b 9b bc dd e2 d0 3d 35 23 da bf 68 92 d4 bc
       -0.018949224 0.10199521 -1.7041994 -0.025948718
000010 80 ea 13 ba f1 d6 c5 3c f5 4e 0b c0 55 30 d9 bf
       -0.0005642548 0.024150344 -2.1766942 -1.6967875
000020 a3 00 03 bd 87 d4 5d be c1 c7 a7 3f 1b f6 41 3d
       -0.03198303 -0.21663104 1.3107835 0.047353845
000030 f2 0e 44 bf 71 bf db bf b2 c4 2e 41 93 fe f0 c0
       -0.76585305 -1.7167798 10.923021 -7.531076
000040 9a 1e 09 3e 4c d7 ef b8 29 73 68 bc f0 49 d3 bc
       0.1339058 -0.0001143651 -0.014187613 -0.025792092
000050 bf 6e 0f c0 7d 30 dc bf 87 58 07 bd 6e 55 ba bd
       -2.2411344 -1.7202297 -0.03304341 -0.09098326
000060 28 de b8 c0 f9 3d 21 3f cf 49 e0 bf c0 2a 62 3e
       -5.7771187 0.6298519 -1.7522525 0.2208662
000070 f5 84 81 be 40 15 6d 3c c1 f7 cb bf 04 6f bf bd
       -0.2529675 0.014470398 -1.5934983 -0.093473464
000080 f8 b5 4f 3c be 58 01 3f a3 28 e6 bf 34 e1 75 3e
       0.012677662 0.50526035 -1.7981151 0.2401169
000090 ef e7 a1 bc 6a 3f 23 3f ae e5 ef 3e aa 69 74 be
       -0.019763915 0.6376864 0.4685492 -0.23868433
0000a0 18 9f 9d be 73 d2 af bf e8 67 16 41 4f cb ac bf
       -0.3078544 -1.3736099 9.400368 -1.3499545
0000b0 87 78 9a c0 8a b9 60 bd 1c eb 7e bc d9 d8 fc 3e
       -4.827213 -0.054864444 -0.015558984 0.49384192
0000c0 b6 51 bd bf 53 36 2a 3e 76 92 eb bc ff 24 2b 3e
       -1.4790561 0.16622286 -0.028756361 0.16713332
0000d0 23 01 1e 41 e6 8f e1 bf 06 6e a1 be 75 e1 cb bf
       9.8752775 -1.7622039 -0.31529254 -1.5928179
0000e0 74 c0 e0 3d 06 a8 ad bd 1c c0 75 3e 6d c8 ea bd
       0.109742075 -0.084793136 0.23999065 -0.114640094
0000f0 05 b6 90 3c fc 14 f4 be 39 32 50 3e 7b 24 83 3c
       0.017664919 -0.4767226 0.20331658 0.016008606
000100 90 b7 d3 3c 45 a0 13 bf 6e 30 ba 3f 27 86 1b bf
       0.025844365 -0.57666427 1.454603 -0.60751575
000110 45 a5 db be 2c 8d 34 3e d0 cd f4 40 74 7b 0d 41
       -0.42899528 0.17631978 7.6501236 8.84264
000120 ab 16 18 3f e4 cb ad bd 75 24 98 3b d6 dc 00 bf
       0.5940959 -0.08486155 0.004643018 -0.5033697
000130 e0 f7 86 bf e5 3f 26 3d c4 2e 22 3c 1f 9f 05 bf
       -1.0544395 0.04058828 0.009898845 -0.52195925
000140 47 2c 45 c1 3e 93 ed 40 8e 7b c6 40 48 7b 3a bf
       -12.32331 7.424224 6.2025824 -0.7284436
000150 29 2a 7a 3f 28 b3 65 3f ea 87 e2 bf 71 a5 dd bd
       0.9772058 0.89726496 -1.7697728 -0.10822571
000160 09 a5 21 3d c0 5f 6f 3e f4 ae f4 bf bc 78 d2 be
       0.03946403 0.2337637 -1.9115891 -0.41107738
000170 52 54 57 3d ce 27 a7 3e 5d 80 14 3f db 61 71 bf
       0.05257065 0.32647556 0.58008367 -0.9428994
000180 f4 bd 85 bf 8e b0 05 c0 0f 81 06 41 6c c5 cf 40
       -1.0448594 -2.088901 8.406508 6.4928493
000190 90 18 9c c0 ed 04 2c be c2 d2 16 3d 90 9e be 3e
       -4.8779984 -0.16798754 0.036822088 0.3723035
0001a0 bd 68 e8 40 c7 4c f4 be 4a b6 32 3d a1 6a df 3e
       7.2627854 -0.47714826 0.043630876 0.4363604
0001b0 9d 31 6a c0 60 44 9e 3f 62 a5 4a c0 fb ba 85 c0
       -3.6592782 1.2364616 -3.1663442 -4.179075
0001c0 2e f7 f1 bd e5 74 53 3d 60 7a 02 3f 76 52 ab 3f
       -0.11814724 0.05162515 0.5096798 1.338454
0001d0 97 1d 12 bf cc b3 2f 3f 7b cb 8b be 91 5c 5a 3f
       -0.570764 0.68633723 -0.2730368 0.85297495
0001e0 62 e2 16 bd d5 92 d9 3e ae 0e 80 40 77 e8 af 3f
       -0.03683699 0.42494836 4.001792 1.3742818
0001f0 18 09 15 40 41 69 26 40 44 a0 e6 c0 f8 8a da c0
       2.32868 2.6001742 -7.2070637 -6.829464
000200 40 ea a2 c0 2a 1b 3d 3f 65 b6 70 3e 04 3b c2 be
       -5.091095 0.73869574 0.23507078 -0.3793565
000210 1f f4 44 c0 d2 71 6d 3f be d9 4d 3e 57 8e 93 bf
       -3.0774 0.927518 0.20102593 -1.1527814
000220 cc d0 f1 c0 02 f3 5a 3f f0 5a f5 bf 23 dc 64 c0
       -7.556738 0.8552705 -1.9168377 -3.575936
000230 b3 fb bf 3e a5 8c d0 3e 30 e6 66 3e cd af d3 3d
       0.3749672 0.40732303 0.22548747 0.10336266
000240 d2 07 c9 bf 63 5c 86 be 0e 97 32 bf 4b e9 0e 40
       -1.5705512 -0.2624236 -0.6976174 2.232989
000250 96 94 33 3f fc 1c b5 bd 65 17 be 3e 79 c9 ac 3e
       0.701486 -0.08843419 0.37127224 0.3374746
000260 b5 54 9c be 24 10 57 be 03 fb 28 c0 86 df 44 c0
       -0.30533376 -0.21002251 -2.6403205 -3.0761428
000270 2c 0f 01 c1 7e 03 00 40 8c a3 ec 3d 3c a0 ab 3f
       -8.066204 2.0002131 0.115546316 1.3408275
000280 f2 df 43 c0 88 54 b8 3f d3 bc dd be 12 c0 f7 3e
       -3.0605435 1.4400797 -0.43308124 0.48388726
000290 ee e2 14 3f f6 c1 e5 bf e2 44 d7 3e 3a be 53 3f
       0.5815877 -1.7949817 0.4204474 0.8271214
0002a0 7f da 09 be c8 9d d7 3e 51 8f 10 be 9b f1 59 bf
       -0.13462256 0.42112565 -0.14117171 -0.85134286
0002b0 4f 95 9e be 0f b5 28 40 e7 22 d1 be 53 14 1a 3e
       -0.30973288 2.636051 -0.4084694 0.15046816
0002c0 d3 20 91 3f 98 58 cc 3f 29 09 a9 bf e0 e2 cd be
       1.1338142 1.5964537 -1.320592 -0.40212154
0002d0 db d5 37 3d e8 92 b7 bf 3e 46 01 40 b2 5d 98 c0
       0.044881683 -1.4341707 2.0199122 -4.7614374
0002e0 5a d4 d6 be 6c 70 93 3f c0 c6 92 3e 82 b1 d8 3e
       -0.41958886 1.1518683 0.2866726 0.42322928
0002f0 9d d4 19 40 41 6e 71 3f 39 bf ad be db a7 ee 3f
       2.403602 0.9430886 -0.33934954 1.8644975
000300 df f9 fd 3f e9 19 c4 bf 53 be 9b c0 38 9f 89 3e
       1.984188 -1.5320407 -4.866983 0.26879287
000310 e0 9e d6 bf e2 13 dd bf 4f 25 b2 be ec 9e 87 bf
       -1.6767235 -1.7271693 -0.3479409 -1.0595374
000320 d0 47 31 bf b2 04 22 3e b9 89 99 3e 92 20 e0 3f
       -0.692502 0.15822104 0.29987887 1.750994
000330 fe 9e 3b bf 28 43 03 3f e3 55 14 bf 4b 69 0a be
       -0.7328948 0.5127435 -0.5794355 -0.13516729
000340 53 06 3a bf 37 be c5 be c0 8e 31 41 67 b1 25 41
       -0.726659 -0.38621685 11.097351 10.355811
000350 8e 5f 0a 40 df f7 45 c0 ec 0a ae 3e 00 21 3d 3f
       2.1620822 -3.0932539 0.33992708 0.7387848
000360 2a d1 e7 3e 1b ae a6 3f 3a 3d 43 3f 06 4c d7 bf
       0.45276767 1.3021883 0.762653 -1.6820076
000370 6e bb 58 3f b7 0f 1b 3e ad f9 52 3e 7f 1f df 3f
       0.84660995 0.15142713 0.20603056 1.7431487
000380 97 c9 15 40 63 8a 1a 40 ba 28 85 be cc fb a3 bf
       2.340429 2.4146965 -0.26007634 -1.2811217
000390 c1 47 5f 3d d8 88 9a bf 82 de 4f bf 02 bf 65 bf
       0.05451179 -1.2073011 -0.81198895 -0.8974458
0003a0 98 23 a0 bd 37 db 83 bf 19 90 3e 3e 29 e5 b0 bd
       -0.07819289 -1.0301274 0.18609656 -0.08637459
0003b0 dd 74 f1 be 3d 33 80 3d 15 f0 00 40 03 87 a4 3e
       -0.47159472 0.06259773 2.0146534 0.32134256
0003c0 2d f0 9a 40 26 84 ac bf e0 b3 05 3e 3a fe e4 bf
       4.8418183 -1.3477829 0.13056898 -1.7890084
0003d0 c0 91 08 40 82 b7 33 bf f6 bb fe 3b de c4 bc bf
       2.1338959 -0.70201886 0.0077738715 -1.4747579
0003e0 67 58 11 c1 32 b3 54 bf 16 8f ce bf ac a5 04 c1
       -9.084083 -0.8308593 -1.6137416 -8.290447
0003f0 21 c6 43 40 5e bf 4c 40 54 ea 9c be 41 0c ff bf
       3.0589678 3.1991801 -0.30647528 -1.9925615

encoder.conv0.q.bias f4 [32]
000000 5e 84 b8 3f ec 47 c8 3f 8b 5b 98 be 0b a4 66 3f
       1.4415395 1.5646949 -0.29757342 0.9009406
000010 2f a6 7e bf 74 bb 01 be 76 b9 80 bf c3 1b be be
       -0.99472326 -0.12669164 -1.0056598 -0.37130556
000020 57 8c 76 be e5 5b c7 bf 28 58 7c bf 4b d6 31 bf
       -0.24076973 -1.5574919 -0.98572016 -0.6946761
000030 43 c4 18 bf bf b2 ec be c8 7f bd be 36 8c fa bf
       -0.5967447 -0.46230122 -0.37011552 -1.9574039
000040 b9 c9 9f 3f ce 4b 27 3f e4 c9 22 bf 7f 0e d4 be
       1.2483436 0.65350044 -0.6358931 -0.4141731
000050 e0 a2 8c 3f 45 c4 d4 bf 18 8a b3 be ef f0 83 be
       1.0987206 -1.6622397 -0.35066295 -0.25769755
000060 e3 1b 49 3f f8 ff d9 be 01 be 0b bf 89 7e 84 bf
       0.78558177 -0.425781 -0.545868 -1.0351115
000070 08 74 a5 bf 27 12 ae bf de 4d 97 bf 28 9f e3 3d
       -1.2926035 -1.359929 -1.1820638 0.11114341

encoder.conv0.k.weight f4 [32, 28]
000000 21 2e 05 3e cf 07 f8 bd f6 55 c9 3f c7 1f c5 3c
       0.13005878 -0.12110864 1.5729358 0.024063004
000010 6a fe 43 bb d7 7a 09 3e 55 ad ef 3f 77 f0 8e bf
       -0.0029906281 0.13425766 1.8724772 -1.1167134
000020 f6 97 e7 3c 76 06 b8 bc 99 8c a6 bf 70 ea 10 3e
       0.028270703 -0.022464018 -1.3011657 0.14151931
000030 74 83 2b 3f cf 8d e0 3f 48 8d 55 c1 1c b6 8b 41
       0.66997457 1.7543277 -13.3469925 17.46392
000040 bb 57 dc be c7 27 3b 3d f1 9f 0c bb 56 0b 62 3e
       -0.43035683 0.04569223 -0.0021457637 0.22074637
000050 6e 58 38 40 e6 11 8f bf ff 1d 0d 3d da ae b8 3c
       2.8803973 -1.1177337 0.034452435 0.022544313
000060 b7 39 ca 40 00 47 00 bf d2 30 de be bf 87 b6 be
       6.3195453 -0.5010834 -0.43396622 -0.3565044
000070 16 ce 80 3e 89 75 24 bc b7 d0 e9 bf 79 68 81 3c
       0.2515723 -0.010037788 -1.826682 0.015796887
000080 9b 2f 06 3c b8 24 2a 3c 56 61 f3 bf cd 34 b2 3d
       0.008190061 0.010384731 -1.901408 0.08701477
000090 f9 4a b4 3c 2a 04 a8 be a4 56 16 3f f0 b1 80 3e
       0.022008406 -0.32815677 0.58725953 0.25135756
0000a0 42 7a a4 bd 2a 8e 6f bf aa 9a ca 40 e1 0c b8 bf
       -0.08031131 -0.935763 6.33138 -1.437893
0000b0 04 5c cf 3e 74 04 47 3d 9d 86 cd bb 7f 64 6f 3e
       0.4049989 0.04858823 -0.0062721507 0.2337818
0000c0 d2 d5 6c c0 b8 74 93 3e 79 c7 bb 3b 58 e5 3d bd
       -3.7005506 0.28799987 0.005730566 -0.046361297
0000d0 cb d2 14 41 ad f5 b6 3f 15 b9 77 bf 4a f8 9e bf
       9.301463 1.4293724 -0.9676679 -1.2419522
0000e0 24 48 8b 3b bc bb 6e be f6 2e bf be 46 ab c6 3a
       0.004250543 -0.23313802 -0.37340516 0.0015157245
0000f0 b4 a7 50 bc ba 3d 6a be 96 85 03 bd e9 41 bd be
       -0.012735296 -0.2287511 -0.03210982 -0.36964348
000100 a8 0b 2b bc f1 e3 1c 3f 8d d9 c8 3f f3 b7 70 be
       -0.010439791 0.6128531 1.5691391 -0.23507671
000110 39 86 9d 3e 4c ee 58 bd 9b 2a 50 c1 e9 c0 1d c1
       0.30766466 -0.052961633 -13.010402 -9.859597
000120 30 61 d5 bf d8 a5 bf bc eb ca 1d 3c 28 46 a6 be
       -1.6670284 -0.02339451 0.009630899 -0.324754
000130 c7 04 03 bf 24 e0 cc be b5 2c d4 bc 82 97 25 3f
       -0.51179165 -0.40014756 -0.025900224 0.6468431
000140 c3 40 67 bf 8c dd a4 c0 59 92 eb c0 fc fe bb 3e
       -0.90333194 -5.1520443 -7.3616147 0.36717975
000150 6e 3b ac 3e ee d7 27 bc ea 49 f1 3f 22 e0 a2 3e
       0.3363909 -0.010244353 1.8850682 0.31811625
000160 0c 49 8a bc 9d 2b 76 bf 1c 00 c6 3f 7d b2 b8 3e
       -0.016880535 -0.961603 1.5468783 0.36073676
000170 56 b7 87 3d 02 57 80 bf 06 47 28 bf a2 c9 3d 3f
       0.066267654 -1.0026553 -0.65733373 0.7413579
000180 ee 7a 9a 3f 3f b9 00 40 86 56 d6 3f a8 a1 9a 40
       1.2068765 2.0113065 1.6745155 4.8322334
000190 57 f9 48 3f c0 fb 58 3e 49 98 26 bc 6d 68 7b bf
       0.7850546 0.21189785 -0.010168144 -0.98206216
0001a0 d3 42 6a 3f 3b 92 4f 3e db 68 3f 3c e2 38 a0 bf
       0.91508216 0.20270626 0.011682714 -1.2517359
0001b0 98 a8 e0 40 e2 fc 12 3f cf ea 6e c0 46 83 d9 3c
       7.0205803 0.5741712 -3.7330816 0.026551854
0001c0 eb ca 89 be a8 ab e1 3e 69 47 56 bf 36 cc 38 40
       -0.26912627 0.44076276 -0.83702713 2.887464
0001d0 24 34 8c bc a8 8b 0b 40 17 5c 25 c0 a9 ca 73 be
       -0.017114706 2.180399 -2.5837457 -0.23807777
0001e0 02 ac ee 3e d0 66 81 bf 54 33 6c c0 c1 93 9d c0
       0.46615607 -1.0109501 -3.6906328 -4.9242864
0001f0 74 51 1d c0 8d c0 1e c0 d5 53 de 3f 12 4b 05 c1
       -2.4580965 -2.4805024 1.7369334 -8.330828
000200 84 74 89 c0 5a 46 90 bf 76 a4 82 bc be 4b c2 bf
       -4.295473 -1.127147 -0.015947562 -1.5179365
000210 ff a0 63 40 49 52 b8 be e3 3e 16 bf 4f a4 d8 3d
       3.5567014 -0.3600028 -0.5868971 0.105782144
000220 d0 0b d4 3d 06 e6 51 40 5a 15 9c bf b2 f7 88 3e
       0.103538156 3.2796645 -1.2194016 0.26751477
000230 d9 c1 06 c0 1f 85 0b c0 e5 0d 70 3f e0 8a 07 c0
       -2.1055815 -2.18 0.937712 -2.1178513
000240 f9 74 b3 be 24 3f 07 be 32 9f 39 3e b4 fb 72 3f
       -0.3505018 -0.1320768 0.18127134 0.9491532
000250 3a c4 59 3f f8 01 20 bf 0b 47 62 bf a1 af de 3e
       0.8506504 -0.62503004 -0.8838965 0.4349337
000260 83 30 0b 3f 9b 14 e7 3e 3a a1 18 c1 f6 50 1c c1
       0.543709 0.45132908 -9.539362 -9.769766
000270 c6 dd 51 c0 de 5c c8 bf 6d 7f be 3e 3e e6 6c bf
       -3.279161 -1.5653341 0.37206593 -0.9253882
000280 10 dc c8 bb 54 ca 7c 3e e8 ba 88 bf 3e c9 fb 3d
       -0.006129749 0.24686557 -1.0682039 0.12294243
000290 18 b5 01 41 1d 9f 5e 40 a8 19 87 3f 2c 88 05 40
       8.106712 3.4784615 1.0554705 2.0864363
0002a0 22 a7 75 bf 77 22 20 bf 05 69 93 3f 11 9c 42 40
       -0.9595815 -0.6255259 1.1516424 3.0407755
0002b0 d0 90 84 3e f3 b2 3c bf c2 56 39 3f ad 88 95 3e
       0.25891733 -0.73710555 0.72398007 0.29205838
0002c0 05 79 26 bf 2b c4 db 3d 8c 7a 43 be 52 14 b0 bd
       -0.6502841 0.107307754 -0.19089717 -0.08597626
0002d0 db cc 62 3f 8f e8 07 3f 17 2a ca 3f 95 e9 6c c0
       0.88593835 0.5308923 1.5794095 -3.7017567
0002e0 50 5f d7 bf 2c 20 97 3f 59 1f 80 3b 53 60 32 40
       -1.6825962 1.1806693 0.003909987 2.7871292
0002f0 64 3a 1b bf 0c a4 2a bf 56 97 35 be 0f bd 84 3d
       -0.6063597 -0.66656566 -0.17733511 0.064813726
000300 e7 6c 9e 40 e5 50 63 40 e2 c2 40 3f ce ff 05 bd
       4.9507937 3.5518124 0.7529737 -0.032714657
000310 91 a3 b2 be ce 8d 25 bf b6 e4 1c 3f 8a db 12 3d
       -0.34890416 -0.646695 0.61286485 0.0358539
000320 16 18 0d be db 6f 61 bd dd 5b 60 3f 65 11 d4 3f
       -0.1377872 -0.055038314 0.8764017 1.6567808
000330 90 01 52 bc 48 e5 0f be b4 56 ef bf 86 5a 5c bf
       -0.012817755 -0.14052308 -1.8698335 -0.8607563
000340 73 2b db bd c9 3f 57 bf 39 4a 50 41 8d 6b 4c 41
       -0.10701647 -0.84081703 13.018121 12.7762575
000350 67 01 a8 40 25 50 a3 3e 4c 81 14 3f 67 b2 80 bf
       5.250171 0.31897083 0.5800979 -1.0054444
000360 61 5a 3b 40 87 ea dd 3f 6d 8f 63 3f 5b f0 6a bf
       2.9273913 1.7337197 0.88890725 -0.91773003
000370 c2 c0 09 41 2e 9a 58 40 ab d8 dc 3f 64 b6 96 3f
       8.60956 3.3844104 1.7253622 1.1774411
000380 b5 da 4a c0 3d 13 34 c0 4e 40 f0 3e 36 a5 1e bf
       -3.1695988 -2.8136742 0.4692406 -0.6197084
000390 27 01 91 be 24 51 4c 40 b0 02 1e 3d a4 b1 0c 40
       -0.28321192 3.1924524 0.03857678 2.1983423
0003a0 b9 89 75 be d0 0a 57 3e 26 9a ef 3d f6 c3 a1 3e
       -0.23978318 0.21000218 0.11699323 0.3159482
0003b0 4c 82 72 be a9 b0 3b 3e 35 57 67 c0 b0 83 d4 bf
       -0.23682517 0.18329109 -3.6146977 -1.6602688
0003c0 60 aa 18 c0 34 b1 9c bf d0 3d 6c be 3c 35 60 40
       -2.3853989 -1.2241578 -0.23070455 3.5032492
0003d0 94 79 16 bf 4a fc f6 3f 43 c8 91 be 3c 4d af 3f
       -0.58779263 1.9295743 -0.284731 1.3695445
0003e0 c3 82 f1 c0 60 7d e6 bd 77 41 ea 40 67 e9 14 c0
       -7.547212 -0.11254382 7.3204913 -2.3267457
0003f0 fb 3f 25 40 8b ba 31 40 56 55 67 bf 20 46 49 3e
       2.58203 2.7770107 -0.9036459 0.19655657

encoder.conv0.k.bias f4 [32]
000000 4a 55 e1 bf b0 6e a1 3f ac 06 03 3f 31 10 92 bf
       -1.7604153 1.2611904 0.51182055 -1.1411191
000010 0b 9d f9 bf dd 39 9c 3e 6b 89 1f be 50 8c 34 be
       -1.9501051 0.30512896 -0.15579765 -0.1763165
000020 f5 b6 67 be 41 5c 29 3f ea 4d 45 3d 2c c4 57 3e
       -0.22628386 0.66156393 0.048170008 0.21070927
000030 4c 04 86 bf cb 5c a7 bd a8 c5 23 3f 75 0d 0e 3f
       -1.0470061 -0.08171996 0.63973475 0.55489284
000040 04 b9 26 3f 7a 55 dd 3e ea 7a 30 bf f1 98 d8 3f
       0.6512606 0.43229276 -0.6893755 1.6921674
000050 ba 7b 75 3e 88 9c 15 3f da f9 4a be a0 b4 95 3e
       0.23972979 0.5844197 -0.19821873 0.29239368
000060 ad 6b 27 bf d4 4b ce 3c 50 76 d5 3f ff b1 ac 3d
       -0.65398675 0.025182642 1.6676731 0.084323876
000070 7c 9a 61 bf 3c 15 bd bf b2 b8 ed bf 44 fb 83 bf
       -0.8812635 -1.4772105 -1.857199 -1.0311055

encoder.conv0.v.weight f4 [32, 28]
000000 11 c4 32 be dc e9 44 3e fa 92 49 bf 9d 78 13 be
       -0.17457606 0.19229835 -0.78739893 -0.14401479
000010 fd cf fd bc ef d1 11 bf c2 41 bc bf 95 98 83 3e
       -0.030982966 -0.5696096 -1.4707568 0.25702348
000020 29 d0 0b bd d7 59 0b be 38 31 b7 3f f2 bc 91 3f
       -0.034134064 -0.1360849 1.4311895 1.1385787
000030 59 39 de 3d a4 47 57 3e 36 c9 48 41 58 69 4f c1
       0.10850782 0.21023422 12.549124 -12.963219
000040 23 c7 29 40 f7 ab 35 bd e7 6b ec bc f3 de 0f bf
       2.6527793 -0.04435345 -0.028860046 -0.5619957
000050 21 fd de 41 5d 4e 09 bd 72 72 19 bd 93 7d 0d be
       27.873598 -0.033522 -0.03746266 -0.13817434
000060 c8 c4 f4 3f 62 61 5b bf 3f 1f 39 40 05 b2 e0 bf
       1.9122553 -0.8569547 2.892532 -1.7554327
000070 54 02 e8 bc ed 9a 68 3c e2 fe cd 3f ba 04 c4 3d
       -0.028321423 0.014197093 1.6093409 0.09571214
000080 26 5f 84 3c 76 97 4b 3e 37 3c d8 3f e2 80 4b 3e
       0.016158652 0.19881997 1.6893376 0.19873384
000090 49 4a 5d 3b 07 6a a8 3d 56 46 39 bf 6f c0 97 3e
       0.0033766201 0.08223348 -0.7237295 0.29639003
0000a0 e6 7d 36 3f a5 aa e7 3f 76 46 8b c0 4d db bb 40
       0.71285856 1.8098952 -4.352351 5.87052
0000b0 dc 3b 84 be 64 ef 6f 3d 77 37 93 3b 19 ee 3a 3e
       -0.2582692 0.05857791 0.004492696 0.1825489
0000c0 60 54 df 3d 5f 96 0a 3e 9c de 9c 3b 89 56 a1 bc
       0.10904765 0.13533925 0.0047872793 -0.019694583
0000d0 ad e7 04 40 8a d9 9b 3f ee 67 20 3e 56 7b 0f 3e
       2.0766404 1.2175763 0.15664646 0.14011893
0000e0 24 3b 73 3d 22 b3 c2 3d 4e fb f6 3f ed c9 58 3e
       0.059382573 0.09506823 1.9295442 0.21170779
0000f0 c0 a2 3a bc 39 82 f0 3e 14 1e 01 40 1f 61 7e be
       -0.011391342 0.46974352 2.0174608 -0.24841736
000100 a2 92 8d bc e5 3c e1 3d 06 7f 11 bf 29 4f ca be
       -0.017281834 0.10997943 -0.5683445 -0.3951352
000110 5c dd a9 3e e3 88 83 3f 3d 6b 2c 41 75 fb 92 41
       0.33176696 1.027615 10.776181 18.372782
000120 75 a8 0a bf 39 a6 5e 3d 57 18 b9 3b 9d 29 aa 3e
       -0.54163295 0.05435774 0.0056486535 0.33234873
000130 d7 b8 45 40 92 29 b5 be ba a2 fd bb 30 3f 5a 3e
       3.0894067 -0.35383278 -0.007740346 0.21313167
000140 87 ea 63 c0 97 d6 13 40 50 b7 43 c0 64 95 ee 3f
       -3.5611894 2.3099725 -3.0580635 1.863934
000150 53 05 24 40 ac 3d 29 40 e6 b1 06 bf 11 57 de 3f
       2.562825 2.6443892 -0.526152 1.737032
000160 12 12 3e be 48 d6 06 3f 1f e9 6a bf c1 16 e2 3f
       -0.18561581 0.5267072 -0.91761965 1.7663194
000170 11 48 9e 3e ce dc c3 bf 4c f3 f9 be 79 00 7e bf
       0.30914357 -1.5301759 -0.48818433 -0.9921947
000180 29 a2 65 bf 6a 2c 76 bf d7 e4 7a 40 b2 4c 36 3f
       -0.8970056 -0.9616152 3.9202173 0.7121078
000190 d6 76 18 c0 11 fd d9 3f b6 77 1b be 43 97 e8 3e
       -2.3822532 1.7030355 -0.15182385 0.45427904
0001a0 d1 df 08 40 15 19 d5 3f ba 06 a1 3e 8f 56 f4 bf
       2.1386607 1.664828 0.31450444 -1.9088916
0001b0 b2 ab bc c0 bf 69 4b c0 90 83 1a 41 15 db 20 40
       -5.895959 -3.1783292 9.65712 2.5133717
0001c0 f7 55 92 bd 61 63 6a bf 96 3a 53 bc 30 6a 43 3f
       -0.07145303 -0.9155789 -0.012892386 0.76333904
0001d0 d9 68 0d 3f 55 25 6e 3f 12 27 8a 3e 59 3c fa bd
       0.5523811 0.93025714 0.26982933 -0.12218542
0001e0 97 74 18 be 4a 32 6f be 4c 42 21 c0 2c 95 4d be
       -0.14888225 -0.23359028 -2.5196714 -0.20076436
0001f0 7f d9 67 bf 04 7c d6 bf dd bd ba bf 96 27 4c 40
       -0.9056625 -1.6756597 -1.4589192 3.1899161
000200 76 c4 36 3f ff 0e 92 be 7f d4 01 bd 15 e9 24 3c
       0.71393526 -0.28527066 -0.031696793 0.010065337
000210 48 d0 15 40 23 ae af be ad 3e 34 3d 78 fd b2 be
       2.3408375 -0.34312543 0.044005085 -0.34959006
000220 83 7c c7 40 73 64 24 bf 1d 16 b7 bf 01 6e 2e 40
       6.233949 -0.64215773 -1.4303623 2.725464
000230 e6 9a e4 bd 25 68 46 be ce 77 8c be 91 d9 fb 3c
       -0.11162357 -0.19375665 -0.27435154 0.030743392
000240 5f e1 46 3d 7e 7a b7 bd 21 67 7d bf 88 76 a5 3d
       0.048554774 -0.089589104 -0.9898549 0.08079249
000250 8f 42 cb 3c af e4 9d 3d ed c8 da 3e ce 76 09 3f
       0.024812011 0.077096336 0.4273142 0.53696907
000260 fc a2 af be 04 a9 16 be 72 ba b5 be 56 1c 64 bf
       -0.34304035 -0.14712912 -0.3549381 -0.8910574
000270 cf c1 30 bf 07 5c 80 3d 6c ed 36 3c 7d b5 1f 3d
       -0.6904573 0.06267553 0.011165004 0.03899144
000280 f8 6d 04 c0 89 02 06 3e 8f a9 72 3b 47 1b c0 3d
       -2.069212 0.13086905 0.0037027334 0.09380203
000290 37 e1 bc 3f b6 fd 0c 3e ff 0a fd 3e 0f 28 18 bf
       1.475623 0.13768658 0.49422452 -0.59436125
0002a0 41 cf 67 bf a0 42 7c bf 6b 0c 01 bf 09 48 10 3f
       -0.9055062 -0.9853916 -0.50409573 0.56359917
0002b0 8e 2b 33 be fe de 1c 3e 7e 43 d2 be 2e 53 0f 40
       -0.17497084 0.1531944 -0.41067117 2.239452
0002c0 b1 03 c0 bd 2c 28 a4 bf 92 ea 02 3f 9f 59 10 bf
       -0.09375704 -1.282476 0.51139176 -0.5638675
0002d0 71 84 82 be 7e f8 23 bf 9a f6 92 40 66 4c 2f 40
       -0.2549167 -0.64051044 4.5926027 2.739038
0002e0 3e 46 8f c0 ed b9 87 3e c7 1c 51 bf 0c 8d 94 3e
       -4.4773245 0.26509038 -0.81684536 0.2901386
0002f0 aa 46 cc bf a5 53 f3 3f 24 f1 70 be 81 f2 c5 bf
       -1.5959065 1.9009901 -0.23529488 -1.5464631
000300 e2 33 4c c0 40 82 c2 bf 6e b1 d5 bf 2a 07 67 40
       -3.1906667 -1.5195999 -1.6694772 3.6098123
000310 ca 01 5e 3d e9 51 66 bd b5 25 e6 be b6 08 01 be
       0.054200925 -0.05623046 -0.44950643 -0.12600979
000320 04 75 77 3d 43 4f a0 3d 9b 86 05 be d7 28 56 bc
       0.06041433 0.07827618 -0.13039629 -0.01307126
000330 5d 37 19 3d df 9a d6 3d 08 bb 0c bd d5 8f d4 3e
       0.037406314 0.10478758 -0.034358054 0.41515985
000340 69 29 98 bd db 49 e6 be 71 9c f3 40 df 43 f2 40
       -0.07429773 -0.44978222 7.612847 7.570785
000350 8d 72 53 3f 16 3d db bd 3f 0b fc bc ba 32 57 3c
       0.82596666 -0.107050106 -0.030767081 0.013134653
000360 e4 4c c1 3f 8d ac ec bc f8 dd e2 3c 11 10 38 3d
       1.510159 -0.028890872 0.027693734 0.044937197
000370 b1 99 cc bf 2e 9f 80 3f bb bc c7 3f ac 8f fd 3d
       -1.5984403 1.0048578 1.5604471 0.12380919
000380 97 de 7a 3e 3f 4a 7e 3e d3 82 9f 3f de 7e 43 be
       0.24498974 0.2483301 1.2461799 -0.19091365
000390 fe c7 76 bd dc 0f 48 bf 0f 1e bb 3f 86 4d 7a 3d
       -0.06024932 -0.781492 1.4618548 0.06110909
0003a0 34 97 0d 3d 1f 09 21 3e a0 1a 9c bf 34 d4 4b bd
       0.034568027 0.15726136 -1.2195625 -0.04976292
0003b0 4d 8e 02 3e c4 a1 a0 3f 48 fd 93 bf 39 5e 07 40
       0.12749596 1.2549367 -1.156167 2.115126
0003c0 98 bf 04 3e cc 9d 8e be 6f 77 68 bd df 85 29 bf
       0.12963712 -0.27854764 -0.056754526 -0.66219896
0003d0 50 62 39 40 3e 73 8c bd 11 c8 07 3d 65 88 a3 3e
       2.8966255 -0.06857918 0.033149783 0.31939998
0003e0 4b d5 1b 3f aa 4d 72 c0 ae 18 bb 3f 29 98 9a 40
       0.60872334 -3.7859902 1.4616907 4.831074
0003f0 e8 f8 a1 be 0a ba ca bd b3 a7 45 bf 76 b4 53 3c
       -0.31635213 -0.098987654 -0.77209014 0.012921443

encoder.conv0.v.bias f4 [32]
000000 a3 57 a9 3f e3 be 97 bf 40 b7 c5 be dc 29 7a bf
       1.322987 -1.1855129 -0.3861637 -0.9772012
000010 87 b8 3f 3f d0 b3 b8 3a f6 4b 35 3f 0a c9 12 bf
       0.7489094 0.0014091674 0.7081903 -0.5733801
000020 87 2d c7 bf c9 54 26 bf e2 12 c3 bf e4 b4 82 3f
       -1.5560769 -0.6497312 -1.5240138 1.0211453
000030 ec 7f 10 bf fa f6 9b be 1f 6a ac bf 77 e0 ea 3e
       -0.56445193 -0.30461866 -1.3469886 0.45874378
000040 29 36 43 3f 99 6a e2 be 17 cb 19 bf 68 3e cb 3f
       0.76254517 -0.44221953 -0.60075516 1.587842
000050 66 86 6b be f1 ff cd 3f bd ef b9 3d 43 2a f9 bf
       -0.23000488 1.6093732 0.090789296 -1.9466022
000060 54 f7 27 bf f6 bc 66 3c 4f 9c 5d be 42 82 fc bf
       -0.6561177 0.014083138 -0.21641658 -1.9727252
000070 76 99 cd 3d 39 22 a8 bf 75 88 5b 40 59 c9 ed 3f
       0.10039036 -1.3135444 3.4302037 1.8577071

encoder.conv1.q.weight f4 [16, 64]
000000 8c 6d c9 c0 4e 73 b1 3f 1d 84 9c 3f 6b ba 71 c0
       -6.2946224 1.3863313 1.2227818 -3.777003
000010 65 d9 a1 bf 99 a9 81 3f cd fa 02 40 20 f7 73 3f
       -1.2644469 1.0129882 2.0465577 0.9529896
000020 2f 67 b9 3f 35 ae 2c 3f 78 ce 38 40 da ae 68 bf
       1.4484614 0.6745332 2.8876019 -0.908918
000030 b1 94 a8 c0 e2 5f 86 bf 0b 75 eb 3f 42 80 82 be
       -5.268151 -1.0498011 1.8395094 -0.25488478
000040 cb 4f 99 bf 51 51 10 c0 73 13 4d bf 22 89 5f be
       -1.1977476 -2.2549632 -0.801078 -0.21829656
000050 37 10 63 bf dd d0 4d 40 f2 be 28 bf ff a9 cb bf
       -0.88696617 3.215873 -0.6591636 -1.5911254
000060 c7 c6 28 3f 96 2c 9b 3f c1 d9 7b bf f6 98 7e 3f
       0.6592831 1.2122982 -0.9837914 0.9945215
000070 bd 45 6d 40 f7 69 07 40 c9 dc 7e bf f9 b5 90 c0
       3.7073815 2.1158426 -0.9955564 -4.5222135
000080 cc 61 cb c0 f9 53 77 3f e1 03 ee bc 37 88 87 c0
       -6.355688 0.9661251 -0.029054584 -4.235378
000090 73 a1 96 bf a1 7f e7 3f f7 2b 9c 3f 5e 59 54 3f
       -1.176802 1.8085824 1.2200917 0.82948864
0000a0 92 fc 5f 3f 20 cf 42 3f 67 cc ea 3f 7e 41 2a 3d
       0.87494767 0.760973 1.8343629 0.041566364
0000b0 2c 91 84 c0 a3 60 1d bf 92 89 99 3f 8a fa 05 3f
       -4.142721 -0.6147558 1.1995108 0.5233542
0000c0 9d 5e 67 bf ff a4 16 c0 ed 1e c6 bf 64 7e 11 bf
       -0.90378743 -2.3538206 -1.5478188 -0.5683348
0000d0 2c 87 e8 3f c4 19 1d 40 54 2b 6b bf e9 2d 0a c0
       1.8166251 2.4546976 -0.9186299 -2.1590521
0000e0 49 c7 2c bf d0 01 84 be 83 29 b2 be f1 4b 76 3f
       -0.67491585 -0.25782633 -0.34797296 0.9620963
0000f0 a1 e0 62 40 00 15 cc 3f 73 e9 4f bf 2c 7d 7f c0
       3.5449603 1.5943909 -0.8121559 -3.992015
000100 5d 36 b7 c0 0d d6 34 3f bf fc 8c 3f f0 41 64 c0
       -5.725386 0.70639116 1.1014632 -3.5665245
000110 ab 9d 05 3e cb 22 a0 3f c3 3a a9 bf 8d be 73 40
       0.13048427 1.2510618 -1.3221058 3.8085053
000120 fd b2 af 3f ae 5f c7 bf 7a 23 08 40 8e 86 93 be
       1.3726498 -1.5576074 2.1271653 -0.28813595
000130 49 eb 13 c0 9e b6 44 bf e6 9c 5a bc 6e 16 02 3f
       -2.3112357 -0.7684115 -0.013343072 0.50815475
000140 dd 2b 96 bf ea ee 0c c0 17 3d fb be 58 5c 19 bf
       -1.1732136 -2.2020822 -0.49070045 -0.5990653
000150 e7 c1 44 c0 9b 60 c4 3d 87 38 c8 3e da 78 95 3e
       -3.0743349 0.095887385 0.39105627 0.29193765
000160 25 6f cf be ec cf 1f 40 cf 17 09 bf 2d 2f 66 bf
       -0.40514484 2.4970655 -0.53551954 -0.89915735
000170 e1 74 ad 3f 76 5a 0a be fc 60 fb bf 02 e2 63 c0
       1.3551294 -0.1351107 -1.9638972 -3.5606694
000180 da 0b de 3e 0a e3 06 3f 43 22 c1 3f b4 d9 a8 3f
       0.43368417 0.52690184 1.5088581 1.3191438
000190 ff 8b a2 c0 9b 89 90 3f 91 bd 92 3e 42 b2 53 40
       -5.0795894 1.1291994 0.28660253 3.307755
0001a0 ed b7 19 3f ec 0f 2c be 3d 4e 5e 3f da 54 d2 be
       0.60046273 -0.16802949 0.8683813 -0.41080362
0001b0 ed ea 26 bf d5 e9 08 bf 97 9b c0 3f 21 08 28 3f
       -0.6520222 -0.534818 1.5047482 0.65637404
0001c0 30 29 3d 3f 3e 01 00 c0 ea 20 dd bf f6 86 dc 3e
       0.7389097 -2.0000758 -1.727567 0.43071717
0001d0 0e 92 13 c0 9b 0b d0 3e 61 cf 87 be d3 5f d3 3e
       -2.3057895 0.40633854 -0.26525405 0.41284046
0001e0 1e 7b c4 bd fe e0 e5 bd 48 e8 14 be ac 2c 84 bf
       -0.09593795 -0.112245545 -0.14541733 -1.0326133
0001f0 a9 bd 73 3f 33 7a 02 3e 12 ce 4a 3f 72 e9 79 c0
       0.95211273 0.12741928 0.7922069 -3.9048734
000200 4f b1 e1 40 42 62 07 bf 5c 49 75 3e f4 75 53 40
       7.052894 -0.52884305 0.23953766 3.3040743
000210 2e 4a 31 40 19 ff cb 3f f3 c2 41 3e bf 2e 84 3f
       2.7701526 1.5937225 0.18922023 1.0326766
000220 ec 47 94 bf 30 8f ce bf e9 67 81 bf 8c 41 50 3f
       -1.1584449 -1.6137447 -1.0109836 0.81350017
000230 17 a2 73 3f a7 cf ef 3f 2c 15 a9 3e e4 e5 91 3e
       0.95169204 1.8735245 0.33023965 0.28495705
000240 de ff 1b c0 e7 73 43 bf ef 72 a0 bf 05 e9 10 40
       -2.437492 -0.7634873 -1.2535075 2.2642224
000250 cf 5e f1 40 f9 c0 83 c0 ee 95 69 3e b2 93 2e 3f
       7.5428233 -4.117306 0.228111 0.68194115
000260 4f e7 dd bd 19 75 d0 bc c5 63 6e 3f 5e 0e 8c 40
       -0.10835134 -0.025446462 0.93120986 4.376754
000270 be e2 15 be 39 03 db bf b7 4e 12 40 41 fa 41 40
       -0.14637277 -1.7110358 2.2860544 3.0308993
000280 49 58 62 40 61 d8 c5 be ff 42 4c 3e e5 ce 98 3f
       3.5366385 -0.38641647 0.19947432 1.1938139
000290 f4 be e2 3c 90 96 62 40 f6 44 7a be ed 88 0e 3e
       0.027678944 3.5404396 -0.24440369 0.1391942
0002a0 0b 19 a7 bf e4 56 05 be e0 74 14 be 11 ed 31 bf
       -1.3054518 -0.13021427 -0.1449771 -0.6950236
0002b0 9f ca 98 bf 18 5a be 3f b7 9c a0 3f 34 1f 83 bf
       -1.1936835 1.4871244 1.2547826 -1.0243897
0002c0 cb 4d 6a 40 12 09 ee bf 3d c9 c0 be 9b 4b 82 3f
       3.660998 -1.8596518 -0.37653533 1.0179323
0002d0 56 7e 63 40 25 ac 56 c0 d3 97 93 bd 2e f7 80 3f
       3.554586 -3.3542569 -0.072066925 1.0075433
0002e0 6a 44 26 bf 11 c2 55 bf d9 7b 83 3f 6d c1 bb 3f
       -0.6494814 -0.83499247 1.027217 1.4668404
0002f0 40 ab bc bf 75 c1 0b bf a5 63 08 3f fd d7 b2 3f
       -1.4739761 -0.54592067 0.53277045 1.3972164
000300 58 c9 6c 40 9f 05 d9 be 9f 81 a5 bd ef 60 6f 40
       3.699789 -0.423871 -0.08081364 3.7402914
000310 00 2e 81 3f 03 47 87 3f 63 3b 76 c0 a2 d8 8b 3e
       1.0092163 1.0568546 -3.8473747 0.27313715
000320 96 29 e5 bf 85 8d 8d bf f5 2b 0b c0 51 6f cb be
       -1.7903316 -1.1058813 -2.174558 -0.39733365
000330 ca 95 89 3f f4 36 a1 bd bc 11 20 c0 36 e1 fb bd
       1.0748837 -0.078718096 -2.5010824 -0.12298815
000340 11 5a 19 bf b1 c7 0d 40 09 d4 d2 bc a9 6a 29 c0
       -0.59903055 2.2153132 -0.025735872 -2.647135
000350 14 27 fd bf 48 15 49 bf 68 4b 0f be 86 7c c0 be
       -1.9777551 -0.785481 -0.13993609 -0.37595004
000360 42 f2 bb 3f fd ce 10 bf af 9e 86 bf b2 19 c1 bf
       1.4683306 -0.5656584 -1.0517176 -1.5085967
000370 ff 62 57 c0 9e ed 37 bf e7 6f e9 3f aa 5d ff 3f
       -3.3654172 -0.7184695 1.8237275 1.9950459
000380 f7 2b 56 40 1a 79 d9 be 09 62 6c 3e 69 64 71 40
       3.3464334 -0.42475206 0.23084272 3.7717535
000390 d2 49 8d bf e6 9d aa be 4e 02 43 c0 fd c6 65 be
       -1.1038153 -0.33323592 -3.0470157 -0.2243919
0003a0 47 69 a1 bf 9e 9b c9 bf 76 64 9d bf 63 d8 e6 3e
       -1.2610253 -1.5750616 -1.2296283 0.45086965
0003b0 52 4b 3d be 02 59 cf bf df ec 0d c0 42 c8 d9 3f
       -0.18485764 -1.6199038 -2.2175825 1.7014239
0003c0 6a 3f ef 3f 88 04 9c 3f e4 8a 40 be c2 ea 23 c0
       1.8691227 1.2188883 -0.18802983 -2.5612035
0003d0 92 7a ad bf 88 16 f9 be e8 dd 19 be 70 9e 91 be
       -1.355303 -0.48650002 -0.15026057 -0.2844119
0003e0 4e 7d c7 3f 15 79 9d bf b6 a0 ad bc 6d 88 e0 bf
       1.5585115 -1.2302576 -0.021194797 -1.7541634
0003f0 b5 df 84 c0 63 95 6c bf 99 3f 4d 3f e1 bd 88 3f
       -4.152308 -0.92415446 0.8017517 1.0682946

encoder.conv1.q.bias f4 [16]
000000 21 01 c3 bd 3c c6 19 3f 98 35 98 bf 37 25 29 bf
       -0.095217 0.60068107 -1.1891356 -0.6607241
000010 aa a6 1a c0 31 b3 e1 be 17 b6 4e bf 21 27 ff bf
       -2.4164224 -0.44082025 -0.807466 -1.9933816
000020 9f 66 c3 bf 29 c4 e1 3f 56 41 8c 3f 76 74 c5 bf
       -1.5265692 1.7637988 1.0957439 -1.5426166
000030 1e 28 d8 be 10 29 e2 3e 53 d6 27 c0 2c 04 0a bf
       -0.42218107 0.44171953 -2.6224563 -0.53912616

encoder.conv1.k.weight f4 [16, 64]
000000 c2 e6 59 c0 99 bf b0 3f d8 62 d7 be 67 fa ef bf
       -3.4047093 1.3808471 -0.420676 -1.8748292
000010 39 d3 82 40 7b 9a 5b 40 c3 8d 91 40 e0 9e f6 bf
       4.088284 3.4313037 4.548555 -1.9267235
000020 13 2c 94 be 9f 53 24 40 d2 c4 0c 40 15 c5 42 3f
       -0.28939876 2.5676038 2.199513 0.76081973
000030 82 f9 0b bf 4c ca 64 bf a8 69 56 c0 4c 08 b5 bf
       -0.54677594 -0.8937118 -3.3501987 -1.4143157
000040 7b 7a f6 bf c2 3f 04 3e 4f f9 28 40 9d 28 27 3f
       -1.9256128 0.12914947 2.6402166 0.65296346
000050 77 b6 7d 3f 67 be e4 bf d7 11 cb be 47 9c fd be
       0.99106544 -1.7870606 -0.39662048 -0.49533293
000060 99 97 9e 3e f6 3e 46 40 19 28 bb be e0 ab 42 40
       0.30975035 3.0975928 -0.3655403 3.0417404
000070 53 39 3d 40 6d 6a 2f 40 d3 92 81 bf 66 70 c0 3f
       2.9566238 2.7408707 -1.0122932 1.5034301
000080 f9 0d cf 3e d2 75 50 3f 67 07 4b bf 16 17 71 c0
       0.40440348 0.8142978 -0.7930817 -3.767034
000090 55 b6 11 bf bf b0 1a 40 6d 25 5a 40 ee 3b cd bf
       -0.5691884 2.4170377 3.4085343 -1.6033914
0000a0 e1 64 28 bf 6b 41 25 40 47 07 df 3f d5 9b fb 3f
       -0.6577893 2.5821178 1.7424096 1.9656931
0000b0 db a4 7e 3f 17 bc 57 40 85 21 75 be b8 47 19 c0
       0.994703 3.370855 -0.23938568 -2.3950024
0000c0 be bd 7b 3e 3b c9 da 3d 8f 2f 17 3f b3 64 72 3f
       0.245841 0.10682913 0.59056944 0.94684905
0000d0 42 00 4b 40 27 4d eb bf 99 92 03 bf de 16 e2 3d
       3.1718907 -1.838292 -0.51395565 0.11039518
0000e0 22 29 49 bf 8c 9a 1a 40 a6 99 ca be b6 6e 80 40
       -0.7857839 2.4156828 -0.3957035 4.0135145
0000f0 3b c5 35 40 40 a1 d5 3f fa ae 14 3f e1 f8 f8 3f
       2.840163 1.6689835 0.58079493 1.9450952
000100 d0 18 a9 c0 94 98 10 bf 05 47 43 bf 12 5d 54 c0
       -5.284279 -0.56482816 -0.7628024 -3.3181806
000110 95 2a 60 3e 9a 68 69 bf 80 5d 8c 3f 1d d5 2a c0
       0.21891244 -0.91175234 1.0966034 -2.6692574
000120 48 b3 27 3e 94 0c 24 40 24 0e 97 3f 99 d8 62 be
       0.16376984 2.5632677 1.180119 -0.22152938
000130 6c 94 cb bf ab c5 57 bf 5c 4a 3b 40 a3 09 1f 3f
       -1.590467 -0.8428599 2.9264135 0.6212408
000140 6e 3b 35 bf 42 f5 91 bf cf c9 64 be a2 d8 5a bf
       -0.7079381 -1.1402972 -0.22342609 -0.85486805
000150 9b 08 f4 bf 56 64 34 3f e8 5a a0 bd 16 4c 0d bf
       -1.9065126 0.704656 -0.07829839 -0.5519422
000160 b4 f2 92 bf 3b f9 ab 3e ec 10 46 be 10 a1 89 be
       -1.1480317 0.33588585 -0.19342393 -0.26880693
000170 2e 20 80 be 93 45 6a be 89 10 7c 3d 8d 28 e5 be
       -0.2502455 -0.22878103 0.061539207 -0.447575
000180 e5 2b 8e c0 76 48 9e 3d d0 9d 97 bf 34 83 93 c0
       -4.442858 0.077286646 -1.1845036 -4.609766
000190 b6 a7 09 40 a6 7b 1f bf 53 5d fa 3e e2 e3 8c bf
       2.1508613 -0.6229805 0.48899326 -1.1007044
0001a0 f7 48 23 3f 86 92 49 40 43 80 e0 3f 56 b1 4c be
       0.6378321 3.149568 1.7539142 -0.19989523
0001b0 73 dc 7f bf 3e 19 ce bf b8 53 dd 3f 94 7c df be
       -0.99945754 -1.6101453 1.7291174 -0.43649733
0001c0 ec 91 02 40 e4 a4 cc bf 17 30 5c bf c3 0e 16 c0
       2.0401564 -1.5987821 -0.8601088 -2.344651
0001d0 e9 46 16 40 7c c6 1b 3f 8a d5 7b 3e a4 83 32 be
       2.348078 0.6084974 0.24593177 -0.1743303
0001e0 67 f8 20 bd 5a 8a 4b 3f bf e2 80 3e 85 82 6d bf
       -0.039299395 0.7950798 0.25172994 -0.9277728
0001f0 13 f6 33 40 40 b7 24 be ef 68 43 bf 94 cb 11 40
       2.8118942 -0.1608553 -0.7633199 2.2780504
000200 41 0a 83 c0 3e 93 52 3e ed 8e 64 3f 91 7e 87 c0
       -4.0950017 0.20563981 0.8928059 -4.2342
000210 05 20 38 c0 ae 40 21 c0 a2 b9 0d 3f 34 4e ee be
       -2.8769543 -2.5195727 0.5536138 -0.4654404
000220 0d 51 1e 40 c2 d1 3c 40 25 55 ea 3f 07 75 67 3f
       2.473697 2.9503026 1.8307234 0.90412945
000230 55 68 66 3f 32 b2 74 be b5 f7 08 40 2a aa 40 3f
       0.9000295 -0.23896101 2.1401188 0.7525965
000240 48 09 59 3e 5f 91 9c 3f 94 c5 ff bf 3c c2 f3 3f
       0.21194947 1.2231864 -1.9982171 1.9043651
000250 7f e0 ed bf a5 dd 11 40 8a 40 a0 be b8 70 92 bf
       -1.8584136 2.279153 -0.3129924 -1.1440649
000260 6f d3 16 be 47 98 91 bf a7 5e ac bf 1f 57 9a bf
       -0.14729093 -1.1374596 -1.3466386 -1.2057837
000270 80 4f 65 40 9f f6 66 bf 83 74 ca be 3e 4b 8e c0
       3.5829773 -0.90220064 -0.39542016 -4.446685
000280 c7 66 5e c0 9a f7 a7 3e af 00 5a 3f 03 1a 5b c0
       -3.475023 0.32806093 0.85157293 -3.4234626
000290 01 49 13 c0 9b 00 d4 be 25 78 aa 3e 0b 39 59 3f
       -2.3013308 -0.41406712 0.33294788 0.84852666
0002a0 dd be ab 3f 58 b3 59 40 09 d8 e8 3f d1 9a 73 3f
       1.3417622 3.4015713 1.8190929 0.95158106
0002b0 e6 79 c5 3f 63 c7 01 c0 cc 66 79 be 89 27 fd be
       1.5427825 -2.0277946 -0.2435562 -0.49444225
0002c0 e6 d9 22 c0 46 f3 2a 40 56 22 20 c0 bd a3 9e 3e
       -2.5445495 2.6710982 -2.5020957 0.30984297
0002d0 20 d9 57 c0 a0 08 1e 40 92 8f 16 bd c4 83 29 bf
       -3.3726273 2.4692764 -0.036758013 -0.66216683
0002e0 ab 71 2d be 50 c2 46 bf 92 13 b8 bf fb f6 91 bf
       -0.16937892 -0.7764025 -1.4380972 -1.1403497
0002f0 c7 26 96 3f 1d 44 27 3f 68 a7 87 be 55 28 30 c0
       1.1730584 0.6533831 -0.26494908 -2.7524617
000300 e3 f4 44 40 93 f2 3f bf 8b cd 96 bd 7a 7e 38 40
       3.0774467 -0.74979514 -0.07363423 2.8827195
000310 32 8c e2 bf e2 90 1d c0 c2 98 6d c0 80 42 b4 bf
       -1.7699034 -2.461968 -3.7124486 -1.4082794
000320 a4 d5 f2 bf c8 45 89 c0 b2 b0 6e c0 51 d3 2e c0
       -1.8971448 -4.289768 -3.7295346 -2.7316477
000330 7b ad 30 c0 61 ff fc bf f1 bb a9 bf a9 a0 ee bd
       -2.7605884 -1.9765435 -1.326048 -0.11651737
000340 2e 87 f8 3e 00 8e 24 bf 7b 30 8b bf ae 26 27 c0
       0.48540634 -0.64279175 -1.087417 -2.6117358
000350 90 5a ed bf 15 81 06 c0 c6 bf e8 3d 96 72 3e bf
       -1.8543262 -2.1016285 0.11364703 -0.74393594
000360 14 38 e9 be 12 6d c6 3e 32 05 73 bf 10 27 c6 bf
       -0.45550597 0.3875509 -0.949298 -1.5480671
000370 8f 0e df c0 ad 9d 8d bf 22 03 3f bd c2 49 a4 40
       -6.970527 -1.1063744 -0.046633847 5.1340036
000380 6e 7b f2 3d 39 c2 6c bf aa 60 58 bf cb b3 a2 3e
       0.118399486 -0.9248386 -0.845225 0.31777796
000390 3f 9b 5a 3f a4 f6 3c 3f ae 49 ea bf e0 6f d7 3c
       0.85393137 0.73813844 -1.8303735 0.026298463
0003a0 38 37 33 bf f4 74 fa bf b5 54 35 c0 d5 5e 09 c0
       -0.7000613 -1.9566941 -2.833295 -2.146413
0003b0 d0 fb ba bc 0b c2 d9 bf 51 14 f5 be 3e d2 44 bf
       -0.022825152 -1.7012342 -0.47867063 -0.76883304
0003c0 cf c2 37 c0 bc 61 70 3e 6d 53 0a 40 bd d2 8b bf
       -2.8712652 0.23474783 2.161342 -1.0923687
0003d0 06 7d 06 3f ed bc c6 bf 03 47 35 3d 72 d8 21 bf
       0.5253452 -1.5526406 0.044257175 -0.63220894
0003e0 1a 9c 32 bf f4 31 b5 3f 0a ec e2 3c ef 3a 16 3f
       -0.6976944 1.415587 0.027700443 0.58683676
0003f0 03 df 36 c0 19 12 05 bf 7d 8a 80 be 94 bd 4b 40
       -2.8573616 -0.5198074 -0.25105658 3.183446

encoder.conv1.k.bias f4 [16]
000000 d2 e9 79 bf 7e ea a1 3f bc c9 a6 3f dd ed 1c 3f
       -0.97622406 1.2649686 1.3030314 0.6130045
000010 7b 37 a9 be 52 66 72 3f 9a 34 77 3e 0f f9 11 3e
       -0.3305014 0.9468738 0.2414116 0.14255165
000020 06 76 97 3e 0b 10 31 3e 5c ac ae 3f 58 3f ac 3f
       0.29582232 0.17291276 1.364635 1.3456831
000030 4c 4b 09 40 6d f5 b9 3f ba d3 27 bf 53 46 82 bf
       2.1452208 1.4528023 -0.65557444 -1.0177711

encoder.conv1.v.weight f4 [16, 64]
000000 a2 d3 ca 3f d0 96 b7 3e bf d3 b1 be 3c 0b 24 40
       1.5845835 0.35857248 -0.34731862 2.5631857
000010 99 d3 66 3f ae 70 67 bf ad 0c 33 c0 4c d0 8a be
       0.9016662 -0.9040631 -2.7976487 -0.27112043
000020 34 92 2c bf 1c dd 63 bf 44 4b 1f c0 ca a8 d4 bf
       -0.6741059 -0.8900926 -2.4889688 -1.661401
000030 50 ef 81 bf 1c 29 85 bf d2 48 10 c0 25 83 4f 3f
       -1.0151157 -1.040317 -2.2544446 0.81059486
000040 fc db d9 3f 0a 31 1f 40 24 b2 fe 3e c2 af ba bf
       1.7020259 2.487368 0.49745286 -1.4584887
000050 dc 0b a6 3f bf 19 6f bf f7 6f d4 be cf d5 49 40
       1.2972369 -0.9339866 -0.41491672 3.1536748
000060 c6 ba 16 bf 5f 0f 21 bf 8f 64 3b 3f 5d b6 76 bf
       -0.58878744 -0.6291408 0.73200315 -0.96372014
000070 a7 75 36 c0 d2 fe b6 bf ed 78 34 3e 59 d5 23 40
       -2.850931 -1.4296515 0.17624255 2.5598967
000080 be 4f 2d bf a5 d7 da be 70 c7 43 be f0 f9 6a 3f
       -0.676998 -0.4274265 -0.19119048 0.91787624
000090 93 8d 9b 3f ad 64 9d 3e 36 ae 01 c0 e1 7b 23 bf
       1.215258 0.30740872 -2.026258 -0.638609
0000a0 e7 74 c4 be a6 0c 5f bf 4c 01 d8 bf 11 65 c7 bf
       -0.3837044 -0.87128675 -1.6875396 -1.5577718
0000b0 73 1b dc 40 b3 46 9c bf 31 1b 1a c0 37 72 77 3f
       6.8783507 -1.2209076 -2.4079096 0.96658653
0000c0 76 c6 45 3e 24 4b 6f 40 e8 2a b6 3f 23 f3 5a bf
       0.19313988 3.7389612 1.4231844 -0.8552725
0000d0 9b 53 0f 3f 3f bb 69 bf d6 f1 4a 3e c4 69 51 40
       0.55986947 -0.9130134 0.19818816 3.2720804
0000e0 05 a9 a2 3e 23 d7 cf 3e b5 2a 46 3e 29 84 c0 be
       0.31769577 0.40593824 0.19352229 -0.3760083
0000f0 c8 69 17 c0 fd ff 72 bf 1b 22 7c be 61 8d 10 40
       -2.3658314 -0.9492186 -0.24622385 2.258629
000100 da 4c 10 c0 4b 0a 7d 3e fe b1 39 3e 3a a0 37 c0
       -2.2546906 0.24710958 0.18134305 -2.8691545
000110 55 e5 c3 bf 7f b8 42 3f 01 4c 85 40 89 32 4e 3f
       -1.5304362 0.7606277 4.165528 0.8054586
000120 d0 37 1e 40 d1 3a 16 40 b5 78 07 40 1e 17 c3 3e
       2.4721565 2.3473399 2.1167424 0.38103575
000130 20 b5 1a bf 35 a7 57 bf 98 5c 98 40 6c 80 be 3f
       -0.60432625 -0.8423951 4.761303 1.4882941
000140 de e0 ab 3f ab 4e 8b bf cc f5 13 3e bb 66 28 bf
       1.3427999 -1.0883383 0.14449233 -0.65781754
000150 c8 7f b7 3f 89 48 83 40 9f ea 0c be e2 7f cb be
       1.4335871 4.1026044 -0.13761376 -0.39746004
000160 b2 2a 8b 3f dd 71 8c be 4e b0 ea be 05 93 2d bd
       1.0872405 -0.2743062 -0.45837635 -0.042376537
000170 93 aa 2f 40 91 33 dc 3f 43 99 3c bf 99 de ac c0
       2.744786 1.7203237 -0.7367136 -5.4021726
000180 22 53 77 bf bd 44 6c 3f 87 d7 16 3f b1 8f cb bf
       -0.96611226 0.92292386 0.5892262 -1.5903226
000190 23 ad b3 bf 8c 70 84 3d 86 2a 3b 40 3b bd b8 3e
       -1.4037212 0.06466779 2.9244704 0.3608187
0001a0 82 a2 09 40 b5 6b a2 3f 49 af 04 40 03 cd 4a be
       2.1505437 1.268912 2.0731986 -0.19804768
0001b0 0f 4f f1 be aa ae 75 bf 6b 76 37 40 f8 12 e2 3f
       -0.4713063 -0.9596964 2.8666027 1.7662039
0001c0 20 6f 17 3f e6 3f db be 80 df 1a bf aa bd 78 bf
       0.5915394 -0.42822188 -0.60497284 -0.97164404
0001d0 d6 e1 49 3f 93 c5 63 40 91 5e 17 3f 9f 1c 9e 3e
       0.78860223 3.558934 0.5912867 0.3088121
0001e0 e3 4d 8f 3f 01 fb 22 bf f5 96 85 bf 42 e4 08 3f
       1.1195644 -0.6366425 -1.0436693 0.53473294
0001f0 42 f9 08 40 fc df b6 3f cd 01 9d bd 17 71 19 c0
       2.1402135 1.4287105 -0.07666359 -2.3975275
000200 1f 40 06 40 12 2b 46 3f 4a 7e 04 3f 03 63 13 3d
       2.0976636 0.7740947 0.517552 0.035983097
000210 58 d3 8d bf 11 a9 d2 bf 96 ec ae bf d4 a7 f6 3c
       -1.1080122 -1.6457845 -1.366595 0.030109324
000220 c0 2a b4 3e bc 4b a3 bf b0 e7 c9 bf 85 59 f0 bf
       0.35188866 -1.2757487 -1.577383 -1.8777319
000230 48 2c f2 3d 71 13 82 c0 fa 3d f4 be b5 be 36 bf
       0.11824852 -4.064873 -0.47703534 -0.71384746
000240 33 70 3e 3f 5b 82 5b be 08 d3 77 40 43 71 22 3f
       0.7438995 -0.21436445 3.8722553 0.63454074
000250 cf 01 39 bf e1 a9 cf 3e 73 27 7c bf 10 7d 22 3d
       -0.72268385 0.40559295 -0.98497695 0.03967005
000260 48 a0 2c be a8 89 c2 bf 23 65 04 40 f4 91 df be
       -0.16858017 -1.5198259 2.068673 -0.4366604
000270 ee 34 92 bf d5 2e 0c c0 e6 e7 9f bf 9d fd 1c 40
       -1.1422403 -2.1903584 -1.2492645 2.4529793
000280 0d b4 65 40 cb 1f f4 3e 47 fc 07 3f 48 d4 cd 3f
       3.5891144 0.47680506 0.5311932 1.6080408
000290 b7 10 ab be a4 99 e7 be 6e c2 fa bf eb 6c 98 3f
       -0.3341119 -0.45234406 -1.9590585 1.1908239
0002a0 5e 69 17 3f 83 09 c9 bf ab 6e de be 80 1a 00 bf
       0.5914515 -1.5706028 -0.43443808 -0.50040436
0002b0 4e bb 30 bc 65 a7 c0 3c 9b 3e 70 3f 8e 4c 43 bf
       -0.010786844 0.02351732 0.9384553 -0.7628869
0002c0 e5 15 9f bf eb 2a 6f 3f 29 c0 cd bf b2 66 14 40
       -1.2428557 0.9342486 -1.6074268 2.318768
0002d0 70 22 7f 3f b5 be 93 3f 13 ae db bd b4 46 32 bf
       0.9966192 1.1542574 -0.107265614 -0.69639134
0002e0 81 f2 84 3e ac 22 45 c0 e8 56 c1 3f 46 d1 40 3e
       0.25966266 -3.0802412 1.5104647 0.18829831
0002f0 4e 1e 2b c0 0d 97 0b be 9d 89 4f 3e 55 ff 3b 3f
       -2.6737247 -0.1363184 0.20267339 0.7343648
000300 a9 ed 92 c0 fb 92 48 3f 78 3e 18 3f 27 e5 d3 c0
       -4.5915112 0.78349274 0.5947032 -6.6217227
000310 b7 c1 85 c0 79 8a 1d 40 33 e6 a0 40 36 a0 b0 bf
       -4.179897 2.4615767 5.0281005 -1.3798892
000320 41 ad 00 40 f2 a8 f8 3f 20 ba 85 40 09 09 e4 3f
       2.0105746 1.9426558 4.1789703 1.7815257
000330 2b c4 48 3f 09 d8 50 c0 80 33 98 3f 16 26 b9 3f
       0.7842433 -3.2631857 1.1890717 1.4464748
000340 11 59 59 c0 52 13 19 be a1 8f 78 3e 50 bd 8d be
       -3.3960612 -0.14948776 0.2427354 -0.27683496
000350 4c 67 a3 3f 27 a4 34 40 69 31 20 be de f7 14 be
       1.2765899 2.822519 -0.15643848 -0.14547679
000360 bf 61 9c 3f 6e 60 13 be c7 f9 83 bd 21 8f a6 be
       1.221733 -0.14392254 -0.064441256 -0.32531074
000370 19 44 97 40 11 2d aa 3f 88 24 32 bf d1 f3 9e c0
       4.7270627 1.3295003 -0.6958699 -4.9672627
000380 3b 66 26 c0 57 05 25 3f b1 cc 86 3e ec 2d 7b c0
       -2.5999897 0.6446127 0.26328042 -3.9246778
000390 47 bd 3d c0 4a 12 86 bd 99 e0 9b 40 96 dc 9b bf
       -2.9646776 -0.06546457 4.8711667 -1.2176692
0003a0 96 ef 7d 3f aa 11 aa 3f 47 e5 f6 3f 79 6b 8f 3f
       0.99193704 1.3286641 1.928872 1.1204673
0003b0 88 87 7f 3e 61 33 82 bf e9 e8 a0 be 79 0b 96 3f
       0.24954045 -1.017193 -0.31427696 1.1722251
0003c0 9f 9b b6 3f d0 a1 cc 3e 73 86 7c bf df 0b 82 be
       1.4266242 0.39967203 -0.98642653 -0.25399682
0003d0 37 37 ce 3e b5 d2 f9 3f be b3 6d bf 11 9d ef 3e
       0.402765 1.9517428 -0.9285239 0.4679952
0003e0 32 a0 19 be f6 e4 7a 3e b1 da 32 3f fd ef 99 bd
       -0.15002516 0.24501404 0.69864947 -0.07516477
0003f0 d4 67 38 40 6f 07 2f 3f 3b fd da be fc 9f 61 c0
       2.8813372 0.6837072 -0.42771325 -3.5253897

encoder.conv1.v.bias f4 [16]
000000 65 43 e0 3e 02 ec 9c 3f 01 9d e1 3f 3a 26 f0 3a
       0.43801418 1.2259524 1.7626039 0.0018321939
000010 91 9b 3a 3e 86 0d 9f 40 99 ef 62 be d3 45 bf 3f
       0.18223406 4.970401 -0.22161712 1.4943184
000020 ab c3 88 3f e7 7c 31 40 1f 98 01 40 c5 4e 6f 40
       1.0684713 2.7732484 2.0249097 3.7391827
000030 2a 4b c4 3e 82 08 2c 40 11 57 b8 3e 62 bf 87 c0
       0.38338596 2.6880193 0.36003926 -4.242112
