trained_model/model_epoch398.chrom13.pkl (torch, 41775 bytes, 18 tensors)

encoder.conv0.q.weight f4 [32, 28]
000000 a4 0b 87 3e 1b d6 12 be 84 fc 13 3e 96 b1 ce 3d
       0.2637607 -0.14339487 0.14451796 0.100924656
000010 d2 b2 80 bb 2e 78 0b 3e ad bb a9 be ad c3 be bd
       -0.003927567 0.13620064 -0.33150998 -0.09314666
000020 93 8d 95 3a 66 3d 13 b9 13 d9 9c bf 7e b3 5d 3f
       0.001140999 -0.00014041885 -1.2253746 0.8660201
000030 b1 09 e5 3f 1b 8e 09 40 d7 3d f4 c0 4b d6 e8 40
       1.7893583 2.1492984 -7.632549 7.276159
000040 8c 50 02 bf 5b 74 8b 3d b8 cc c5 bb 15 33 b3 3d
       -0.50904155 0.068093024 -0.0060363673 0.087499775
000050 73 89 1f 40 d6 5d 97 bd c9 7a b2 b9 5f e0 cd 3c
       2.4927642 -0.07390945 -0.00034042288 0.025131403
000060 06 91 03 40 01 53 13 c0 11 16 b5 c0 21 57 cb 3e
       2.0557265 -2.3019412 -5.6589437 0.39714912
000070 59 48 9a bf a9 df 97 bf 8c 01 0b bd 0a 52 f1 bd
       -1.2053329 -1.1865131 -0.033937022 -0.11783226
000080 b1 ba 58 be 0b b7 b2 bd 5a 06 71 3f 6d df a7 3d
       -0.21164967 -0.08726319 0.94150317 0.08196912
000090 96 c9 ad 3e 59 75 5c 3e 8d 1f 17 bf 51 14 89 3d
       0.3394286 0.2152914 -0.5903252 0.06693328
0000a0 92 a8 57 bf 11 c9 99 be ed 1c d1 c0 4f 4f c6 c0
       -0.8424159 -0.30036214 -6.534781 -6.197181
0000b0 cf 2d 1d 3f 8e d9 22 be 5e 88 b4 bd 66 60 e0 3e
       0.61398023 -0.15903303 -0.088150725 0.43823546
0000c0 06 fb 70 c0 c2 ce bf 3e 65 fc d6 3e a4 42 08 3f
       -3.7653213 0.3746243 0.41989437 0.53226686
0000d0 5d e1 af 40 da d4 18 3f 46 97 63 40 2b 28 9f bf
       5.49626 0.59699786 3.556108 -1.2434133
0000e0 29 7a d5 3a d5 7e dc be 29 0e e3 bf 65 cb 00 bf
       0.0016287017 -0.43065515 -1.7738696 -0.50310355
0000f0 76 3e 8a 3e 76 a8 2f 3f 97 0e b4 bf eb 6c 3d be
       0.2700078 0.68616426 -1.4066952 -0.1849858
000100 ea da e0 3d c7 ae 13 3f 21 35 d8 3e 45 50 58 3f
       0.109792545 0.57688564 0.42228034 0.8449748
000110 24 e7 dd bd 30 da 4b bf 44 b7 83 c0 4a d5 f5 bf
       -0.10835102 -0.796298 -4.1161213 -1.9205716
000120 d9 83 be 40 42 55 ce be f4 0c 3d 3e 53 95 15 3f
       5.9535947 -0.40299422 0.18461972 0.58430976
000130 eb b2 0b 40 b2 50 ef be eb e2 1c 3e a6 d1 d2 3e
       2.1827953 -0.46741253 0.15320937 0.41175574
000140 cc 6e 78 40 c7 62 e9 bf 1e 87 9b 3e 9e 49 26 c0
       3.8817625 -1.823327 0.30376524 -2.5982432
000150 a5 cd 8e bd 06 ef fa 3c 6f 15 90 3f d6 c1 e7 bc
       -0.06972817 0.030631553 1.1256541 -0.02829067
000160 65 21 7b 3c ae 22 a9 3c f4 d2 84 3f c6 90 22 3f
       0.015327786 0.02064642 1.0376878 0.63502157
000170 40 35 bb bc 6e fb 81 3d 26 0b 88 bf e9 68 83 3f
       -0.02285254 0.063467845 -1.0628402 1.0266391
000180 f7 6e d5 3f 0f 43 2f 40 e1 e5 39 c1 52 55 14 41
       1.6674489 2.738468 -11.618623 9.27083
000190 b6 ed 7f 3e a4 c5 b4 bb 68 b8 76 3c 5c d6 ed bc
       0.24993023 -0.0055167247 0.015058614 -0.029032879
0001a0 a9 c3 57 be 85 3e 11 3f dd 09 cb bc 26 89 0c bd
       -0.21070732 0.5673602 -0.024784977 -0.034310482
0001b0 ba c0 11 3e 9b c3 8f be 9d 6b 03 bd b5 b8 97 be
       0.14233676 -0.28078923 -0.03208505 -0.29633108
0001c0 ff b5 94 bd 88 f1 23 be 23 86 9a 3e 21 3c c4 be
       -0.072612755 -0.16010106 0.30180463 -0.38327125
0001d0 f6 90 94 3c 10 ab 0a bf 65 69 53 3e 91 2f b1 bd
       0.018135529 -0.5416727 0.20645674 -0.08651651
0001e0 44 ca 91 3c cc 2f d8 3c a2 99 46 3e 99 ce 7d bf
       0.017796643 0.026389979 0.19394544 -0.9914337
0001f0 3b 5e 5e be eb ce 13 3f 5e 16 89 c1 50 9f 89 c1
       -0.21715634 0.57737607 -17.135921 -17.20279
000200 2b e8 97 3f 8e 5a a9 bb 2e 60 f3 bb aa a2 46 bd
       1.1867727 -0.0051682657 -0.007427237 -0.048494972
000210 55 bc 5b 3e f4 fa f6 bc 9a 9c b4 3c b8 fe 0c 3d
       0.21458562 -0.03014896 0.02204733 0.034422606
000220 3a d2 02 c0 88 5c 84 be 63 de ff 3f 55 04 b0 3f
       -2.0440812 -0.25851846 1.9989742 1.3751322
000230 3a 7e e3 3c de 0f 34 3e b5 8b b4 bf ab 40 05 3f
       0.02777015 0.17584178 -1.4105135 0.520518
000240 eb c7 b6 3c f8 5d 96 3f 18 8f df bf b8 56 c2 bd
       0.022312125 1.1747427 -1.7465544 -0.094891965
000250 db c0 8c be 8a 9f 21 3f 46 d1 ad 3d 48 a4 de 3e
       -0.27490887 0.6313406 0.08487181 0.43484712
000260 93 d0 c1 bd 58 39 cd bf 17 c0 9a 41 4c 21 45 41
       -0.094636105 -1.6033125 19.343794 12.320629
000270 d9 b1 83 3f aa 7a ac 3e 24 ed 98 3a 51 17 55 3f
       1.028865 0.33687335 0.0011667353 0.83238703
000280 a2 9a b1 c0 65 52 be bd d4 f1 8e be 53 c7 c2 3e
       -5.550126 -0.09293059 -0.27918875 0.38042697
000290 e7 a3 dd bf fe 91 a6 3e 24 52 04 40 61 a4 7e c0
       -1.7315644 0.32533258 2.0675135 -3.978783
0002a0 f8 55 a8 bd 91 75 bf bd 79 d9 6f 3f fc c3 a7 3c
       -0.08219522 -0.09348596 0.9369121 0.020479195
0002b0 1a 44 0f bd d0 62 50 be 4e 19 50 3f 2d 36 64 3f
       -0.034977056 -0.20350194 0.8128861 0.89145166
0002c0 ae f1 97 bd a1 ec 19 bd 8c 0c 29 bf 58 04 15 3f
       -0.074191436 -0.037579183 -0.6603477 0.58209753
0002d0 37 11 ae 3d 81 10 c7 3f a7 61 d6 3e 27 d3 06 40
       0.08499377 1.5551912 0.41871378 2.1066377
0002e0 b5 a0 ac bc ef 24 10 be cf 72 75 bc 68 fd 0d 3e
       -0.021072725 -0.14076589 -0.014980986 0.13866198
0002f0 ec 37 8e bf a9 6a 4a 3f ea 9e dc bc 5c 89 74 be
       -1.1110816 0.79069 -0.026931245 -0.23880523
000300 91 07 de bf 01 54 2a 3f 84 2c 4c 3f 44 c3 19 3f
       -1.7346059 0.6653443 0.79755425 0.60063577
000310 20 91 0c 3d 8e 50 1f bc 63 bd 81 be f3 61 66 bd
       0.03431809 -0.009723796 -0.25339803 -0.056245755
000320 e8 30 b4 3c 18 0f c1 3e 4c 8a 42 be 92 fd 94 bd
       0.021995977 0.37706828 -0.18998069 -0.07274927
000330 78 22 ad 3c 08 82 10 bf ab ac 07 3f 22 c1 eb be
       0.0211346 -0.5644841 0.52997845 -0.46045786
000340 d9 c6 59 3e 90 89 37 3f ae 96 96 c0 e9 cf 8f c0
       0.2126726 0.7169428 -4.7058935 -4.4941297
000350 1a 63 b2 bd 6f 82 9c 3d b6 06 43 bd bc c7 2f 3e
       -0.087103084 0.07642066 -0.047613822 0.17166036
000360 bb 6e 38 bf 8d d1 0a bd 37 f9 55 3c 32 27 9c be
       -0.7204396 -0.03389125 0.013059906 -0.30498654
000370 39 45 35 be 2a 23 b8 be ff 7c 8d be 4e 09 ea 3e
       -0.17702188 -0.35964328 -0.27634427 0.45710224
000380 f1 f8 08 3e b2 34 c0 bd ba c4 71 3f 32 b5 64 3e
       0.13376214 -0.09385051 0.94440806 0.22334746
000390 46 fa 6f bd 02 c5 4c 3e 38 53 29 3f d1 68 a9 3d
       -0.05858829 0.19997028 0.66142607 0.08271945
0003a0 46 60 3d bd 9d ce 8b 3d 9a 18 9c bf e6 2e 2e 3f
       -0.04623439 0.06826518 -1.2195008 0.6804031
0003b0 1e 89 b3 3e 90 3b 9a 3f 6d 84 d1 40 36 1b f5 3f
       0.3506555 1.2049427 6.5474153 1.9148929
0003c0 c2 a7 bc 3d 85 fb a1 3e 4a 2d 27 bd e1 fe 8d 3e
       0.09211685 0.31637207 -0.040814675 0.2773352
0003d0 80 d7 cc bf 8b 2b 03 3e 5e 0e d5 bc 64 14 2e bd
       -1.6003265 0.12809579 -0.026007827 -0.042499915
0003e0 fa fc c1 bf c4 3e df bf b2 1a c6 bd 4f 52 f2 be
       -1.5155327 -1.744103 -0.096730605 -0.4732842
0003f0 a1 e2 9e bc 36 ba 6a 3d 7a 85 4c 3d bb 21 33 bd
       -0.019395174 0.05730649 0.04993198 -0.04373334

encoder.conv0.q.bias f4 [32]
000000 0e 07 ef bf 11 d6 4e 3f 3b 75 91 3e 60 ee 1e c0
       -1.8674028 0.8079539 0.28409752 -2.4832993
000010 43 41 34 3c a2 6c 75 3e d1 cd a4 bf d4 8a 8a be
       0.011001888 0.23967221 -1.287531 -0.27059042
000020 1d 1d 1d c0 19 7b 83 be 77 4f 0a 3f e6 8f 97 3d
       -2.454902 -0.25679854 0.54027504 0.07400493
000030 dd 27 16 3f 86 d5 24 bf 88 41 87 bf a3 b7 3a bf
       0.58654577 -0.6438831 -1.0566874 -0.7293646
000040 69 1a b5 bf 56 7d 74 be 49 f7 ff 3a 53 e8 ae bf
       -1.4148685 -0.23875937 0.0019528653 -1.366465
000050 d2 e2 a9 bf 94 3d 99 bf 58 ff 8f bf bc f1 c1 bf
       -1.3272345 -1.1971917 -1.12498 -1.5151896
000060 9c 9f a2 bf d1 e3 b1 bf ec c3 74 bf 76 d3 a8 bf
       -1.2704959 -1.3897649 -0.95611453 -1.3189533
000070 b0 97 ba be 40 c6 88 3f 1d 34 b2 3e 69 0e e1 3f
       -0.36443853 1.0685501 0.34805384 1.7582523

encoder.conv0.k.weight f4 [32, 28]
000000 8c 7e d8 be 5a 1d a5 3d d1 91 89 3e 9e 57 da bd
       -0.42284048 0.08062239 0.26869062 -0.10661243
000010 11 6a a9 bc e6 2f 03 3c d1 0c 60 bf b2 95 6f 3c
       -0.02068046 0.008007025 -0.87519556 0.0146230925
000020 88 83 90 bb e9 d0 d3 be bf 39 b9 3e 9c 48 18 bf
       -0.004410211 -0.41370323 0.3617687 -0.59485793
000030 39 3e 90 3e d4 59 4b be d1 f6 0c 40 f2 3a f7 bf
       0.28172472 -0.19858485 2.2025645 -1.9314864
000040 d4 44 3d 3e d6 22 da bd d3 c9 e0 3b 82 15 d7 3d
       0.18483287 -0.10651176 0.006859997 0.10502149
000050 aa 7c 9d 40 dd e6 a8 3b 3a c2 88 bb ce 78 ae be
       4.921468 0.005154474 -0.0041735442 -0.34076542
000060 81 98 c0 bf 2e 90 61 40 a2 3e e7 40 06 97 47 3f
       -1.504654 3.524425 7.2263956 0.7796482
000070 89 19 70 3e fa 96 48 3f 20 0b 40 bc b4 cd 55 3e
       0.23447241 0.7835537 -0.011721402 0.20879251
000080 1e a9 12 3e 56 80 ab 3f df b2 9e 3e 2e 22 69 bd
       0.14322326 1.339854 0.30995843 -0.056917362
000090 d7 e2 d8 be 70 76 78 3f fa 1a 97 bf 7e 0e 21 bf
       -0.42360565 0.9705572 -1.1805108 -0.6291274
0000a0 a1 f6 c5 3c 7b 5d bc 3e 3b f0 ae bf f7 65 c3 c0
       0.024165453 0.3679007 -1.3667063 -6.106197
0000b0 50 77 31 c0 5a 1f f4 bd fc 36 cc 3d b1 bb 6d 3f
       -2.7729073 -0.11920042 0.09971425 0.9286452
0000c0 56 98 92 40 b6 95 c3 be 75 d7 eb be 00 ad 96 3e
       4.5810957 -0.38200158 -0.46062818 0.29428864
0000d0 76 20 41 3e cd 96 bf 3f 2b c7 bf c0 df 74 5c bf
       0.18860039 1.4967896 -5.9930625 -0.8611583
0000e0 a1 03 32 bf 9a 1e 31 bf c9 ab a2 3e a2 23 30 be
       -0.6953679 -0.6918732 0.31771687 -0.17201093
0000f0 90 4a 77 be 9a f5 0d be d0 bb e6 3e b8 15 18 3f
       -0.24149537 -0.13863221 0.45065165 0.5940814
000100 63 8b e9 bd be 86 84 3f c1 48 21 bc cd 34 df 3f
       -0.11403539 1.035362 -0.009844006 1.7437989
000110 c1 8e fd 3e 00 c9 31 3f 39 5f 1d c0 20 91 01 c0
       0.49522975 0.69447327 -2.458937 -2.0244827
000120 bb 3c 7c c0 25 57 b1 3d 59 8a 58 be f1 57 0f be
       -3.9412067 0.086591996 -0.21146525 -0.1399839
000130 0f 39 7f 40 fb c0 3c 3f 96 6a 03 be 85 df 6f 3f
       3.9878576 0.73731965 -0.12833628 0.9370044
000140 ce 4e ba 40 5b 6b f3 be a1 c6 a9 c0 0d e5 8c c0
       5.8221197 -0.47542843 -5.3054967 -4.4029603
000150 a4 fb 27 3e 8e f3 4e 3e ce 94 a3 3f ac fd df 3d
       0.16404587 0.20210096 1.2779787 0.10937056
000160 dd dd c7 bc 4a 68 a6 3d b4 0f 82 3f b5 90 8e bf
       -0.024397785 0.0812536 1.0161042 -1.1137911
000170 48 c5 dd 3c e2 eb 1b 3e 98 06 14 bf 18 49 b7 3f
       0.02707161 0.15226701 -0.5782256 1.4319181
000180 35 30 f0 3f 08 02 32 40 c4 66 39 c1 23 75 7f 41
       1.8764712 2.781374 -11.587589 15.966098
000190 23 5b b2 3f 0d bd ab 3d 3c fb 58 3b 13 35 90 3d
       1.3934063 0.08385668 0.0033108732 0.07041373
0001a0 6d b4 60 be 11 78 83 bf bd 89 0d 3d 10 d2 84 3d
       -0.21943827 -1.0271016 0.034555186 0.06485379
0001b0 a6 b6 1e bf 01 d4 0b 3f a3 5f f3 bf 6c 57 a5 be
       -0.6199745 0.5462037 -1.9013561 -0.3229326
0001c0 d8 2b 22 3d d5 36 72 3d c8 5e c3 bc 55 80 c2 be
       0.039592594 0.059134323 -0.023848906 -0.37988535
0001d0 05 53 22 3b a9 70 11 bf e8 9a 2a 3f 72 67 6f bc
       0.0024768722 -0.5681253 0.6664262 -0.014612066
0001e0 22 fd af bc 27 d0 b8 bc 08 6d 85 bf d5 12 a9 3f
       -0.021483008 -0.022560192 -1.0423899 1.3208872
0001f0 df cd 5d 3e 47 a9 da 3f 75 19 22 41 c3 78 3f 41
       0.21660565 1.7082909 10.131215 11.966983
000200 ed 3c 88 bf 7e 97 67 ba 7a e7 e3 38 2d 4b e8 bc
       -1.0643593 -0.0008834525 0.00010867319 -0.02835616
000210 77 4c a8 bb 7b 65 a7 ba 25 f6 91 bc dd 00 1d bd
       -0.0051360684 -0.0012771332 -0.017817566 -0.0383309
000220 99 5e 48 bd 74 a6 d6 bd ee 1a 00 3f 77 05 9a bd
       -0.04891834 -0.10480967 0.5004109 -0.075205736
000230 37 24 e9 be 17 d2 d7 be fb fd 67 3f 42 2e 6e be
       -0.45535442 -0.42152473 0.9062192 -0.23259833
000240 81 37 26 bc e2 d2 3d bf 3c 22 a5 3f 2c 15 34 bf
       -0.010145069 -0.74149907 1.2901073 -0.70344806
000250 0b 41 c5 3e b2 5a 25 3e 1f 56 b9 3e 9c d9 ff 3e
       0.38526186 0.16147879 0.36198518 0.4997071
000260 be 59 54 3e 90 a9 b8 3f e6 b3 83 3f 09 e3 b7 40
       0.20737359 1.4426746 1.0289276 5.7464643
000270 ed db fd c0 bb b8 8f be 44 7f 06 bd f1 a7 13 bf
       -7.9330964 -0.28070626 -0.032836214 -0.57678133
000280 ec 61 31 40 9a aa 18 bf 20 a2 b0 3e a3 19 72 be
       2.7716017 -0.5963532 0.34498692 -0.23642592
000290 ed 8e 82 c0 61 46 39 3f 99 f2 4a 40 48 7b 17 3f
       -4.079947 0.72373015 3.171057 0.5917249
0002a0 be d8 b0 be d1 8c dc bc d7 07 4b bf 98 6f f0 3e
       -0.3454036 -0.026922615 -0.7930884 0.4696014
0002b0 f4 ef b3 3c 39 9c 0c bf dd 81 63 bf 3e bc 4d bf
       0.021965005 -0.54925877 -0.8887003 -0.8036536
0002c0 ba e8 1b 3e 1e 21 0b be be d7 20 3f 58 5c 71 b8
       0.15225497 -0.13586852 0.62829196 -5.754488e-05
0002d0 b4 62 05 bd 09 60 bb bf 30 63 1b 41 9a 63 b6 40
       -0.032564834 -1.4638683 9.711716 5.6996584
0002e0 5b 65 3c c0 5d 2f 5b 3e 94 6b 24 3d 09 ae 42 be
       -2.9436862 0.21404786 0.040141657 -0.19011702
0002f0 71 1c 0e 3c 68 0e 32 bf cb d0 d3 3d 2c d5 02 be
       0.008673773 -0.6955323 0.103425585 -0.12776631
000300 92 4f 55 3f bd 0e 9e be 25 f7 5d 3f ce 25 e5 bf
       0.8332454 -0.3087062 0.8670524 -1.7902162
000310 41 e1 dd bd 2e d9 e1 3d e7 4c 80 be 23 53 81 bd
       -0.108339794 0.11027752 -0.25058672 -0.06314685
000320 15 04 26 3d c0 f7 c1 3c ac 70 8a 3e 8a 85 79 3d
       0.040531237 0.023677707 0.27039087 0.06091837
000330 2f bf 84 3b d7 dd cd bd 47 db 59 be d7 53 cc bd
       0.004051111 -0.10052078 -0.21275054 -0.09976929
000340 a5 5d 54 3d 8a d2 0e bf 5e 31 5e 3f 4e 43 a4 3f
       0.05184712 -0.5579001 0.8679408 1.283304
000350 e5 c3 56 3e 58 37 9d 3c 33 d2 11 3c df 5b 00 3e
       0.20973165 0.019191429 0.008900213 0.12535046
000360 de 18 42 3f bb 68 fb bd 97 ce 0d bb 7a 33 d9 bd
       0.75819194 -0.12275835 -0.002163803 -0.106055215
000370 cb 89 61 40 5c 4e 3f bf 68 bc d8 bf 6e 55 62 be
       3.5240352 -0.7472894 -1.6932497 -0.22102901
000380 5b 7b 8f 3e 46 b8 86 3e 04 1a 24 3f 20 57 16 3e
       0.280238 0.26312464 0.64102197 0.14681673
000390 b0 cd 38 bd 5c b3 47 3f 33 63 3a 3f a9 c7 a3 3e
       -0.045118034 0.78008056 0.72807616 0.31988266
0003a0 8c 62 7c bc 78 46 8c bd e9 95 9a bf cc 26 1c bd
       -0.015404355 -0.06849378 -1.2076999 -0.038122937
0003b0 1a 06 05 3e 75 23 83 3f 2d fe 6e 41 7d 9a 38 41
       0.12990609 1.0245196 14.937055 11.537717
0003c0 7e cc e3 be 13 61 bc 3d 87 f6 6c bd bd 13 3f 3f
       -0.44491953 0.09198203 -0.057852294 0.74639493
0003d0 e3 5d 05 bf a0 52 05 3d a7 33 d3 bc 1c c0 82 bd
       -0.52096385 0.0325495 -0.025781466 -0.06384298
0003e0 4d da 8f 3f 19 85 f7 3d 7b 07 04 40 8c 40 1f 40
       1.1238495 0.12085933 2.0629566 2.4883146
0003f0 6d d1 b7 bf 04 39 93 bf 50 6b aa 40 6a e4 1e 40
       -1.4360787 -1.1501775 5.3255997 2.4826913

encoder.conv0.k.bias f4 [32]
000000 e2 6f 78 be c5 97 a3 3b 07 36 94 be bb 3b 01 c0
       -0.2426143 0.0049924576 -0.2894747 -2.0192707
000010 41 bf c6 bf fc 47 f6 3d f4 f5 9f 3f 06 25 b2 3e
       -1.5527116 0.12025449 1.2496934 0.34793872
000020 1c 76 fb bf 6a f7 27 40 90 ef 47 bf b5 ea ac 3e
       -1.9645419 2.624476 -0.7809992 0.33772817
000030 ac 6a cf be b8 ba ae 3e 5a 20 20 be e4 39 43 be
       -0.40511072 0.3412683 -0.15637341 -0.19065052
000040 03 14 9e bf 27 30 b7 3d 30 de 6f 3f bd 30 ab 3f
       -1.2349857 0.08944731 0.93698406 1.3374249
000050 8f b0 0e bf 00 f9 80 bd e7 fb 73 bf 07 81 c2 bf
       -0.5573816 -0.06297493 -0.9530625 -1.5195626
000060 48 d8 b1 bf 82 7c d2 3f d4 4b 5f bf b4 0e 86 be
       -1.3894129 1.6444247 -0.8722508 -0.26183093
000070 de 65 e8 3e df e5 a4 bf 8d 78 f4 be 11 c5 9f 3e
       0.45390218 -1.2882651 -0.47748223 0.31205037

encoder.conv0.v.weight f4 [32, 28]
000000 0d 53 ca 3f 75 47 d0 3f 06 15 37 40 41 f5 64 3e
       1.5806595 1.6271807 2.8606582 0.22359182
000010 39 38 0b 3d 5f 1f a8 3f 9d f4 3b 40 4f c0 99 3f
       0.033989165 1.3134574 2.936805 1.2011813
000020 bd 64 29 be 22 94 0d 40 d8 77 19 40 34 4a ae 3f
       -0.16542335 2.2121663 2.3979397 1.3616395
000030 f8 62 7b 3f f4 f4 d5 3f fd fa d9 bf ef e3 e5 c0
       0.9819789 1.6715379 -1.702972 -7.184074
000040 1e a3 5c 40 f3 9b d8 3e a7 d3 22 3e 3c dd b4 3f
       3.447456 0.4230648 0.15901051 1.4130015
000050 de c7 e2 be d0 83 a8 3f 11 43 fd bd 09 b8 e7 3e
       -0.44293112 1.3165226 -0.123663075 0.45257595
000060 36 5f 16 40 5e 95 08 40 f6 81 84 3f 41 ff c2 3f
       2.3495612 2.1341166 1.0352161 1.5234147
000070 cd 3c 4e bf 20 3a 62 bf f0 48 dd be f2 69 3a 3f
       -0.80561525 -0.8836994 -0.4321971 0.7281791
000080 f7 78 2e bd cd 9c 05 c0 ab 69 df be ca 27 2a 3e
       -0.04259583 -2.0876954 -0.43635306 0.16616741
000090 c6 cb 73 be 99 e1 ad be 77 53 17 bd 77 6e 1d bf
       -0.23808202 -0.3396118 -0.036944833 -0.6149668
0000a0 67 86 3f be 4e bf f7 3d da 79 96 c0 dc 2b c3 c0
       -0.18703614 0.12097035 -4.7023745 -6.099104
0000b0 2e e7 66 40 a2 e9 bb 3f 6c 72 e9 3c 05 66 f7 bf
       3.60786 1.4680674 0.028496943 -1.9328009
0000c0 1e 4a 12 40 8e 3b 18 bd 94 f1 8b be f9 1b 1a c0
       2.2857738 -0.03716617 -0.27332747 -2.4079573
0000d0 4b 09 85 40 9b 51 e6 40 97 8d 6b 40 41 86 af 3f
       4.1573844 7.1974616 3.680517 1.3712846
0000e0 03 63 16 3e 70 dc ac 3e c6 cb d6 bf f1 fe f7 be
       0.14686207 0.3376193 -1.6780937 -0.48436692
0000f0 12 7a 83 be fc e0 78 bd e8 ce 7c bf bb cc 13 bf
       -0.2567907 -0.060761437 -0.98753214 -0.5773427
000100 a6 a7 b4 bc 40 41 86 be 79 33 8c 3f ed 23 a8 3f
       -0.022052597 -0.26221657 1.0953208 1.3135964
000110 d3 53 70 bd 62 92 b0 bd 13 74 4c 41 ff 6f 0b c0
       -0.05867369 -0.0862167 12.778338 -2.1787107
000120 02 ad 5d 41 74 ce 54 be 5b 7b 46 be d6 0f 10 be
       13.854738 -0.2078188 -0.19382994 -0.14068541
000130 de b9 82 3f c8 17 c5 be da 94 e8 bd 40 d8 ae be
       1.0212972 -0.38494706 -0.11356516 -0.3414936
000140 a3 7d 5f 40 fe 1b 8b c0 dc 33 e3 3e 4a 0e cd 3f
       3.4920433 -4.347167 0.44375503 1.6019986
000150 5a 8b 61 bd 07 67 d5 3d 83 d0 d2 3f 3a 09 73 bb
       -0.055064537 0.104200415 1.6469883 -0.0037084357
000160 57 6a a0 3a 05 6f 35 3c c1 fb e7 3f 46 90 27 bd
       0.0012238723 0.011073832 1.8123704 -0.040909074
000170 22 af 07 3a cb 8f b2 bd 5c 47 6a bf 9d 2b 54 be
       0.0005175938 -0.087188326 -0.91515136 -0.20719762
000180 a6 ff bb 3e 29 99 bc 3f 97 c6 6a bf cf fb 0f 41
       0.36718482 1.4734241 -0.91709274 8.998977
000190 7f b0 34 3f e6 41 e9 bb 18 a5 65 3c 8f 18 ff bc
       0.7058181 -0.0071184514 0.014016412 -0.03113964
0001a0 2f 87 2e 3f a8 97 bd bc 3a 37 4e 3c 01 f7 95 bd
       0.68175024 -0.023143604 0.012586409 -0.07322503
0001b0 29 77 ef bf f6 c6 0b 3f dc 13 c5 3e ee 05 93 3e
       -1.870824 0.54600465 0.38491714 0.28715461
0001c0 1f 0b bd 3e e4 72 83 be 1b bc 0f 40 a0 97 96 3e
       0.36922547 -0.25673592 2.245856 0.29412556
0001d0 ed b7 0a bb 3d a0 db 3d f1 7e 94 3f 95 e1 86 be
       -0.0021166757 0.107239224 1.160124 -0.2634398
0001e0 74 b5 fc 3b da 1c 60 3e 71 c9 f9 be 5e fe 3e be
       0.0077120606 0.21886006 -0.487865 -0.18651721
0001f0 9b df 0c 3f c3 89 30 40 bb c2 1e c2 79 7d 4a c1
       0.55028695 2.7584083 -39.690166 -12.655633
000200 9c 38 e9 bf e9 2a b1 3d f2 7e 2b bb cb f9 4f 3d
       -1.8220401 0.086507626 -0.0026168195 0.05077533
000210 60 6a 29 be e2 5c a3 be d3 10 00 bd de 69 c4 3d
       -0.16544485 -0.319068 -0.031266045 0.09590505
000220 15 ce a9 3f 91 e9 82 bf fc 95 d3 bf c2 25 38 3e
       1.3266016 -1.0227529 -1.6530147 0.17983153
000230 9a b2 0d 3d 9a 96 4d 3e 3d e1 d8 bf 82 23 0c c0
       0.034594156 0.20076981 -1.6943737 -2.1896672
000240 82 5c b3 bc e7 dd 44 3f 36 12 3e bf 33 08 9e bf
       -0.021894697 0.76901096 -0.7424654 -1.2346252
000250 fd 31 c1 be 04 24 4a 3f 31 84 73 be 55 f7 23 bf
       -0.3773345 0.78961205 -0.23780896 -0.64049274
000260 1b c2 3f bf 86 b9 0c bf 39 8a 97 c0 1a 75 1b c0
       -0.74905556 -0.54970586 -4.735623 -2.4290223
000270 2e 4e 11 c1 c3 1a c6 bf b9 9e 8b 3c 31 be f9 3f
       -9.081587 -1.5476917 0.017043458 1.9511167
000280 c3 1d 2d 40 37 7a 68 bf a4 fd 3a be df 47 9e 3f
       2.7049415 -0.90811485 -0.18260819 1.2365683
000290 48 55 11 40 37 dd 6a c0 54 f0 73 3e 51 db 76 bf
       2.2708302 -3.669752 0.23822147 -0.964284
0002a0 a2 52 a1 3e 8b 6b 52 be 89 23 77 bf 89 c2 e8 bd
       0.31508356 -0.20548837 -0.965386 -0.1136523
0002b0 b1 97 a7 3c 2c 8c 49 3e bd bf 40 be c6 b1 65 bf
       0.020458074 0.19682378 -0.18823142 -0.89724386
0002c0 e6 6d 96 bd 87 58 44 3f 5d 97 1c 3f b0 e2 42 bf
       -0.0734518 0.7669758 0.6116846 -0.7612715
0002d0 d4 45 cc be cd 8f 81 bf d5 e9 b7 bd 75 5c 31 41
       -0.39897025 -1.012201 -0.08980147 11.0850725
0002e0 d7 46 8c 3f 17 31 b1 3d 1d e2 1a 3c 2c 64 ea 3d
       1.0959119 0.08651941 0.009453324 0.114448875
0002f0 bc db f9 bf ec 75 3d bd 4c d5 98 3c 41 c3 76 3b
       -1.9520183 -0.046255037 0.018656395 0.0037653001
000300 48 7d 97 40 06 6e e8 bf d4 30 6e c0 3d 8d 11 be
       4.734043 -1.8158576 -3.7217302 -0.14214034
000310 37 2b 83 3c de 4e f7 3c f8 d0 c3 3f fe 9b f3 3c
       0.016011817 0.030188974 1.5298147 0.029737469
000320 84 ca af 3a e4 07 db bd da b5 c8 3f 4c b0 bf be
       0.0013411795 -0.106948644 1.5680497 -0.3743919
000330 60 f9 2d bd ab e7 08 3e 0e 18 d9 b9 42 ae 9a 3f
       -0.04247415 0.13369624 -0.00041407387 1.2084429
000340 af b0 3b 3f 80 ca d6 3f b1 a3 bf 3f 55 5b d2 3f
       0.7331647 1.6780548 1.497183 1.6434122
000350 81 22 05 bd 3f 73 8b 3d 79 66 24 bc ee 9a 9c bd
       -0.03250361 0.06809091 -0.010034197 -0.07646738
000360 23 b8 72 bf 84 65 9a be ad 80 36 bd 94 9d ef 3d
       -0.9481222 -0.30155575 -0.04455631 0.116999775
000370 5b ce 33 bc 50 bc bf bf 73 a8 15 3f 31 9b eb bf
       -0.010974492 -1.4979343 0.5846016 -1.8406736
000380 5a b6 2b 3d e4 52 ba bd c4 f5 5a 3f 1b 7c 6b be
       0.04192195 -0.090978414 0.8553126 -0.22996561
000390 d8 85 85 3b 46 d4 59 3d ed 17 56 3d d2 49 90 3d
       0.0040747933 0.053180955 0.05226891 0.0704533
0003a0 0b fc 07 3d b1 54 bd be e0 e5 e4 bc ea 13 d7 bd
       0.03319935 -0.36978677 -0.027941644 -0.10501845
0003b0 72 b7 9a 3e 19 71 9a 3e d6 d7 58 c2 08 e3 44 c2
       0.30218083 0.30164412 -54.210777 -49.22171
0003c0 1c 3f 83 3f bc b7 14 be 14 a0 0a bd 8e ff 58 3e
       1.0253634 -0.14523214 -0.03384407 0.21191236
0003d0 cc 57 b2 bf 52 5a b5 3d 0f be a0 3d e9 e6 6d be
       -1.3933043 0.08855118 0.07848751 -0.23232616
0003e0 5e 5f b2 3f 9a 24 7c be 2c 9e cc bf 0f d0 72 3e
       1.3935354 -0.24623337 -1.598577 0.2371218
0003f0 85 8c 58 3e e5 83 1d be b9 d8 04 3f 55 b7 d3 3c
       0.21147354 -0.15382345 0.5189319 0.025844255

encoder.conv0.v.bias f4 [32]
000000 b2 c1 64 40 ad 31 e7 3e 2d ca cc 3f 0d ab d8 bf
       3.5743222 0.45155087 1.5999199 -1.69272
000010 65 0f 01 c0 0f db bb bf 62 fd a0 3f c2 4e 8c bb
       -2.0165646 -1.4676226 1.2577326 -0.0042818496
000020 72 0f 84 3e af 8d 5d bc 20 88 a9 be 19 32 69 3f
       0.25793034 -0.0135225495 -0.33111668 0.9109207
000030 3a 61 e8 3e 47 16 94 bf e2 38 94 3e ad 47 07 bf
       0.45386678 -1.1569299 0.28949648 -0.52843744
000040 aa 46 ec 3c ab 91 a2 bf 33 b4 92 3e 47 79 79 bf
       0.028842289 -1.2700704 0.28653106 -0.9745068
000050 ab d5 53 3f 89 bd 93 bf b8 cd d7 be 23 b9 a1 bf
       0.82747906 -1.1542217 -0.42149138 -1.2634624
000060 ef f6 68 3f fa af d6 3f 7b ea 80 bf 8a ed 31 3c
       0.9100179 1.6772454 -1.0071558 0.010859856
000070 84 96 10 3e 14 fc 76 3e 44 a8 61 be f7 d3 08 c0
       0.14119917 0.24119598 -0.22036844 -2.1379373

encoder.conv1.q.weight f4 [16, 64]
000000 a1 8d 85 3f bd 0a e1 be c5 d6 bf 3f 8a fe c3 be
       1.0433847 -0.43953505 1.4987417 -0.38280135
000010 5e f1 7f 3f cb 29 dc be 20 3c 19 c0 ff f5 b3 bd
       0.9997767 -0.43000636 -2.3942947 -0.087871544
000020 a2 7a 3f 40 0d ce 7e be 8a 03 89 40 6b 62 11 40
       2.99186 -0.2488329 4.281682 2.271632
000030 bc 11 dd be f1 c3 cc 3e 3b bb 32 3f 94 46 a7 3e
       -0.43177593 0.3999324 0.6981694 0.32671034
000040 97 fa 9e be 9f 6d 2a 3f 02 fc a0 bd 79 78 8a 3f
       -0.3105056 0.6657352 -0.07860567 1.0818015
000050 5b e9 48 bf 70 c2 72 3f dc ac ca 3e c4 d7 33 bf
       -0.7848107 0.9482794 0.39585006 -0.7025111
000060 f2 f7 dc be fa 8f 92 3f 8d 8a 03 bf 62 9f 53 3f
       -0.43157917 1.1450188 -0.51383287 0.82665074
000070 35 80 57 c0 e2 e0 de 3e 9b 52 47 3f 68 94 c3 3f
       -3.3672001 0.43530947 0.7786042 1.5279665
000080 7a 06 00 3e 5d e2 66 bf 85 a1 62 bf ab 00 9d 3f
       0.1250247 -0.9018915 -0.8852771 1.2265829
000090 fd 6e 6c 3f b6 15 57 3f 74 a1 3b 3f 5b e1 14 3f
       0.92356855 0.84017503 0.7329323 0.58156365
0000a0 b8 03 d0 3f 14 3a f1 bf c2 9c aa 40 db 42 7c 40
       1.6251135 -1.8845849 5.3316355 3.9415805
0000b0 d2 ea 4a c0 70 ec 9f bf 3c 15 5f be 83 06 6f bf
       -3.1705823 -1.249403 -0.21785444 -0.9336931
0000c0 08 07 86 bf f7 17 a3 bf a1 1c e9 3d ef 79 00 3f
       -1.0470896 -1.2741688 0.11382414 0.50186056
0000d0 ed eb b2 be 11 91 9c bf 7f 1e 96 bf e2 3d f6 be
       -0.34945622 -1.2231771 -1.1728057 -0.48094088
0000e0 83 97 8d be ee 57 e6 bf 48 3d b2 be 46 f9 e5 3f
       -0.27654657 -1.7995584 -0.3481238 1.7966697
0000f0 f7 1a 8f bf 62 bd b0 be 16 91 20 3e bb 62 14 c0
       -1.1180104 -0.34519488 0.15680346 -2.318526
000100 07 04 fd bf e0 9f 09 c0 dc f8 52 bf f1 63 08 40
       -1.9766854 -2.150383 -0.8241098 2.1311
000110 40 0c f4 bf 5a a6 b5 3e 48 41 b5 3f 54 c6 55 bf
       -1.9066238 0.3547848 1.4160547 -0.8350575
000120 9e 63 c0 c0 77 97 a0 3f 40 aa 00 c0 47 d8 64 40
       -6.0121603 1.2546223 -2.0103912 3.5757005
000130 62 12 1b 3f da 86 07 c0 d2 00 d9 3f e6 8d 9a be
       0.60574925 -2.1176057 1.6953375 -0.30186385
000140 9c 28 a4 bf 88 d7 6e bf 07 f0 68 3f 93 67 38 be
       -1.2824893 -0.93297625 0.9099125 -0.1800826
000150 18 b3 cb 3f 39 92 b4 3d 21 fc f9 bf c9 92 82 3f
       1.591403 0.08816952 -1.9530069 1.0201045
000160 b7 8f 16 40 6c 77 04 be 0c be ab 3b 08 06 72 bf
       2.3525217 -0.12936181 0.005241161 -0.9454045
000170 81 2f 83 40 23 8f 66 bf 3f 2d a5 bf 62 76 64 c0
       4.099549 -0.9006216 -1.2904433 -3.5697255
000180 26 ff e0 bf 90 ec 22 3f 9c a4 24 c0 e6 3b 8f bf
       -1.7577865 0.63642216 -2.572547 -1.1190155
000190 9d da 67 be 27 10 f6 3f 62 c0 cd 3e 1d d2 ff bf
       -0.22641988 1.9223679 0.4018584 -1.9985996
0001a0 08 7d 5d c0 3a 37 46 40 ff 16 a7 bf 31 b1 d8 3e
       -3.4607563 3.0971208 -1.3053893 0.42322686
0001b0 96 f2 b9 be 0a 13 40 bf 95 aa 5b 3f 0b d3 9f 3f
       -0.3631789 -0.7502905 0.8580716 1.248628
0001c0 e2 a2 f1 bd fb 82 a7 bf 91 cb 49 40 e3 16 72 bf
       -0.117986456 -1.3086847 3.1530497 -0.9456617
0001d0 b9 c8 8f 3e cb 14 77 bf 27 94 09 bf be 2d ff 3e
       0.28082827 -0.965161 -0.5374169 0.49839586
0001e0 e3 f5 2b 40 9f f7 f8 3f 89 0a a9 bf 34 96 32 bf
       2.6868827 1.9450568 -1.320634 -0.6976044
0001f0 56 c0 57 3f e2 06 3f bf 55 56 85 40 59 aa 62 3f
       0.84277856 -0.7461988 4.1667886 0.8854118
000200 cd 56 0a be dd 88 5a 3f cf 7b d4 3f 09 d5 d5 be
       -0.13509674 0.85365087 1.6600283 -0.41764095
000210 af 25 97 be d6 4d 47 be b9 58 a3 be 64 7e 26 be
       -0.29520938 -0.19463286 -0.31903628 -0.16259152
000220 b5 07 90 bd 92 e3 c2 3f 48 7e 80 c0 07 62 b0 3d
       -0.0703272 1.5225699 -4.015415 0.08612447
000230 8a 8e 1f 3f 4b eb ab bb 4e bb df be d2 11 1e 3f
       0.6232687 -0.005246555 -0.4369759 0.6174594
000240 00 f4 ee 3e d0 e9 35 bb 19 ac f8 be 8f 3a 3b bf
       0.46670532 -0.0027757771 -0.485688 -0.7313623
000250 6f 5d 34 3e 5b 70 ea b9 73 e0 c0 be ea 6e bc 3e
       0.17613767 -0.0004471567 -0.3767124 0.3680337
000260 ef cc 63 be 64 80 09 bf 9a da 36 3f 44 0d b0 bf
       -0.22246145 -0.53711534 0.7142731 -1.3754048
000270 f9 53 0d 40 07 24 8a 3f 18 b7 18 c1 de 48 06 40
       2.2082503 1.0792245 -9.544701 2.0981975
000280 2e f8 c9 3c 0a 35 94 3e 1a 66 d5 be 45 88 67 bd
       0.024654474 0.28946716 -0.4167946 -0.05652644
000290 00 07 79 3c fd 18 24 be 74 58 20 bf 68 ad 8b be
       0.015199423 -0.16025157 -0.6263497 -0.27280736
0002a0 6b 4b 44 be d4 be a4 3f f1 b3 83 c0 4a 76 04 c0
       -0.19169395 1.2870736 -4.1157155 -2.0697198
0002b0 f8 ee b8 3f 69 bb d8 3e d5 c6 53 3f 06 71 da 3e
       1.4447927 0.42330483 0.8272527 0.42664355
0002c0 9e ad e9 3e c5 f0 53 be c2 b7 3c 3f c7 b7 1b 3e
       0.45640272 -0.20697315 0.7371789 0.15206824
0002d0 34 f9 b7 3e a8 14 c2 be 97 9a 89 be 91 3e e3 3e
       0.35932314 -0.37906384 -0.26875755 0.44383672
0002e0 6a b7 ee be b7 aa 1d bf fe b2 95 3f d3 42 79 bf
       -0.4662431 -0.61588615 1.1695249 -0.9736759
0002f0 05 c1 4d 3f 29 01 84 3e 80 b0 fd bf f6 ba 82 40
       0.8037265 0.25782135 -1.9819489 4.0853224
000300 29 3f 23 be 20 54 1d 40 29 b9 8f 40 6d 92 79 bf
       -0.15942062 2.4582596 4.4913526 -0.97489053
000310 27 75 34 bf f2 ee ba 3f 67 bb 36 bd b5 84 54 bf
       -0.7049126 1.460417 -0.044612315 -0.83014995
000320 9c 7a 66 bf 09 ad 12 40 d0 7e 8e bf 16 7b f7 bf
       -0.9003084 2.2918112 -1.113245 -1.9334438
000330 80 08 4f 3f 30 4b 20 bf 91 09 1c 3f b0 ef 49 3f
       0.80872345 -0.6261473 0.609521 0.7888136
000340 1b 7d 42 bf e0 55 97 bd a4 b6 bc 3f fb 87 87 3f
       -0.75972146 -0.07389426 1.4743237 1.0588373
000350 8d c1 98 bf 2e a8 2e bf 28 88 16 bf 43 d1 59 bf
       -1.1934067 -0.6822537 -0.5880151 -0.85084933
000360 fb fd 23 3d 57 89 85 3f 91 d9 8e bf f2 b6 98 be
       0.040037137 1.0432538 -1.1160146 -0.29827076
000370 a9 b7 8b be c9 b7 85 3f 32 9f b2 c0 76 5f 2c c0
       -0.2728856 1.0446712 -5.581933 -2.6933265
000380 cd 12 98 bc 68 b8 c6 3e e9 f4 c6 bd 45 ad 9e bf
       -0.018563652 0.38812566 -0.09714682 -1.2396628
000390 de 81 3c bf 4f 2e 6a 3f de e7 57 3f 6d b2 32 bf
       -0.7363566 0.9147691 0.84338176 -0.69803506
0003a0 0c e7 ed 3f 1e 69 02 40 58 65 94 3f 6e ed 1f 3f
       1.8586135 2.0376658 1.1593428 0.62471664
0003b0 d9 18 36 c0 ab 06 e5 bf e3 71 50 3d d0 fa e4 bf
       -2.8452666 -1.789266 0.05088986 -1.7889042
0003c0 bf 72 72 bf 0e aa 28 bf c6 b8 d8 bf 80 3d 94 3e
       -0.9470634 -0.6588448 -1.6931388 0.2895317
0003d0 1d bf 1b bf 13 43 8a bf 51 54 07 bf 41 4b 12 c0
       -0.6083849 -1.080172 -0.5286303 -2.2858431
0003e0 e6 c4 f3 be ea 7e ff 3e 76 de 8d bf 6a 86 ac bf
       -0.4761116 0.49901515 -1.1083515 -1.347852
0003f0 7f d1 b3 bf a6 d9 a1 be 91 5c 47 c0 61 59 7e 3f
       -1.4048308 -0.31611365 -3.1150248 0.9935513

encoder.conv1.q.bias f4 [16]
000000 8f f8 19 bf 15 d5 17 c0 a5 96 8b bf 28 70 dd 3f
       -0.60144895 -2.3723805 -1.0905348 1.7299852
000010 6e 2e 1a 3f 34 67 04 c0 80 ba c6 3f dd 81 3b bf
       0.60227096 -2.068799 1.5525665 -0.7324503
000020 c9 71 3a bf 10 db ad 3d 82 cd fa 3d 4b b9 17 bf
       -0.7282987 0.084890485 0.12246229 -0.5926711
000030 b5 c4 b3 bd 0b 62 16 3f 35 c7 d7 3f 36 62 e3 bf
       -0.08777753 0.5874335 1.6857668 -1.7764347

encoder.conv1.k.weight f4 [16, 64]
000000 b7 7b 1a 40 c2 8d 29 bf ba 07 98 3f 3f 7f 81 3f
       2.413801 -0.6623193 1.1877358 1.0116957
000010 aa 26 18 3f 7a 92 bf 3f db fd 24 40 bc ba 65 3f
       0.59433997 1.4966576 2.577994 0.8973806
000020 83 9f 04 3f 5c de a6 bd 84 7b ba bf db 37 6e bf
       0.51805896 -0.081478804 -1.4568944 -0.9305398
000030 ac f8 a6 3e 0a 56 10 3f 80 38 af 3f af 60 3c bf
       0.32611597 0.56381285 1.3689117 -0.7358503
000040 4f 16 82 3e 82 7b f1 bd 40 38 ed 3f 9b 72 44 bd
       0.25407645 -0.11791135 1.8532791 -0.04796086
000050 ec fc 58 be ad 2b 99 be c8 d8 c2 be e3 ca 48 3b
       -0.21190232 -0.29916134 -0.38056016 0.0030638508
000060 45 64 6f 3f 7d 8b ce 3f ea e2 ef 3e 6c 71 f2 3f
       0.93512374 1.6136318 0.4685281 1.8940864
000070 7a 4d cb 3f fa e1 98 3f a7 37 80 bf 7a 7a 97 c0
       1.5883019 1.1943963 -1.0016984 -4.7337008
000080 6f 01 0c 40 0e 31 14 40 e7 8f 24 40 b9 d8 76 3f
       2.1875875 2.315494 2.571283 0.9642444
000090 9e 0d 29 bd 05 9f 80 3d fa 7a 00 40 07 93 a3 3f
       -0.041272752 0.062803306 2.007506 1.2779244
0000a0 0f e7 87 c0 db fb 41 bf 2c 2f 6c c0 31 01 ae c0
       -4.2469554 -0.75774926 -3.6903791 -5.4376454
0000b0 89 0c e7 bd b8 47 1e 3f 28 62 c9 3f 15 0f bb 3d
       -0.11281688 0.61828184 1.573308 0.09133736
0000c0 c3 b8 21 3e 64 75 cc 3f e1 11 35 40 c7 7f 06 3f
       0.15793137 1.5973325 2.8292162 0.5253872
0000d0 ae 8e 9b bf 73 a7 37 3e 4f 63 3d 3f 8e 90 9e 3f
       -1.2152917 0.1793497 0.7397966 1.2387865
0000e0 ec fa 40 be fd 02 93 40 62 be af 3f 04 90 61 3f
       -0.18845719 4.594115 1.3729975 0.88110375
0000f0 51 23 49 40 f9 c7 e1 bf 3e f6 0b 3f b0 df 0f 3f
       3.1427805 -1.7639152 0.5467261 0.56200695
000100 65 2c f5 3e 3a 65 9a 3f 88 d0 16 40 0c b9 33 bb
       0.47885433 1.2062142 2.3564777 -0.002742353
000110 1f b0 49 bf 9d ff 4e bf 7e 62 55 3f 66 45 07 bf
       -0.78784364 -0.80858785 0.8335341 -0.5284027
000120 52 6e e7 bf 65 90 e0 3f 7e 62 b8 c0 f8 9b 9d c0
       -1.8080542 1.7544066 -5.762023 -4.925289
000130 de b5 b9 3f ae 1d a6 3f 0a 33 d5 bf cd 9a 91 3f
       1.4508626 1.2977808 -1.6656201 1.1375366
000140 4d ba 8a 3f cf 3f 34 3f 36 01 68 3e c1 1f a4 3d
       1.0838104 0.70409864 0.22656712 0.08013869
000150 be ae 32 3f 0b a7 b1 bd 51 8a 84 3f ab dd 6c 3f
       0.69797885 -0.08674439 1.0354711 0.9252574
000160 4f e3 70 be 7d b4 08 40 1a 06 16 3f 91 18 b6 bf
       -0.23524211 2.1360161 0.5860306 -1.4226247
000170 95 40 a1 3e 65 8f 89 3f c2 15 97 3f 9c 98 ae 3f
       0.31494585 1.0746886 1.1803515 1.3640323
000180 45 aa 1b be 49 8e 7b 3f 61 67 32 bf 4e 79 11 bf
       -0.15201671 0.98263985 -0.69688994 -0.5682572
000190 79 12 98 3f 58 73 03 40 8d 1e 17 be 1e c7 2b bf
       1.1880637 2.053915 -0.14757748 -0.67100704
0001a0 d5 9d 13 c0 a6 cd dc 3f eb d8 cc c0 d7 63 29 40
       -2.3065083 1.7250259 -6.4014792 2.6467187
0001b0 3c 82 81 3f f8 cf 62 3f be 93 8c 3f 13 eb 9d 3f
       1.0117869 0.88598585 1.0982587 1.2337364
0001c0 5b 3d d2 3e 85 4f 79 bf d7 f5 8c 3f 4d 7b cb 3f
       0.41062436 -0.9738696 1.1012524 1.5897003
0001d0 5a 2a a1 3f c4 01 4b bf db d7 55 3e b0 1f a0 3f
       1.259105 -0.7929957 0.20883124 1.250967
0001e0 73 9d 41 3e 28 cd 7d bf 3f 53 bf 3e c6 c2 9e 3e
       0.18907718 -0.9914117 0.373682 0.31007975
0001f0 01 34 e6 bf 19 ca 3d be 67 6f 04 40 6b ef 34 c0
       -1.798462 -0.18534125 2.0692995 -2.827113
000200 fe a4 b1 3f d3 b2 72 3f 05 48 20 bf c2 3c b5 3e
       1.3878477 0.94804114 -0.62609893 0.35397917
000210 e3 66 02 40 31 c9 44 40 11 6f 35 bf fc e1 87 3f
       2.0375297 3.0747797 -0.708726 1.061584
000220 a4 1f 56 41 ae 0e 59 bf dd fc 25 be 1b 8f bd c0
       13.382725 -0.84788024 -0.16209741 -5.923719
000230 68 fb ff 3e e7 4e 82 40 3f 80 90 bf ec e1 86 40
       0.49996495 4.0721316 -1.1289138 4.2150784
000240 0c d8 9e 40 ea f5 f9 bd 49 17 c1 40 92 3e 1f c0
       4.963873 -0.122051075 6.0340924 -2.488194
000250 0a 14 40 40 27 26 a2 bf 2b a6 87 40 20 ff d0 3f
       3.001223 -1.2667893 4.239034 1.6327858
000260 9c 83 c0 40 44 30 23 40 6e 72 22 40 21 88 8f 40
       6.0160656 2.549821 2.5382342 4.4853673
000270 fa 17 80 c0 65 fb 7f c0 c1 93 2d 41 34 7a ff 3f
       -4.002927 -3.999719 10.848573 1.9959168
000280 91 4a c9 3f 1f 68 b7 3e e5 34 07 40 4d c6 bb 3f
       1.5725881 0.35821626 2.1126034 1.4669892
000290 44 39 20 40 8e ef 2d c0 7e 6b 03 3f f9 b2 da 3f
       2.5034952 -2.7177463 0.51335895 1.7085868
0002a0 f5 22 bc 40 3e 75 e8 bf 9a 5c e3 be fc 60 fd bf
       5.879267 -1.816078 -0.44406587 -1.9795222
0002b0 f7 4b 07 40 91 14 94 3f 43 ba 54 3f 95 25 54 40
       2.1140115 1.1568776 0.8309671 3.3147938
0002c0 ee 42 df 3f 84 a3 58 bf 6e 0b 47 bb bd 69 2e bd
       1.74423 -0.84624505 -0.0030371803 -0.04258131
0002d0 2d 1f 8c 3f 34 52 b2 bf da 49 d8 3f b9 0b 8c bc
       1.0947014 -1.3931336 1.6897538 -0.017095434
0002e0 16 ea 4a 3e be a9 22 3d ea a7 43 3e 04 01 c4 3e
       0.19815859 0.03971266 0.19107023 0.38282025
0002f0 b1 e8 cc bf f6 d5 70 3f da f5 ca 3b 2e 95 cf 40
       -1.6008512 0.9407648 0.0061938586 6.4869604
000300 f1 28 c9 bc 27 1b d2 3f ff 66 07 40 c8 71 c4 3e
       -0.024555655 1.6414536 2.1156614 0.38368058
000310 a5 44 2e 3e cf d0 96 bf 5c 06 73 be 77 8a f0 3d
       0.17018373 -1.1782473 -0.23732895 0.1174516
000320 67 cc d9 bf 94 29 58 3e b6 9f 6b 40 f3 8f 09 c0
       -1.7015504 0.21109611 3.681623 -2.149411
000330 2d 9d 0d c0 1c fa 12 c0 b0 25 59 bf 82 8e ed bf
       -2.2127182 -2.2965155 -0.8482313 -1.8559115
000340 76 81 dd 38 0c 75 bd be 67 0c 17 c0 6d b4 a9 bf
       0.00010562215 -0.37003362 -2.360132 -1.3258187
000350 5a 4a 4c 3d dd 09 81 bd b5 88 5a bf 07 8f c0 bf
       0.049875595 -0.063007094 -0.8536485 -1.5043648
000360 ad b4 14 c0 5b 79 35 3e af c2 84 bf 4d f0 96 bf
       -2.3235276 0.17722075 -1.0371913 -1.1792084
000370 2a c5 3d 40 f9 09 13 3f ff e6 56 c0 28 5a 02 bf
       2.965159 0.5743709 -3.357849 -0.5091882
000380 c1 30 27 3e 1c 77 ce bf 7e ec b6 bf 5f 9e 61 3f
       0.16327192 -1.6130099 -1.4290922 0.8813228
000390 5d 63 bf 3e bb 52 cc bf 44 3c 06 bf 0c 35 86 3f
       0.37380496 -1.5962747 -0.5243571 1.0484939
0003a0 84 ee b9 be 43 19 a8 bf 2f 08 54 40 aa 3c 04 3f
       -0.36314785 -1.3132709 3.3129995 0.51655066
0003b0 bb cf 22 bf 40 83 ef bf f0 25 70 3d e9 d7 d3 be
       -0.6359822 -1.8711929 0.05862993 -0.41375664
0003c0 03 a9 48 3f f0 c2 7d bf 19 ea cd bf c3 f0 82 3e
       0.7838289 -0.99125576 -1.6087066 0.25574312
0003d0 4c 32 24 bf 6a 6d 02 bf 94 80 37 bf 3c b7 f7 be
       -0.64139247 -0.509482 -0.7168057 -0.48381984
0003e0 3e 2b 90 bf 79 87 c6 bf 74 fa 24 3c f3 23 64 bf
       -1.1263196 -1.5510093 0.010069478 -0.89117354
0003f0 31 90 00 40 e7 97 93 3e 42 4e e8 bf 39 0b dc 3f
       2.0088007 0.2882683 -1.8148882 1.7190925

encoder.conv1.k.bias f4 [16]
000000 e5 a8 4b c0 c2 be 69 bf ee b1 68 40 83 f1 1e be
       -3.1821835 -0.913067 3.63586 -0.15521817
000010 ab e1 5a 40 b2 77 8b bf 0a fe c5 be d2 1a 71 b9
       3.4200237 -1.0895903 -0.3867038 -0.00022993542
000020 69 55 fe 3f dc d2 f4 bf b0 75 25 bf c6 16 d4 3e
       1.9869815 -1.9126849 -0.646327 0.41423625
000030 01 de 26 3f 2e a9 5a 3e 53 c3 41 bf 6f 5f d8 be
       0.651825 0.213536 -0.75688666 -0.4226031

encoder.conv1.v.weight f4 [16, 64]
000000 eb be 7c bf a7 41 85 c0 dd 3e aa c0 85 4e 27 40
       -0.9872882 -4.164264 -5.3201737 2.6141675
000010 73 de 8a 3f cc cd 9f bf 51 fa 04 bf 9b 93 7e 3f
       1.0849136 -1.2484679 -0.5194445 0.9944398
000020 2a c2 fc 3f f9 99 c7 bf 8a 85 4e 40 84 a8 9a 3f
       1.9746754 -1.5593864 3.2269006 1.2082677
000030 64 9c 26 c0 c9 c8 0c c0 5d d5 bb bd 84 e6 03 c0
       -2.6032953 -2.199755 -0.09171555 -2.0609446
000040 04 1e c4 3c c9 4a dd be 77 22 b6 3e 16 02 97 bf
       0.023940094 -0.4322112 0.3557317 -1.1797512
000050 50 2e 37 3f f1 c1 2b 40 a0 f5 96 bf 29 52 06 bf
       0.7155504 2.6837122 -1.1793709 -0.52469116
000060 e1 88 b6 3f e4 a9 36 bf 01 4a 06 40 71 2a 9c bd
       1.4260522 -0.7135298 2.0982668 -0.076252826
000070 b3 de 5c be 2e 73 a2 3f 6a 68 4a 40 30 f4 ee bf
       -0.21569328 1.26914 3.162623 -1.866827
000080 43 0e 49 bf eb 86 0c be 54 20 2c c0 45 80 25 3f
       -0.78537387 -0.13723342 -2.6894732 0.6464885
000090 71 a5 88 3f d6 88 79 bf 36 c7 43 c0 8f 33 64 3f
       1.0675489 -0.9747442 -3.0590339 0.8914117
0000a0 77 3f e1 bf be d5 85 3d 17 84 51 3f d0 a8 52 40
       -1.7597493 0.06534909 0.8184218 3.2915535
0000b0 20 12 ed 3e 37 8a 38 3e 6d c7 a8 3f 2c f0 f9 be
       0.4630289 0.18021475 1.318586 -0.4881605
0000c0 bd e3 0c 3f 0b 34 ce 3e 0a f0 28 3e cd 39 45 3f
       0.55035 0.4027408 0.16497818 0.7704132
0000d0 a3 e2 80 3f a2 e0 39 40 14 86 25 bf 9b d6 f7 bd
       1.0069164 2.9043355 -0.6465771 -0.121014796
0000e0 ad 80 6c 3f 51 74 be be 2c f1 1f 40 fd d5 b0 3e
       0.92383844 -0.37198117 2.499095 0.3453826
0000f0 90 6c ab bf a6 0e 60 40 59 74 47 bf b7 6a c2 3e
       -1.3392506 3.500894 -0.7791191 0.37972042
000100 b2 9b 8f bf 6b 52 a3 c0 37 c5 91 c0 30 f0 cd 3e
       -1.121939 -5.103811 -4.555324 0.4022231
000110 d5 9e 38 be 4d 8e 24 3f c9 69 23 bf e7 2d 65 3e
       -0.1802934 0.64279634 -0.6383329 0.22380792
000120 80 cd 84 bd 96 78 8d 3f b1 bf 0c 3f 7d 0b 14 40
       -0.064845085 1.1052425 0.5498 2.3132012
000130 b2 ae e6 3f e3 45 aa 3e a3 fc 92 40 77 74 8d 3d
       1.8022063 0.33256444 4.5933394 0.069069795
000140 96 50 df be b6 73 ed 3f 01 85 20 3e 16 67 17 40
       -0.4361617 1.8550937 0.15675737 2.3656669
000150 e1 e8 eb 3f 72 38 34 40 9c 1c 1a be 09 4e 6f 3e
       1.8430444 2.8159451 -0.15049976 0.23369612
000160 66 a0 77 bf 0c 11 7a c0 08 a9 f5 3f 18 3d e6 3f
       -0.96729124 -3.9072905 1.9192209 1.7987394
000170 cd 5c 37 be e5 77 4a 40 80 5a 00 3d 9e 3a d2 bd
       -0.17906494 3.1635678 0.031336308 -0.102650866
000180 97 e7 ee be d5 22 40 c0 64 9a 99 bf 69 19 c5 3e
       -0.46661064 -3.002126 -1.2000241 0.3849595
000190 97 f6 e4 bd 89 df 79 3f ea c7 6e bf 9b 09 d0 3e
       -0.11179846 0.9760671 -0.93273795 0.40632328
0001a0 37 7b 77 3e 56 45 bb 3e 78 f9 5f 3e 7e c9 df be
       0.24168096 0.36576337 0.21872509 -0.43708414
0001b0 2f 02 54 3f a8 87 75 3d d4 cf 53 40 24 1b 0a be
       0.8281583 0.059943825 3.3095598 -0.13486916
0001c0 2c f2 49 3e d6 03 87 3f 02 45 12 bd 7d 2d c1 3f
       0.19721287 1.0548046 -0.035710342 1.5092007
0001d0 72 13 aa 3f 24 03 dc 3f 2b 0c 7a be 6c 23 9d 3e
       1.3287184 1.7188458 -0.24418704 0.30691087
0001e0 e3 07 8b bf bf b2 32 c0 07 30 08 40 a2 30 c1 3f
       -1.0861782 -2.7921598 2.1279314 1.5092967
0001f0 6b 1b 5e bf 2d 3d 50 40 a7 00 68 bd e6 82 be 3e
       -0.86760587 3.2537339 -0.056641247 0.37209243
000200 42 35 87 3f 4f bc 13 bf f8 0a fc 3e 62 30 4d 3e
       1.0563128 -0.5770921 0.49227118 0.20037988
000210 71 1c f7 bd c1 fe 31 3f 96 e2 6d 40 fe 6c a2 3f
       -0.12065972 0.6952935 3.7169547 1.2689512
000220 cb 13 4a 40 5b 76 16 40 4a 75 23 c0 10 75 2d 40
       3.157458 2.3509738 -2.5540338 2.71027
000230 19 03 e2 bf b0 38 be 3f ef e2 46 c0 30 bd 82 40
       -1.7657195 1.486105 -3.107601 4.085594
000240 8e 6d bf 3f 66 10 93 bf d8 9d a8 3f c8 8a b9 c0
       1.4955308 -1.148938 1.317317 -5.798191
000250 ac cf 85 3f 1c 5d 9c c0 e1 77 3d 40 30 b9 b5 3f
       1.0454001 -4.886366 2.9604418 1.419714
000260 28 fb 62 3f 9e 61 cb 3f f8 aa b3 c0 5c 97 03 bf
       0.88664484 1.5889165 -5.61462 -0.5140283
000270 fb a6 e5 3c 83 54 c7 c0 0a 3a 74 c0 41 76 1d c1
       0.028033724 -6.2290664 -3.8160424 -9.841371
000280 c2 cb 96 3f f7 fd 25 40 2e 54 ec be 64 5f eb bf
       1.1780932 2.5936258 -0.46157974 -1.8388486
000290 94 fb d9 3f 6f df 9c 3f d6 e2 17 40 3b 19 4e 3f
       1.70299 1.2255687 2.37322 0.8050725
0002a0 b6 c1 27 c0 c9 e2 06 40 34 8a 52 c0 bd ba 80 40
       -2.6211982 2.1075919 -3.2896852 4.022795
0002b0 3e 02 18 40 df 81 94 3e e1 9e 0c bf cf 96 06 41
       2.3751369 0.29005334 -0.5492993 8.4118185
0002c0 ec 2e 01 40 c9 78 28 bf 06 3d 14 40 cb 48 b3 c0
       2.018489 -0.65809304 2.3162246 -5.602636
0002d0 57 c4 01 40 45 3d 42 c0 91 12 f8 3f 70 3a 08 40
       2.0276086 -3.0349896 1.9380666 2.1285667
0002e0 4c cb fa 3e ba 7e 8e 3f 60 8e 61 bf 28 2a cd 3f
       0.48983228 1.1132424 -0.8810787 1.602849
0002f0 16 cc 28 3f 49 c9 33 c0 58 e1 d4 bf d2 fa fa bd
       0.6593641 -2.8091605 -1.663127 -0.122548714
000300 66 1c f7 3e 4c e6 b6 3f 73 3d 47 3f 6b 0d 0a bf
       0.48263854 1.4289031 0.7782814 -0.53926724
000310 4f 09 1c 3e 8a 55 8d bd 31 54 4c bf 22 2c 1f 3f
       0.15237926 -0.06901081 -0.79815966 0.62176716
000320 cf eb ed bf 2e b0 b5 3e 23 0d aa be 1b a2 2d 40
       -1.8587588 0.35485977 -0.33213148 2.7130191
000330 fc 9d 94 bf 34 6f 8f 3d b2 ff 9c bf ab 2f df 3e
       -1.1610713 0.07003632 -1.2265532 0.43591055
000340 65 85 af bf 27 5b bc 3e a9 f0 18 c0 fe f6 43 bf
       -1.3712584 0.36788294 -2.3896887 -0.76548755
000350 53 ef ef be 5b 47 4e 3f a9 72 63 bf 78 26 70 bf
       -0.46862277 0.8057763 -0.8884683 -0.938087
000360 ee 5f 9b bf 98 8c fc 3e 3a 94 9e bf 8c ee 00 c0
       -1.213865 0.49326015 -1.2388985 -2.0145597
000370 3c 7c 19 c1 c9 68 e9 3d 30 b5 4d 3f 7c 2e 26 c0
       -9.592831 0.11396939 0.80354595 -2.5965872
000380 bf f9 6e 3f a2 a1 36 40 46 a5 a6 be c7 cf 5d 3e
       0.9334983 2.8536153 -0.3254797 0.21661292
000390 1a 75 cb 3e a4 46 2f bf 90 31 fe bf 2f d9 7d 3f
       0.3973778 -0.68467164 -1.9858875 0.9915952
0003a0 87 ed 9a c0 49 d4 45 40 b8 9b ab bf 13 f0 b1 bf
       -4.841495 3.0910819 -1.3406897 -1.390139
0003b0 40 86 cd bf d5 63 48 be f3 d8 5b bf 42 db 0b bf
       -1.6056595 -0.19569333 -0.85877913 -0.54631436
0003c0 11 02 01 c0 58 05 13 3f 7e f8 21 c0 ce e8 8a 3e
       -2.0157511 0.5743003 -2.5307918 0.2713074
0003d0 c9 47 0c bf c8 c1 46 3f 1c d6 ba bf da 01 84 bf
       -0.54797035 0.77639437 -1.4596591 -1.0313065
0003e0 10 72 cd bf fd 31 84 3f ba 27 13 bf fd bc 0b c0
       -1.6050434 1.0327755 -0.5748249 -2.18341
0003f0 68 c1 38 3f 84 b8 52 bf 64 ab 60 bf 76 13 9a 3e
       0.72170115 -0.823128 -0.8776152 0.30092973

encoder.conv1.v.bias f4 [16]
000000 fc a0 93 c0 9b f7 e4 be 28 98 b2 40 81 30 fb bf
       -4.6134014 -0.44720158 5.5810738 -1.9624177
000010 c7 e8 82 40 47 6a 75 3e 28 d9 4f 3f ed b7 12 3f
       4.090915 0.23966323 0.8119073 0.573119
000020 53 47 d5 3e d6 6b 69 40 5a 22 90 3f dd 6d 70 40
       0.4165598 3.6472068 1.1260483 3.7567055
000030 dc c4 e4 3f 23 12 05 3f 9c 30 85 be 52 28 e7 3e
       1.7872577 0.519808 -0.2601365 0.4514795
