trained_model/model_epoch359.chrom22.pkl (torch, 41775 bytes, 18 tensors)

encoder.conv0.q.weight f4 [32, 28]
0	0x3ee51521	0.44742683
1	0x3ecfcec9	0.40587452
2	0xbf60ae32	-0.877658
3	0xbf416e11	-0.75558573
4	0x3e361b04	0.17783743
5	0x3f87963f	1.0592726
6	0xbf4f64cd	-0.81013185
7	0x3e562e52	0.20916107
8	0xbf478202	-0.7793275
9	0xbfb7d2c2	-1.4361193
10	0xbe5d8f39	-0.21636666
11	0x3fd9836b	1.699323
12	0xbe7c4552	-0.24635819
13	0xbf851011	-1.0395528
14	0xc13dd868	-11.865334
15	0xc130a168	-11.039406
16	0xbf2bb56a	-0.6707369
17	0xbf0682ea	-0.5254351
18	0x3eb9251c	0.36161125
19	0x3f1470b4	0.5798447
20	0x40c3b6c5	6.1160607
21	0xbe195343	-0.14973168
22	0x3fdbffd8	1.7187452
23	0x4025d016	2.5908256
24	0x3fea4360	1.8301811
25	0x40ab9df5	5.363032
26	0x4004f2f7	2.0773294
27	0xbf364d1f	-0.7121143
28	0xbd793e08	-0.060850173
29	0xbe2f508f	-0.17120574
30	0xbf3b347e	-0.7312697
31	0x3e8219fe	0.25410455
32	0xbd6bb75c	-0.057547912
33	0x3eed21c7	0.46314833
34	0xbf41d484	-0.757149
35	0xbe238492	-0.1596854
36	0xbc3db507	-0.011578805
37	0x3f1c3e4f	0.61032575
38	0xbefed8b3	-0.49774703
39	0xbf469f87	-0.7758717
40	0xbf4bce31	-0.796115
41	0xbf8c111f	-1.0942725
42	0x4271f3f3	60.48823
43	0x42820b1c	65.0217
44	0xbf157595	-0.5838254
45	0x3e17d4ec	0.14827317
46	0xbd66e3ab	-0.056369465
47	0x3eff1e6a	0.49827892
48	0x3f47fd96	0.78121316
49	0x3d7caa28	0.06168571
50	0x3c24f68e	0.010068549
51	0xbcd79721	-0.026317181
52	0x3ef6ed0e	0.48227733
53	0xbd821793	-0.06352153
54	0xbe08e851	-0.13369872
55	0xbf097ac0	-0.53702927
56	0xbc1e8511	-0.00967528
57	0x3d10f19b	0.035386663
58	0x3f060ae5	0.52360374
59	0xbc2eea9c	-0.010676052
60	0x3b040393	0.0020143732
61	0xbc8d9690	-0.017283708
62	0x3da8ca2a	0.08241685
63	0x3d29d293	0.041460585
64	0xbabc1582	-0.0014349672
65	0xbdaa9f16	-0.083311245
66	0xbd2beb5d	-0.041972507
67	0xbe7207c5	-0.23635776
68	0xbc027945	-0.007963483
69	0x3e62d314	0.22150832
70	0xc2a361e4	-81.69119
71	0xc2a94fee	-84.65611
72	0x3f004cb3	0.50117034
73	0xbc696146	-0.014244383
74	0xba16b44f	-0.0005748914
75	0x3c856de7	0.016287757
76	0xbea26b99	-0.31722715
77	0x3b915d56	0.0044361753
78	0x3bdeb913	0.006796965
79	0xbd8d1d18	-0.06890315
80	0xbce310a9	-0.027717905
81	0x3ca705ae	0.02038845
82	0xbe8bc6c6	-0.2730009
83	0x3d678231	0.056520645
84	0xbcecfb12	-0.028928313
85	0x3d5f31d4	0.05449088
86	0x3c6167e1	0.013757677
87	0xbeb5c8c1	-0.35504726
88	0x3c5bdc4b	0.013419221
89	0x3e9b2d64	0.30308068
90	0x3ea26400	0.3171692
91	0xbd05af67	-0.03263798
92	0x3c13127e	0.008976577
93	0x3be6e28c	0.0070460495
94	0xbe0df20c	-0.13861865
95	0xbda8de57	-0.08245533
96	0xbe423de7	-0.18968926
97	0x3d9368ca	0.07197721
98	0x3fba293a	1.4543831
99	0xbf8c739a	-1.0972779
100	0xbe20d890	-0.15707612
101	0xbe7d3157	-0.24725853
102	0x3c0a726a	0.00845013
103	0x3f015979	0.5052715
104	0x4030a0af	2.7598073
105	0x3db3c0a0	0.08776975
106	0xbc9c9425	-0.01911361
107	0x3c0089c1	0.007845343
108	0x3ffc9397	1.9732541
109	0xbf6519db	-0.8949258
110	0xbf9799c9	-1.1843807
111	0x3e7f736b	0.24946372
112	0xbe6c2f91	-0.2306502
113	0x3bb42320	0.0054973513
114	0x3f857d8c	1.0428939
115	0x3f0985db	0.5371987
116	0x3cf1eee8	0.029532865
117	0xbfeb80a5	-1.8398634
118	0x3f10544a	0.56378615
119	0xbf36e04c	-0.71436
120	0xbe7bcfa1	-0.24590923
121	0x3f32209c	0.6958101
122	0xbf9705c8	-1.1798639
123	0x3e28af75	0.16473182
124	0x3d6d53aa	0.057941116
125	0x3e519135	0.20465548
126	0x410e44ce	8.891798
127	0x40fe3efb	7.945188
128	0x4004a829	2.0727637
129	0x3f3a6f5c	0.7282617
130	0x39daddd0	0.00041745463
131	0xc00961d6	-2.1465964
132	0x40ec47a7	7.3837466
133	0xbeee1801	-0.4650269
134	0xbe418ded	-0.18901797
135	0x3eccf426	0.4003002
136	0x4082889b	4.0791755
137	0xc0786318	-3.8810482
138	0x3f84fd6d	1.038984
139	0xc09c0fe4	-4.87694
140	0x3f7df72d	0.99205285
141	0x3f82db7e	1.0223234
142	0xbf8edb76	-1.1160724
143	0x3edb232b	0.4280027
144	0x3bc796a2	0.006090955
145	0x3eea3134	0.45740664
146	0x3e2e2a94	0.1700843
147	0x3f9cfb85	1.2264258
148	0x3cbf83c1	0.023378255
149	0xc0012612	-2.0179486
150	0x3ebdd370	0.37075377
151	0xbf1a7861	-0.60339934
152	0x3eaa7898	0.3329513
153	0xbf3cbf89	-0.7372976
154	0xbf5b5790	-0.85680485
155	0x3f5f81ff	0.87307733
156	0x4031cf72	2.7782865
157	0x3f0759fe	0.5287169
158	0xbb39d2c2	-0.0028354381
159	0xbe97213d	-0.29517546
160	0xc08430c4	-4.130953
161	0x3f5f7f8c	0.87303996
162	0x3d77407d	0.060364235
163	0xbfe777ea	-1.808347
164	0xc038d2c5	-2.8878644
165	0x409f7ef9	4.9842496
166	0xc0626007	-3.537111
167	0xc022b739	-2.542433
168	0xbe734b31	-0.23759152
169	0xbd3c9dc0	-0.04604888
170	0x3e8c90d6	0.2745425
171	0x3f4ce935	0.80043346
172	0x3cffb373	0.031213498
173	0x3f8e243e	1.110481
174	0xbe28f6bd	-0.16500373
175	0x3ee2149e	0.44156355
176	0xbb89fb8f	-0.0042108963
177	0x3d5e1bc5	0.0542257
178	0xbebfa017	-0.37426826
179	0x3e88c3d1	0.26711896
180	0x3c66f8be	0.014097391
181	0xbf45ab6e	-0.77214706
182	0x4022bc0f	2.5427282
183	0x4033688b	2.8032558
184	0x3fe47117	1.7847012
185	0x3e89a3ee	0.2688288
186	0x3d107933	0.035271835
187	0x3d6c4ae8	0.057688624
188	0x3f92576c	1.1432929
189	0x3e3acc6f	0.18242048
190	0xbc51347f	-0.012768864
191	0x3eca94e7	0.39566728
192	0xbdfa09fc	-0.122089356
193	0x4008008c	2.1250334
194	0xbfc59de5	-1.543881
195	0xbfbe9186	-1.488816
196	0x3f0189c7	0.50600857
197	0x3eec7af6	0.46187562
198	0x3f2e2564	0.68025804
199	0x3d92986c	0.071579784
200	0x3c0ac46e	0.008469684
201	0x3fc3f005	1.5307623
202	0xbeeb2cf3	-0.4593273
203	0xbee9afa2	-0.4564181
204	0xbc4b6bc2	-0.012415828
205	0xbffc6e63	-1.9721187
206	0xbe883e3c	-0.2660998
207	0x3ef61fd7	0.48071167
208	0xbf93711b	-1.1518892
209	0xbf4c11f1	-0.79714876
210	0x3fa39f37	1.2782964
211	0xbf2ea7d6	-0.6822485
212	0xc1023666	-8.138281
213	0xbd93eb81	-0.07222653
214	0xbd627988	-0.055291682
215	0x3f0f0adb	0.5587594
216	0x3f9e0ef8	1.2348318
217	0x3e1de3f1	0.15418984
218	0x3c25e7dc	0.01012608
219	0xbee9cbd7	-0.4566333
220	0x3f9475b9	1.1598426
221	0x3fc34d72	1.525801
222	0x3f47cf95	0.7805112
223	0xbfe137c7	-1.7595147
224	0x3c13c1ac	0.009018343
225	0xbe0b36b9	-0.13595094
226	0x3f392caa	0.72333777
227	0x3e93dba9	0.28878525
228	0x3e3a0d9b	0.18169253
229	0x3e983e4b	0.29735026
230	0xbf863065	-1.0483519
231	0x3f5b48bb	0.8565785
232	0xbf63c3ae	-0.8897046
233	0xbf3a4493	-0.72760886
234	0x3f4ac81d	0.792116
235	0x3ee74702	0.45171362
236	0x3eb916fc	0.36150348
237	0x3f4a80f6	0.7910303
238	0x41a428fd	20.520014
239	0x41ad95ec	21.698204
240	0xc07c883c	-3.945815
241	0x3e27ba41	0.16379644
242	0xbd781ff6	-0.060577355
243	0xbf7aa292	-0.9790431
244	0x40e0b69a	7.02229
245	0xbea8a88b	-0.32941088
246	0xc0012e4a	-2.0184503
247	0xbf597420	-0.8494282
248	0xc0fa5d9d	-7.8239274
249	0x3f8fccf2	1.1234419
250	0xc049c440	-3.1526031
251	0xbf504438	-0.81354094
252	0x3fe001cf	1.7500552
253	0x3fbf9e3f	1.4970168
254	0x3f40e24a	0.7534529
255	0x3f59b43b	0.85040635

encoder.conv0.q.bias f4 [32]
0	0xbe0ffadd	-0.1406054
1	0xbe435f4f	-0.19079326
2	0xbf402354	-0.75053906
3	0xbe22003d	-0.15820403
4	0xbcabb254	-0.020959057
5	0x3f83d3d4	1.029902
6	0x3d7812dc	0.06056486
7	0x3f1da561	0.61580473
8	0x3ddbb81f	0.10728478
9	0xbf8b5b79	-1.088729
10	0xbedea602	-0.4348603
11	0x3f01eaa4	0.5074866
12	0xbe665ca0	-0.22496271
13	0x3e9c5eea	0.30541164
14	0xbb2b23ff	-0.0026113985
15	0x3d08ffd9	0.03344712
16	0x3fd0bbe8	1.6307344
17	0x401f2120	2.4863968
18	0xbf821b00	-1.016449
19	0x3f06dcb7	0.52680534
20	0xbf401820	-0.7503681
21	0xbe31442e	-0.17311165
22	0xbd0bf002	-0.034164436
23	0xbdca8921	-0.098894365
24	0xbf6844e8	-0.9073014
25	0xbf63935a	-0.88896716
26	0x400bdc92	2.1853375
27	0x3f6b7416	0.9197401
28	0xbfb55b03	-1.41684
29	0xbeab33bc	-0.33437908
30	0xbfdb486c	-1.7131476
31	0x3ff819c2	1.9382861

encoder.conv0.k.weight f4 [32, 28]
0	0xbf9d29b4	-1.2278352
1	0xbfadb956	-1.3572185
2	0xbf3873d6	-0.7205175
3	0x3f0d41eb	0.5517871
4	0xbe8c4e99	-0.27403715
5	0xbf0f31ba	-0.5593525
6	0x3dab6ac5	0.08369974
7	0x3ecf38ea	0.4047311
8	0x3f56800e	0.83789146
9	0x3f6432e5	0.8914016
10	0x3f185631	0.5950652
11	0x3fd932be	1.696861
12	0x3ee2efad	0.44323483
13	0xbd7d6f9b	-0.061874013
14	0xc15f9335	-13.973439
15	0xc14c867a	-12.782831
16	0xc0b11305	-5.5335717
17	0x3e991283	0.29896936
18	0xbeea7a5a	-0.45796472
19	0xbf01a23c	-0.50638175
20	0x40745f57	3.818319
21	0x3f808a5b	1.0042223
22	0xbf483e08	-0.7821965
23	0xc0500a18	-3.250616
24	0x4014da15	2.3258107
25	0x407c9533	3.9466064
26	0xc091d717	-4.557506
27	0xbf891dfa	-1.0712273
28	0x3ddfb15d	0.10922501
29	0x3de96f65	0.113982
30	0x3e0ded18	0.13859975
31	0xbdd00896	-0.10157888
32	0x3c073297	0.008251808
33	0x3d4a5fc5	0.04940774
34	0xbe0be87e	-0.13662907
35	0x3defcc8f	0.11708938
36	0xbbcef74f	-0.0063161026
37	0xbe105465	-0.14094694
38	0xbeb10660	-0.34575176
39	0xbd552659	-0.052038524
40	0xbc5ecbaa	-0.013598362
41	0x3e054c1d	0.13017316
42	0x428f636e	71.6942
43	0x4297e234	75.9418
44	0x3e89fb4e	0.26949543
45	0xbd9ae8f3	-0.07563963
46	0x3b0d775a	0.0021586032
47	0x3c9f677a	0.019458521
48	0x3e3255f8	0.17415607
49	0x3cb11e7c	0.021620981
50	0xbc2400fd	-0.010010001
51	0xbdc48871	-0.09596337
52	0x3df1b18e	0.11801444
53	0xbd81008b	-0.06298932
54	0xbe50f213	-0.20404844
55	0xbdc11618	-0.09428042
56	0x3f50fb33	0.816333
57	0x3f70b090	0.94019413
58	0xc00e8b14	-2.2272387
59	0xbdc88cf3	-0.09792509
60	0xbe246f49	-0.16058077
61	0x3faebc9b	1.3651308
62	0xc0241a3d	-2.5641015
63	0xbd62f6f9	-0.055411313
64	0xbe0fc945	-0.14041622
65	0x3f9c7a3d	1.2224804
66	0xbfcc1448	-1.5943689
67	0xbfe4af38	-1.7865973
68	0xc007acbf	-2.1199186
69	0xc01980fc	-2.3984976
70	0xc2322b58	-44.542328
71	0xc23dc2af	-47.44012
72	0x3fb4c0cf	1.412134
73	0x3dbecba0	0.09316182
74	0xbd8bca96	-0.068257496
75	0x3eb9a86d	0.3626131
76	0xbf11d069	-0.56958634
77	0x3e747c01	0.23875429
78	0xbd3d6390	-0.04623753
79	0x3f5a808e	0.8535241
80	0xbab4544c	-0.0013758033
81	0xc05945f6	-3.394895
82	0xbe9d8213	-0.307633
83	0x3e7d8e5a	0.24761334
84	0x3d05747f	0.032581802
85	0xbe041a9a	-0.12900773
86	0x3da67a4c	0.08128795
87	0x3e1d2099	0.15344466
88	0x3d550a66	0.05201187
89	0x3cafe666	0.021472167
90	0x3ee65c7c	0.44992435
91	0xbe6f2ea1	-0.23357631
92	0x3d14ea4b	0.03635625
93	0x3e0a2336	0.13489994
94	0xbdffc331	-0.12488402
95	0xbec15dd3	-0.37766895
96	0x3dfa6e95	0.12228123
97	0xbdcad691	-0.099042065
98	0xbfd7f9ad	-1.687307
99	0xc03cc576	-2.949552
100	0x3fbdd508	1.4830637
101	0x3e3c4b26	0.18388042
102	0x3c3d60fa	0.011558766
103	0xbde29387	-0.11063295
104	0xbf9a8db1	-1.2074491
105	0xbe7d6ce1	-0.24748565
106	0xbc581eac	-0.0131909065
107	0x3e183520	0.14864016
108	0x403e14a8	2.9700108
109	0x3e81af4f	0.25329062
110	0xbfa5ad2d	-1.2943474
111	0xbfd3da54	-1.6551003
112	0xbd5ea971	-0.05436081
113	0xbe20d0da	-0.1570467
114	0xbefd16b2	-0.49431378
115	0xbf9e6396	-1.2374141
116	0xbd2668ca	-0.04062728
117	0x403115b1	2.766949
118	0xbfc6b452	-1.5523779
119	0x3ebf636d	0.37380543
120	0x3e1e7716	0.15475115
121	0xbe5574e4	-0.20845371
122	0xbe81cf8e	-0.25353664
123	0x3eeb5ca0	0.45969105
124	0x3fc86eb8	1.5658789
125	0x3d2037b7	0.039115634
126	0xc0eae6b8	-7.340664
127	0x3f2776f6	0.65415895
128	0xbfc7862e	-1.5587823
129	0xbf76d3b1	-0.96416765
130	0xbd320565	-0.043462176
131	0x401f5060	2.4892807
132	0xc09eaab1	-4.9583364
133	0x3e935ecb	0.2878326
134	0x3e04ab8e	0.12956068
135	0xbeb327bd	-0.34991255
136	0x402af702	2.6713262
137	0x402e1796	2.7201896
138	0xc0bf8f1c	-5.9862194
139	0xbff8b9df	-1.9431723
140	0xbf34ce53	-0.70627326
141	0xbf58b98c	-0.8465812
142	0x3f5c48d6	0.8604864
143	0xbb7c68b8	-0.0038514566
144	0xbb70e50c	-0.0036757616
145	0xbcd1b128	-0.02559717
146	0x3eaa3199	0.33240965
147	0xbf5da614	-0.8658154
148	0xbd41a8ed	-0.04728024
149	0xbea38454	-0.31936896
150	0xbf3e6617	-0.74374527
151	0x3f48c593	0.78426474
152	0xbf3a9ed4	-0.728986
153	0x3ead629d	0.33864298
154	0xc10ff3a2	-8.996981
155	0xc109296f	-8.572616
156	0x40d08fc4	6.5175495
157	0x3dc04d3a	0.0938973
158	0x3cc616b5	0.02418075
159	0x3e47748a	0.1947805
160	0x3ff7aad5	1.9349009
161	0xbf916bca	-1.136102
162	0xbd2e3dd2	-0.042539425
163	0x3e1f74b0	0.15571856
164	0xbfbd1036	-1.4770572
165	0xbdc1c0ea	-0.094606236
166	0x3fe5ee99	1.7963439
167	0xbfefafda	-1.8725541
168	0x3d27c54f	0.040959653
169	0x3d4eb905	0.050469417
170	0x3f0d63f9	0.5523067
171	0x3f0b4d78	0.5441508
172	0x3cde05a2	0.027102295
173	0x3f3e1373	0.7424843
174	0xbe17bb1e	-0.14817473
175	0xbee29b39	-0.4425905
176	0xbc353c4b	-0.011061738
177	0x3eb761e7	0.3581688
178	0xbea76cf8	-0.32700324
179	0xbf5900cf	-0.8476686
180	0x3ead0487	0.33792517
181	0xbe39557a	-0.18099013
182	0xc0973992	-4.7257776
183	0x3f8e8c14	1.1136498
184	0xbcac1f3c	-0.021010987
185	0xbe3c177c	-0.18368334
186	0x3c769b34	0.015051652
187	0xbdb4915e	-0.08816789
188	0x3ec80d0f	0.39072463
189	0xbe9cdb0f	-0.30635878
190	0xbc4a3bfe	-0.012343405
191	0xbe08e932	-0.13370207
192	0x3fa34053	1.2754005
193	0xbfccfc13	-1.6014427
194	0xc02b0e84	-2.672761
195	0x4003c635	2.0589726
196	0x3e5f7102	0.21820453
197	0x3e8362b3	0.2566124
198	0x3fd06b2c	1.6282706
199	0xbeec6892	-0.4617353
200	0xbd802678	-0.06257337
201	0xb9fcb0fd	-0.00048197052
202	0xbe31173e	-0.17294022
203	0x3f36e9c9	0.7145048
204	0x3d40d1c6	0.047075056
205	0x3f5efdbc	0.8710592
206	0xbfab18ed	-1.3366982
207	0xbda8ac50	-0.08235991
208	0xbf1153ba	-0.5676838
209	0xbe186c92	-0.14885166
210	0x3ff717e3	1.9304165
211	0xbf40c224	-0.75296235
212	0xc0b34474	-5.602106
213	0xbdeadb35	-0.11467592
214	0xbd389639	-0.04506514
215	0x3e859174	0.26087534
216	0x4051a826	3.275888
217	0xbcfc4b5a	-0.03079765
218	0x3d6eaf8e	0.05827289
219	0xbe0cffa3	-0.13769393
220	0x40980acc	4.751318
221	0xc07c980a	-3.9467797
222	0x3e6bbef0	0.23022056
223	0xbb0f8ad7	-0.0021902823
224	0xc01e7b60	-2.4762802
225	0xc022b302	-2.5421758
226	0xbf3b9e4b	-0.7328841
227	0xc0116223	-2.2716148
228	0xbedf039e	-0.43557447
229	0xbff4c842	-1.9123614
230	0xbf336dc1	-0.70089346
231	0xbffec9dc	-1.9905353
232	0x3e7ea67c	0.24868196
233	0xbeb65d65	-0.3561813
234	0xbe844a1a	-0.25837785
235	0x3ee82506	0.45340747
236	0xbf792d74	-0.9733498
237	0xbe22b6cb	-0.15890042
238	0x3fda494f	1.7053622
239	0x40226070	2.537136
240	0x400b18cd	2.1733887
241	0xbfb07a39	-1.3787299
242	0x3dcbb414	0.099464566
243	0xbe16d76e	-0.14730617
244	0x400f1669	2.2357428
245	0xbf15209d	-0.5825289
246	0x3f08353e	0.5320624
247	0x3f6cfc9c	0.9257295
248	0xbfb72727	-1.4308823
249	0x3f1872ed	0.5955036
250	0x4084259e	4.129592
251	0x4011b52d	2.276683
252	0xbe162667	-0.14663087
253	0xbe1f972f	-0.15585016
254	0x3fa6b274	1.302321
255	0xbe163b56	-0.14671072

encoder.conv0.k.bias f4 [32]
0	0x3f47f8f8	0.7811427
1	0xbc084dae	-0.0083193015
2	0xbfe8b21c	-1.8179355
3	0xbe2eecf7	-0.17082582
4	0xbf2282cc	-0.6348083
5	0x3e67b468	0.22627413
6	0xbdf54e76	-0.11977856
7	0xbe92ee8e	-0.28697628
8	0x3ea043c0	0.3130169
9	0xbe8dd2c3	-0.2769986
10	0x3d754651	0.059881512
11	0xbdb27602	-0.087139145
12	0x3e6646b3	0.22487907
13	0x3d379e69	0.044828806
14	0x3f1ecf4b	0.62035054
15	0xc022cf7c	-2.5439138
16	0x3fadb604	1.3571172
17	0x40430c3b	3.0476215
18	0xbfd64899	-1.6740905
19	0xbfa2d854	-1.2722268
20	0x3edd4b39	0.43221453
21	0x3e697f81	0.22802545
22	0xbfadbbd6	-1.3572948
23	0xbf681069	-0.9065004
24	0xbe65c0e2	-0.2243686
25	0xbfb6aa27	-1.4270676
26	0x3f7c179f	0.9847354
27	0x3f87bd6d	1.0604683
28	0x3e85d782	0.26140982
29	0x40065b53	2.099324
30	0xbffe44de	-1.9864767
31	0x3f95ec9a	1.171283

encoder.conv0.v.weight f4 [32, 28]
0	0x3fbd6961	1.4797784
1	0x3fc200ca	1.5156491
2	0x3edeb895	0.435002
3	0xbf88a308	-1.0674753
4	0xbeccbcba	-0.39987737
5	0x3f8ff257	1.1245831
6	0xbf281e85	-0.6567157
7	0x3e979d13	0.29612026
8	0xbe9f1709	-0.31072262
9	0x3fb89d1c	1.4422946
10	0xbdc723eb	-0.09723648
11	0xbf6b50a9	-0.9191995
12	0x3f2d155b	0.6761071
13	0xbe559320	-0.20856905
14	0x3e874d6e	0.26426262
15	0x3ec69127	0.38782617
16	0x400d9837	2.2124155
17	0xbf5810f2	-0.84400856
18	0xbef31af1	-0.47481492
19	0x3e95e1fc	0.29273975
20	0xbf8f8497	-1.1212338
21	0x3edd185f	0.43182656
22	0x3fdb65ab	1.7140402
23	0xbec6032a	-0.3867429
24	0x40ef1bb1	7.4721303
25	0xc0b574c3	-5.670503
26	0x400e9662	2.2279286
27	0xbfa568df	-1.2922629
28	0x3dab3da9	0.0836137
29	0x3f12c3ea	0.5733019
30	0xc00889e6	-2.1334167
31	0x3ce4fcfa	0.02795266
32	0x3b8645e0	0.004097685
33	0xbd88222b	-0.06647142
34	0xc01d0344	-2.4533243
35	0xbf0d13e6	-0.5510849
36	0x3d4d94b2	0.050190635
37	0x3e5ebe8f	0.2175238
38	0xbf6eb7c8	-0.9324918
39	0xbf9de95c	-1.2336841
40	0xbfc5cab0	-1.545248
41	0xbfc13c49	-1.5096523
42	0x4297d169	75.909004
43	0x4297dd0b	75.931725
44	0xc109aecf	-8.605178
45	0x3f3042d3	0.68851966
46	0x3cc8ddbf	0.0245198
47	0x3dc929d9	0.09822435
48	0xc00c6fc8	-2.1943226
49	0x3ecec75a	0.40386468
50	0x3ddbcc4a	0.107323244
51	0xbc1c1e09	-0.009528645
52	0xbfc3a021	-1.5283242
53	0xbfb325ad	-1.3995873
54	0xc09bb73b	-4.866117
55	0xbde03cc0	-0.10949087
56	0xbe76b9f6	-0.24094376
57	0xbd6aaaa1	-0.05729163
58	0xbf27429b	-0.65336007
59	0x3ce6c048	0.028167859
60	0x3c7592be	0.014988599
61	0xbd9d2967	-0.076739125
62	0xbf57ccfa	-0.84297144
63	0xbcb39002	-0.021919254
64	0x391b4cfb	0.0001481063
65	0x3dfd0837	0.123550825
66	0xbed508d9	-0.41608313
67	0x3eae5413	0.3404852
68	0xbd10afc2	-0.035323866
69	0x3e9fc187	0.31202337
70	0xc2b3f45c	-89.977264
71	0xc2b10ed7	-88.528984
72	0x3d981f35	0.07427827
73	0xbd29302c	-0.041305706
74	0x3c04a9d1	0.008097128
75	0x3976bf6e	0.00023531701
76	0xbfcf50b1	-1.61965
77	0xbd20812d	-0.03918569
78	0xbc812ed1	-0.015769394
79	0x3d69ddd2	0.05709631
80	0x3ec53783	0.38518915
81	0xbf66569a	-0.89975893
82	0xbee807e6	-0.45318526
83	0xbe06c915	-0.13162644
84	0xbe4dd1ea	-0.20099607
85	0xbdee2207	-0.11627584
86	0x3fac0999	1.3440429
87	0x3eea0c77	0.45712635
88	0x3d42de6e	0.047575407
89	0xbf29fd4b	-0.6640212
90	0x3f62126f	0.8830938
91	0xbf18a816	-0.5963148
92	0x3dd26b27	0.10274344
93	0x3e1d8c62	0.15385583
94	0x3f73392f	0.9500913
95	0x3f707888	0.93933916
96	0x3f663706	0.8992771
97	0x3f88387f	1.0642241
98	0x417c80a4	15.781406
99	0x41a846a4	21.034492
100	0xbf8d134c	-1.1021514
101	0x3e947b90	0.2900052
102	0x3d8fa915	0.07014672
103	0xbed6a1e1	-0.4192038
104	0xc086216f	-4.1915812
105	0xbe44fbf9	-0.19236745
106	0x3d9be504	0.07612041
107	0x3f42f76b	0.7615878
108	0xbfab3eb9	-1.3378516
109	0x3efda7f6	0.49542207
110	0x3d4ca11d	0.049958337
111	0x402c3538	2.6907482
112	0x3c9a4326	0.018830847
113	0x3ec723fe	0.38894647
114	0x3f3e6683	0.7437517
115	0xbe07c89a	-0.13260117
116	0xbd2f1890	-0.042748034
117	0x3c97cd8d	0.018530631
118	0x3f301f20	0.68797493
119	0x3e7b1bc1	0.24522306
120	0x3b0bfa05	0.002135874
121	0xbec35d44	-0.38157094
122	0xbf90de73	-1.1317886
123	0x3e33cc7c	0.17558473
124	0x3e504993	0.20340566
125	0x3f99e27d	1.2022244
126	0x41357f7d	11.343625
127	0xc00e9b1f	-2.2282178
128	0x41164051	9.390702
129	0xbc1d05f9	-0.0095839435
130	0xbc5fc1eb	-0.0136570735
131	0x3dc02191	0.09381402
132	0x40d41a93	6.628244
133	0x3e62a4c2	0.22133163
134	0x3d2395dc	0.03993784
135	0xbe2819f9	-0.16416158
136	0x4023c555	2.5589192
137	0xc0e41c11	-7.128426
138	0x4068b452	3.6360059
139	0x401a3300	2.4093628
140	0x3ce40670	0.0278351
141	0xbdde66ed	-0.10859475
142	0x3e0c574e	0.13705179
143	0xbe01d31a	-0.12678185
144	0xbbb9fcc7	-0.0056758854
145	0xbe9508d6	-0.29108304
146	0x3ca7c0b6	0.020477634
147	0x3a48c1dc	0.0007658282
148	0x3cd8a283	0.02644468
149	0xbdff91b4	-0.124789625
150	0xbf302018	-0.6879897
151	0xbe2a1f3b	-0.16613476
152	0x3e111b0d	0.14170475
153	0x3f01b880	0.5067215
154	0xc09a9df6	-4.8317823
155	0xc0a0725f	-5.0139613
156	0xc0063858	-2.097189
157	0xbc988771	-0.018619271
158	0xbcdb6a01	-0.026783945
159	0xbed68d4c	-0.41904676
160	0xbfa509b9	-1.2893592
161	0xbd5e2cf1	-0.05424208
162	0x3ca54d58	0.020178482
163	0xbe141ae8	-0.14463389
164	0xc07a3f89	-3.9101279
165	0xbf400e6f	-0.75022024
166	0x3fdecd95	1.7406489
167	0x3fd72d0c	1.6810622
168	0x3e8525db	0.26005444
169	0xbe76e529	-0.24110855
170	0x3fc8ccc5	1.5687491
171	0x3eb1a298	0.34694362
172	0xbb6eb585	-0.0036424112
173	0xbe28d719	-0.16488303
174	0x3f25b1ce	0.64724433
175	0x3e622aba	0.22086611
176	0x3bd624ee	0.006535164
177	0x3e2a88ec	0.16653794
178	0xbf1d04de	-0.6133555
179	0xbf035fc8	-0.51318026
180	0x3f2dd111	0.67897135
181	0x3f8efae6	1.1170318
182	0xc1dc59b9	-27.54381
183	0xc1379c90	-11.475723
184	0xc0328e7f	-2.7899473
185	0xbc7db585	-0.015485172
186	0x3b5a5779	0.0033316298
187	0x3c622e22	0.013804944
188	0x400aa911	2.166569
189	0xbc31cb18	-0.010851644
190	0x3c0b3a90	0.008497849
191	0x3e049a77	0.12949549
192	0x3f062f36	0.5241579
193	0xbf52ed6f	-0.82393545
194	0xbf1f4f61	-0.622305
195	0x3f04d375	0.5188516
196	0xbda2c89c	-0.079484195
197	0xbd9805c3	-0.07422974
198	0x3c831bb7	0.016004426
199	0xbd7a40de	-0.06109702
200	0xbc3b14a1	-0.0114184925
201	0x3dc997fa	0.0984344
202	0xbd39ea2f	-0.04538935
203	0x3dd65a50	0.104664445
204	0x3c4d1883	0.012518051
205	0xbd7e793a	-0.06212733
206	0xbf189fca	-0.5961882
207	0x3d29af3f	0.041426893
208	0xbeafea8f	-0.34358642
209	0xbdb7b364	-0.08969763
210	0xc0b6c4f8	-5.711544
211	0xc101d7f1	-8.11522
212	0x4032578a	2.786593
213	0x3d9b3a7d	0.07579515
214	0xbca2ac34	-0.019857503
215	0xbd7a03aa	-0.06103865
216	0x3f18245c	0.5943048
217	0x3d797309	0.06090072
218	0x3b8c4b4f	0.0042814384
219	0x3c3a5547	0.011372871
220	0x3f72d923	0.94862574
221	0xbed768ec	-0.42072237
222	0x3f4be4fa	0.79646266
223	0x3fa290f0	1.2700481
224	0xbc8d57ad	-0.017253721
225	0x3c95cae4	0.018285222
226	0xbecc4c17	-0.39901802
227	0xbcf8ba75	-0.030362347
228	0x3e4feba5	0.20304735
229	0xbbcca423	-0.0062451526
230	0xbe8119c8	-0.25214982
231	0x3bb4d8d6	0.005519013
232	0xbe054245	-0.13013561
233	0x3ba5d1b4	0.005060399
234	0xbe315335	-0.17316897
235	0x3dfad461	0.12247539
236	0xbd7de463	-0.061985385
237	0xbd5fa73a	-0.05460284
238	0x41869dd3	16.827063
239	0x4183978f	16.449003
240	0xbfbd3067	-1.4780396
241	0x3c885971	0.016644211
242	0x3d09a879	0.033607934
243	0xbd0dac37	-0.034588065
244	0x3f585fbb	0.84521073
245	0xbdbfd86c	-0.09367451
246	0xbabac96e	-0.0014250705
247	0xbdf1138c	-0.117713064
248	0x3ef9a977	0.48762104
249	0x3ed07d33	0.4072052
250	0x3f740cf8	0.9533229
251	0xbf0d4a4f	-0.5519151
252	0x3d5c829e	0.053835504
253	0xbe3f5672	-0.1868532
254	0x3dc9ee7a	0.09859939
255	0xbd1dac7e	-0.03849458

encoder.conv0.v.bias f4 [32]
0	0x3c278fe2	0.010227175
1	0x3ee4cb3c	0.44686306
2	0xbf2cf6c8	-0.6756406
3	0xbe6e6ea7	-0.23284398
4	0xbfbe0046	-1.4843833
5	0xbf9788d2	-1.1838629
6	0xbf807c29	-1.0037891
7	0xbe6da750	-0.23208356
8	0xbe9e9da5	-0.30979648
9	0x407c12fe	3.9386592
10	0x3fe5f5f2	1.7965682
11	0xbe305c8c	-0.17222804
12	0xbfccd839	-1.6003486
13	0xbf5d8c95	-0.86542636
14	0xbe8c96b0	-0.27458715
15	0xbf8debea	-1.108762
16	0x3dcd6cb9	0.10030503
17	0x40198790	2.398899
18	0xbdee0017	-0.11621111
19	0xbebca054	-0.3684107
20	0xbed93f3d	-0.4243106
21	0x3ea8a127	0.3293545
22	0xbeee390b	-0.46527895
23	0x3ef13efd	0.4711837
24	0x3ff7f9bf	1.9373091
25	0x3ffa701e	1.9565465
26	0xbff20c3b	-1.8909982
27	0x3f5f24d0	0.87165546
28	0x3ef88de9	0.4854577
29	0xbf3ef43f	-0.7459144
30	0xbffb9825	-1.9655806
31	0x3fbb1f84	1.4618993

encoder.conv1.q.weight f4 [16, 64]
0	0x407496ce	3.8217044
1	0xc033596e	-2.8023334
2	0x3f09edd9	0.5387855
3	0xbf903dbc	-1.126884
4	0xc06e0bd5	-3.7194722
5	0xbcc88adf	-0.024480281
6	0x400e8ea7	2.2274568
7	0x3fc6db1e	1.5535619
8	0xc071d972	-3.7788968
9	0x3f5bdfa9	0.85888153
10	0x3de393ba	0.11112161
11	0x3ff9f206	1.9526985
12	0xc0742ee9	-3.8153632
13	0x3fffb3a5	1.9976698
14	0xc0095933	-2.1460693
15	0xc041e9de	-3.0298991
16	0xbf28e061	-0.65967375
17	0x3e872821	0.26397803
18	0xbfd08b0b	-1.6292433
19	0xbfb5371d	-1.4157444
20	0x402bab08	2.682314
21	0x3fcc722d	1.5972344
22	0xbf761cb9	-0.9613758
23	0xbfb3bbbc	-1.4041667
24	0xbeb05ff7	-0.34448215
25	0x3f1f2c9c	0.62177444
26	0xbf00cfef	-0.5031728
27	0xbd95bdf7	-0.073116235
28	0xbf1f6add	-0.62272435
29	0x3f5fda32	0.87442315
30	0xc03b6b48	-2.928423
31	0xbdf998a0	-0.12187314
32	0x408b73e6	4.3578978
33	0x3e9b15ec	0.30290163
34	0x3f4a96a1	0.7913609
35	0x401708f8	2.3599224
36	0xc041c713	-3.0277755
37	0xc03b9f81	-2.9316103
38	0xbfabf183	-1.3433079
39	0xc02a0c1a	-2.6569886
40	0xc038118d	-2.8760712
41	0x4024eb25	2.576852
42	0xbe16799b	-0.14694826
43	0x3f92a76d	1.1457344
44	0xbee73419	-0.45156935
45	0xbf52824b	-0.8223006
46	0xc060eb83	-3.5143745
47	0xbfbd1a3c	-1.4773631
48	0xbfd25b2e	-1.6434076
49	0x3f59cce1	0.85078245
50	0x3fa4a534	1.2862916
51	0xbfd6ea78	-1.6790304
52	0x402554c4	2.5832987
53	0x404b3927	3.1753633
54	0xbfe88a14	-1.8167138
55	0xc057f9d5	-3.3746235
56	0xbf29fc82	-0.6640092
57	0x40705c3a	3.755629
58	0xbf55e302	-0.8354951
59	0xbde87b64	-0.1135166
60	0xbf2e8195	-0.68166476
61	0x3ed97122	0.42469126
62	0xbf97151e	-1.180332
63	0xc012560f	-2.2865026
64	0x3f8f4573	1.1193069
65	0x40681c8a	3.626742
66	0xc116074e	-9.376783
67	0x40382cb1	2.8777277
68	0xbe08ea8e	-0.13370726
69	0x3fb6b82c	1.4274955
70	0x3ffb4937	1.9631718
71	0x3ff5d0d5	1.9204355
72	0xc01b5316	-2.4269462
73	0x3e63a41a	0.22230569
74	0xbf14765b	-0.57993096
75	0xbe3eaae6	-0.1861988
76	0x3ea78b60	0.32723522
77	0x4032f1d1	2.7960093
78	0xbfc13a38	-1.5095892
79	0x3fba21c6	1.4541557
80	0x3e8d8e5a	0.27647668
81	0x3d30d3a3	0.043170583
82	0xbea9c87f	-0.3316078
83	0x3f009343	0.50224704
84	0xbdeb934d	-0.11502705
85	0xc06c15e8	-3.688837
86	0xbe3f7aa4	-0.18699127
87	0xbdb854fd	-0.09000585
88	0xbef9182c	-0.48651254
89	0xbee8344f	-0.45352408
90	0x3e1a15de	0.15047404
91	0xbe857789	-0.2606776
92	0xbf2edcfe	-0.6830596
93	0xbeccc731	-0.3999572
94	0x3ca7b877	0.020473702
95	0xbfcbb5cf	-1.5914859
96	0xbd796012	-0.060882635
97	0x40870cf1	4.2203298
98	0xc12a5b57	-10.6473
99	0x40247a8d	2.56998
100	0x3ed1af77	0.40954182
101	0x3f8ecf6e	1.1157053
102	0x3f2a7cf7	0.6659693
103	0x40413d22	3.0193563
104	0xbfce8eeb	-1.6137365
105	0x3f9af2c8	1.2105341
106	0xbef13e08	-0.4711764
107	0x3ece62e3	0.4030982
108	0x3f7a3483	0.97736377
109	0x405115e3	3.2669609
110	0xbec44c4e	-0.38339466
111	0xbf5ed0e7	-0.8703751
112	0x3ef8f8e9	0.48627403
113	0x3e0f7cac	0.14012402
114	0xc01cad72	-2.4480863
115	0x3f1078fb	0.564346
116	0xbd2b1c17	-0.041774835
117	0xc03005aa	-2.7503457
118	0x3de9a284	0.114079505
119	0x3fbe6233	1.4873718
120	0xbf02fc64	-0.5116637
121	0xbf38f3d9	-0.7224708
122	0xbf091a4c	-0.5355575
123	0xbea174ce	-0.31534427
124	0xbfff9a50	-1.9968967
125	0xbf610cb3	-0.8791
126	0xbf57bb04	-0.8426974
127	0x3f9b4881	1.2131501
128	0x3f554c7d	0.83319837
129	0x40c444cf	6.1333995
130	0x40270208	2.609499
131	0x3fbcc268	1.4746828
132	0xbe1c9000	-0.15289307
133	0x4028a54b	2.6350887
134	0x3e8a4687	0.27006933
135	0x3e686fde	0.22698924
136	0xbda2bbb3	-0.07945957
137	0xbf3439a1	-0.70400435
138	0x3f3ee9f5	0.7457574
139	0x3f350d5b	0.70723504
140	0xbfb98862	-1.4494746
141	0xbf5a6e33	-0.853244
142	0xc011ce91	-2.2782328
143	0x3f83d974	1.0300736
144	0x4022e526	2.545236
145	0xbd5c3816	-0.053764425
146	0x3fdb9b51	1.7156774
147	0x3f48f878	0.78504133
148	0x3f2152f5	0.6301721
149	0x3f8a1807	1.0788583
150	0x3e5b5e69	0.21422733
151	0x3f7f1108	0.9963536
152	0x3e624fea	0.22100797
153	0xbee8a075	-0.4543492
154	0xbdbfac00	-0.09358978
155	0x3d9b0cb6	0.07570784
156	0x3f98978e	1.1921251
157	0xbf2659ef	-0.6498098
158	0x3f2deb2b	0.6793696
159	0xbedbb31a	-0.4291008
160	0x3d904921	0.07045198
161	0x40e2f59e	7.0924826
162	0x40bb93f2	5.8618097
163	0x3efe8f38	0.49718642
164	0xbefed757	-0.49773666
165	0x40987188	4.763859
166	0x3e944746	0.28960627
167	0x400a767e	2.1634822
168	0x3f5e9caa	0.869578
169	0x3ea1867f	0.31547925
170	0x3a1c3334	0.00059585576
171	0xbe862fb2	-0.26208264
172	0xbcdea7f6	-0.0271797
173	0xbe3ec9c9	-0.18631662
174	0xbfdbf9bb	-1.7185587
175	0x3f919e87	1.1376504
176	0x4021e536	2.529615
177	0x3ea16672	0.31523472
178	0x4003ee77	2.0614297
179	0x3e4c739d	0.19965978
180	0x3e738c5d	0.23784013
181	0x40056cf1	2.0847743
182	0x3f08e410	0.53472996
183	0x3f5bb7a1	0.8582707
184	0x3f1f14a9	0.621409
185	0x3d85bab1	0.06529749
186	0x3f97c060	1.1855583
187	0x3e9d72c5	0.30751625
188	0x3f9da746	1.2316673
189	0x3f208c48	0.6271405
190	0x3fa13435	1.2594057
191	0x4017bf0b	2.3710353
192	0xbf53a23b	-0.8266942
193	0x3fbaac9e	1.4583929
194	0xc09f6c47	-4.9819674
195	0xbff8c9e0	-1.9436607
196	0x3eee04d1	0.4648805
197	0xbd5aa5a4	-0.053380623
198	0xbee56000	-0.44799805
199	0xbf12fc64	-0.5741637
200	0x38c598b7	9.4221374e-05
201	0xc02a9508	-2.6653461
202	0xbcbcb275	-0.023034314
203	0x3e6356b9	0.22201051
204	0xbf942794	-1.1574578
205	0xc0421af9	-3.0328963
206	0x40570d33	3.3601806
207	0xc04f1ca7	-3.2361238
208	0xbfa97473	-1.3238662
209	0xc0037b02	-2.0543828
210	0xbf446e85	-0.7673114
211	0xbed4445c	-0.41458404
212	0xbefd13b7	-0.49429104
213	0xc00a58c7	-2.1616685
214	0x3ed3e091	0.41382268
215	0xc017a694	-2.3695421
216	0x3ef7706c	0.4832796
217	0xbff38281	-1.9024202
218	0x3ecc6edc	0.3992833
219	0xbdc1a553	-0.09455361
220	0xc016afe9	-2.3544867
221	0xc0418157	-3.0235193
222	0x3f4cc7fb	0.79992646
223	0xbf012c00	-0.50457764
224	0xbf2659e1	-0.64980894
225	0x4004e883	2.0766914
226	0xc02c4840	-2.6919098
227	0xc00a16b6	-2.1576362
228	0xbc8f1e86	-0.01747061
229	0x3f563a92	0.8368312
230	0x3f2e48f3	0.6808006
231	0x3f57c1e2	0.84280217
232	0xbe6933ec	-0.22773713
233	0x3f7d9f11	0.9907084
234	0x3f142ad9	0.5787788
235	0xbf8c47fa	-1.0959466
236	0xbe12974e	-0.1431553
237	0xc00a6ce6	-2.1628966
238	0x40630c99	3.547644
239	0xbfb95869	-1.4480106
240	0xbf5a8a42	-0.85367215
241	0xbf9b0976	-1.2112262
242	0xbec3ad8a	-0.38218337
243	0xbdc48ac3	-0.09596779
244	0xbf68bafe	-0.9091033
245	0xbe240179	-0.16016187
246	0xba6f8d06	-0.00091381406
247	0xbfe31917	-1.7742032
248	0x3f00fc81	0.5038529
249	0xbfe305cb	-1.7736143
250	0x3ef93ff2	0.486816
251	0xbde758ec	-0.112962574
252	0xbfb8b74b	-1.4430937
253	0x3f67295e	0.90297496
254	0x3f7a2128	0.9770684
255	0x3f16403d	0.5869177

encoder.conv1.q.bias f4 [16]
0	0x403ef96d	2.9839737
1	0xbe66abd7	-0.22526489
2	0xbf81d134	-1.0141969
3	0x401b1ed6	2.423757
4	0xc03e0db1	-2.9695857
5	0xbf89d8f4	-1.0769334
6	0x3f232aba	0.6373707
7	0x3f279064	0.654547
8	0xbdf806c6	-0.12110667
9	0x3f18844c	0.5957687
10	0xbe48f5ec	-0.19625062
11	0x3f84492b	1.0334829
12	0xbe30491d	-0.1721539
13	0xbf7dcecb	-0.99143666
14	0x3f631c4c	0.8871505
15	0xbf7ee074	-0.9956124

encoder.conv1.k.weight f4 [16, 64]
0	0xbf33b6e5	-0.7020095
1	0xc03c8a8c	-2.9459562
2	0xc0909564	-4.518236
3	0x3f314e3a	0.6925999
4	0x3f3cd0b1	0.7375594
5	0xbf11b855	-0.56921893
6	0xbe0a05dd	-0.13478799
7	0x3f5f7c4f	0.87299055
8	0x3f12e1c3	0.57375735
9	0x3f05d2eb	0.5227496
10	0xbfab1d0a	-1.3368237
11	0x3f551eae	0.8324994
12	0xbf889ec8	-1.0673456
13	0x403db1e2	2.963982
14	0x3dd63aa4	0.104604036
15	0xc07f9b58	-3.9938564
16	0xbf9ee181	-1.2412568
17	0x3f3449b7	0.7042498
18	0xbf79e4d3	-0.97614783
19	0xbf86a782	-1.0519869
20	0xbdc7cbed	-0.09755693
21	0x3f1cfa02	0.6131898
22	0xbd918b68	-0.07106668
23	0x3ef7a9c8	0.4837172
24	0x3d9f5d43	0.0778146
25	0x3ed6ffd3	0.41992053
26	0x3e8b92ae	0.27260345
27	0xbd8b1ae4	-0.06792238
28	0x3d87d3a9	0.06632168
29	0xbda9e7fb	-0.082962
30	0xbe8ccacd	-0.27498475
31	0x3ed72f73	0.42028388
32	0xbf2431f7	-0.6413874
33	0xbf88f4e0	-1.069973
34	0xc1267dee	-10.405745
35	0x3e9c61c8	0.3054335
36	0x3eb34ceb	0.3501962
37	0xbe9e1497	-0.30875084
38	0x3f31a181	0.6938706
39	0x3f9ef2d3	1.2417854
40	0xbd9cd3e9	-0.07657606
41	0x3e220960	0.15823889
42	0xbfee0c4b	-1.8597502
43	0x3f042c20	0.5162983
44	0xbfd2907c	-1.6450343
45	0x400f3ae0	2.2379684
46	0xbdaf8506	-0.08570294
47	0xbffe906d	-1.9887825
48	0xbfcf4de1	-1.6195642
49	0xbe93e12e	-0.28882736
50	0xbe932f74	-0.2874714
51	0xbefda86b	-0.49542555
52	0xbe2a57ab	-0.16635005
53	0xbf2eb3c3	-0.68243045
54	0x3e5dac09	0.21647657
55	0xbf7c9b9d	-0.9867495
56	0xbe2ac18e	-0.16675398
57	0xbe8168d6	-0.25275296
58	0x3f641e4c	0.8910873
59	0xbe2b4b5f	-0.1672797
60	0x3f512fe8	0.81713724
61	0x3ee34e40	0.44395638
62	0x3e2e67af	0.1703174
63	0xbff5b875	-1.9196917
64	0xbffda379	-1.9815513
65	0x405e1d67	3.4705446
66	0x40176586	2.3655715
67	0xc0735902	-3.8023076
68	0xbf14fc15	-0.58197147
69	0xbea30635	-0.31840673
70	0xbf99f1cb	-1.2026914
71	0xbed02e72	-0.40660435
72	0x3c93cbe3	0.018041557
73	0xbe3f170c	-0.18661135
74	0x407284fb	3.7893665
75	0xbf83159a	-1.0240967
76	0xbfe9a0e1	-1.8252221
77	0xbf8b8f29	-1.0903064
78	0x40250649	2.5785086
79	0xbf1b8561	-0.60750395
80	0xbf941354	-1.1568398
81	0x4037b1d7	2.8702295
82	0xc0247c93	-2.5701034
83	0x3f6995ba	0.9124409
84	0x3fbaca5e	1.4593008
85	0x3fe16d6a	1.7611516
86	0xbf238c25	-0.6388572
87	0xc02f3556	-2.7376304
88	0x3fd10f38	1.6332769
89	0x407e0040	3.9687653
90	0x3f962ade	1.1731832
91	0x3f85cdeb	1.0453466
92	0x3fa63563	1.2985042
93	0xc09d5847	-4.917026
94	0xbf26b521	-0.6512013
95	0x3f6e3673	0.9305183
96	0xc05cafd7	-3.4482324
97	0x40a65f50	5.199135
98	0x408ce4de	4.402938
99	0xc0e51f5a	-7.160077
100	0x3e96c780	0.2944908
101	0xbf8515dd	-1.0397297
102	0xbf543954	-0.82899976
103	0x3f425ed5	0.7592595
104	0x4007c604	2.121461
105	0x3f20110f	0.6252603
106	0x402d99f9	2.7125227
107	0xbf890aa3	-1.0706371
108	0xc05167a0	-3.2719498
109	0xbc8719bc	-0.016491763
110	0x4026af27	2.6044405
111	0xc0a90735	-5.28213
112	0xbf0085d0	-0.5020418
113	0x400aa278	2.1661663
114	0x3fd32049	1.6494228
115	0x3f23a309	0.63920647
116	0xbfb66035	-1.424811
117	0x408c989e	4.39363
118	0xbe5e4eb7	-0.21709715
119	0xbf3e3e4f	-0.74313825
120	0x400acc5a	2.1687226
121	0x400c05fc	2.1878653
122	0xbf88ba62	-1.068188
123	0x3f68806a	0.90820944
124	0x40113e0d	2.2694123
125	0xc0378eae	-2.8680835
126	0xbf6c22f6	-0.92240846
127	0x3ffbe3c5	1.9678885
128	0x3f889306	1.0669868
129	0xc046ed7f	-3.1082456
130	0xc042a2d8	-3.0411892
131	0x4031e190	2.7793922
132	0x3f489fa4	0.7836859
133	0x3f41e71e	0.7574328
134	0x3f5d00bf	0.86329263
135	0x3f94056a	1.1564152
136	0xbf4259cf	-0.7591829
137	0xbf1ef680	-0.6209488
138	0xbf7a51e4	-0.97781205
139	0x3ed87af7	0.42281315
140	0x3f0eb591	0.557458
141	0x402ee854	2.7329302
142	0x3f7a403f	0.9775428
143	0x401d55e4	2.4583673
144	0x40187181	2.3819277
145	0xbfeb106d	-1.8364388
146	0x3eca98bc	0.39569652
147	0x3f2c7e75	0.6738046
148	0x3ee58dae	0.44834656
149	0x3f63d88b	0.89002293
150	0xbe2c941f	-0.16853379
151	0x401cf78e	2.4526095
152	0xbf2aa10f	-0.66652006
153	0xbfd2a49d	-1.6456486
154	0x3d87a400	0.066230774
155	0x3d411b05	0.04714491
156	0x3ddd2eb1	0.10799921
157	0xbf8a0121	-1.0781595
158	0x3fa13632	1.2594664
159	0xc03864a7	-2.8811433
160	0xbf827d2f	-1.0194453
161	0xbf507a94	-0.8143704
162	0xbf1cc338	-0.6123538
163	0x3e992285	0.2990915
164	0xbf11f925	-0.5702079
165	0x406d4250	3.7071724
166	0x3e76112d	0.2402999
167	0x3fa984d2	1.3243659
168	0xbe468095	-0.19384988
169	0xbe84b3ad	-0.25918332
170	0xbf9e02b5	-1.2344576
171	0x3d7be5d6	0.061498486
172	0x4057019f	3.359474
173	0x402ba0b5	2.6816838
174	0x40358989	2.8365195
175	0xbfb6b783	-1.4274753
176	0x401893b9	2.3840163
177	0xbfb0f91c	-1.3826022
178	0x3fac3888	1.3454752
179	0xbe8b55b6	-0.2721383
180	0xbf1a38c0	-0.60242844
181	0xbf281a99	-0.65665585
182	0x3ebf235b	0.37331662
183	0x3f861884	1.0476232
184	0x3f5e0559	0.8672691
185	0xbf847403	-1.0347904
186	0x3fb29901	1.3952943
187	0x3ef63a47	0.48091337
188	0xbdb5bc3b	-0.08873793
189	0x3f33d471	0.70246035
190	0x3fe518a7	1.7898148
191	0xbf8cafb6	-1.0991123
192	0xbee29044	-0.4425069
193	0xc0c24765	-6.071215
194	0xbfa9633d	-1.323341
195	0x3ed006ac	0.4063009
196	0x3eb0bb4d	0.345179
197	0xbef8cca9	-0.48593643
198	0x3f2b1bf8	0.6683955
199	0x40071ee7	2.1112611
200	0x3f4968e6	0.7867569
201	0x3f880ade	1.0628316
202	0x3e47fd4f	0.19530223
203	0x3e6f4861	0.23367454
204	0x3f557fb0	0.8339796
205	0x4023031f	2.5470655
206	0xbfc0f771	-1.5075513
207	0xbfbeb6d1	-1.4899541
208	0xbf17e8df	-0.5933971
209	0x3ee51350	0.44741297
210	0xbfc8fea2	-1.5702708
211	0x3c31c1c2	0.010849418
212	0xbf5ebd3b	-0.8700749
213	0x3e16b43c	0.14717191
214	0xbec18936	-0.37799996
215	0xbd4fde58	-0.050749153
216	0x3d8b3744	0.067976505
217	0x3fa29eef	1.2704753
218	0xbf664e91	-0.8996363
219	0xbef30319	-0.474633
220	0x3f17c9d1	0.5929232
221	0xbda8b6eb	-0.08238014
222	0xbed52685	-0.4163095
223	0xbf676d66	-0.90401304
224	0x3f37f73f	0.7186164
225	0xc0d56006	-6.6679716
226	0xbfaa123d	-1.3286816
227	0x40091a7c	2.1422415
228	0x3f2d9be9	0.67816025
229	0xbed96450	-0.42459345
230	0x3e937f90	0.2880826
231	0x4051b399	3.2765868
232	0xbf908cdb	-1.1292986
233	0x3fa106d9	1.2580215
234	0x3e8590b1	0.26086953
235	0x3e2b3ba6	0.16721973
236	0x4005683d	2.0844872
237	0x40686d02	3.6316533
238	0xc011c172	-2.277432
239	0xbf4525e6	-0.77010953
240	0xbead0a3a	-0.33796865
241	0x3c25e551	0.010125474
242	0x3f700707	0.9376072
243	0x3e72ff2f	0.23730157
244	0xbfcb1b9d	-1.5867802
245	0xbf03bb69	-0.5145784
246	0xbe3c62e8	-0.18397105
247	0xbde2f9b8	-0.11082786
248	0xbf2beb92	-0.67156327
249	0x3e8c92c8	0.27455735
250	0xbf125069	-0.57153946
251	0xbeef6c1b	-0.46762165
252	0x3da2248b	0.07917126
253	0xbbc89fa5	-0.0061225467
254	0xbe944a8b	-0.28963122
255	0xbf302f0a	-0.68821776

encoder.conv1.k.bias f4 [16]
0	0xbf51d297	-0.8196196
1	0xc07a95cb	-3.9153926
2	0x3fd75199	1.6821777
3	0x3f078502	0.5293733
4	0xbdf61656	-0.12015979
5	0x3e35d819	0.17758216
6	0x3f51a498	0.81891775
7	0x3ffacbe6	1.9593475
8	0xbe8bf905	-0.27338424
9	0xbf349521	-0.7054005
10	0x3f3bc1ce	0.733426
11	0xbfef2487	-1.8683022
12	0xbff701d8	-1.9297438
13	0x3fa29a08	1.2703257
14	0x3f74d289	0.9563375
15	0xbccf3228	-0.025292471

encoder.conv1.v.weight f4 [16, 64]
0	0x3e41973f	0.18905352
1	0x3e22addd	0.15886636
2	0x3f6706cb	0.9024474
3	0x3f22b987	0.6356434
4	0x3f048204	0.5176089
5	0xbdada8c7	-0.08479457
6	0x3d35f3e3	0.04442204
7	0xbf225a0b	-0.63418645
8	0xbeb942db	-0.3618382
9	0xbe18e260	-0.14930105
10	0xbfec421f	-1.8457679
11	0x3f0b08ab	0.543101
12	0x3f3b9054	0.732671
13	0xbf638b10	-0.8888407
14	0x3eceeac2	0.4041348
15	0x3e8778db	0.26459393
16	0x3d9dff69	0.07714731
17	0xbfcd685d	-1.6047474
18	0x3e830bbb	0.25594887
19	0xbf1dcdca	-0.61642134
20	0x3fd44572	1.6583693
21	0xbff32ec6	-1.8998649
22	0x3ea48019	0.3212898
23	0x3cabce67	0.020972444
24	0xbfa9d61e	-1.3268468
25	0xbfdef66e	-1.7418954
26	0x3eb4f897	0.3534591
27	0xbef674f9	-0.48136118
28	0xbfa3e488	-1.2804117
29	0xbdd50ceb	-0.104028545
30	0x3e444999	0.191687
31	0xbf0ce707	-0.5504002
32	0x3e813a81	0.25239947
33	0x3f1003a8	0.5625558
34	0x3f8afcf5	1.0858446
35	0x3ede4537	0.43412182
36	0x3f87cf5a	1.0610154
37	0x3f403ac3	0.75089663
38	0x3c8810b8	0.016609535
39	0x3f636b76	0.8883585
40	0xbf26b3c7	-0.6511807
41	0x3d153930	0.03643149
42	0xbfba8936	-1.4573123
43	0x3fa17307	1.2613229
44	0x3e1f90f3	0.15582637
45	0x3e47d954	0.19516498
46	0x3f4f7102	0.8103181
47	0x3e92a60e	0.28642315
48	0x3b3726d0	0.0027946718
49	0xbf949ab4	-1.1609712
50	0x3d72a659	0.059240673
51	0xbea4d8b5	-0.32196584
52	0x3faa7706	1.3317573
53	0xc056706d	-3.350612
54	0xbcc57b66	-0.024106693
55	0xbe27482c	-0.16336125
56	0xbf5b7edf	-0.85740465
57	0xbff8c345	-1.9434592
58	0x3e79c50b	0.24391572
59	0xbdde5c4b	-0.10857447
60	0xbf4334b3	-0.7625229
61	0xbefbbc68	-0.4916718
62	0x3e53f315	0.20698197
63	0xbf5c05e2	-0.85946476
64	0xbe86b903	-0.26313028
65	0xc0d00056	-6.500041
66	0xbfa94aac	-1.3225913
67	0xc02552ff	-2.5831907
68	0xbff694fa	-1.9264214
69	0xc0817720	-4.0457916
70	0x3f75aa60	0.95963097
71	0xbfc5ee85	-1.5463415
72	0x3f12f153	0.5739948
73	0xbfd2c80f	-1.6467303
74	0x3faa20a9	1.3291217
75	0xbf8f6ad7	-1.120448
76	0xc08164b8	-4.043545
77	0xbf17d4fd	-0.5930937
78	0x3ef4b88d	0.4779705
79	0xc08406f5	-4.1258492
80	0xc0152435	-2.330335
81	0xbeee86f0	-0.46587324
82	0xc029f49d	-2.655555
83	0x3e9845df	0.29740807
84	0xc057928e	-3.36832
85	0xc00ce9c4	-2.201768
86	0xbed9537d	-0.4244651
87	0xc0113734	-2.2689943
88	0xbed72b94	-0.42025435
89	0x3f52884a	0.8223921
90	0xc03a9c48	-2.9157887
91	0xbf24e073	-0.6440498
92	0x3f42b1fa	0.7605282
93	0xbf9c3e52	-1.2206519
94	0xbf4995ac	-0.78744006
95	0xc0490ad9	-3.141287
96	0x3ee7b552	0.45255524
97	0xbf314a25	-0.6925376
98	0xc03c4417	-2.9416559
99	0xc0942900	-4.630005
100	0xbf6a5ca7	-0.91547626
101	0xc046a524	-3.1038294
102	0x3ff6f1d3	1.9292549
103	0xc02580e2	-2.5859914
104	0x40127338	2.2882824
105	0xbf747172	-0.95485604
106	0x3e9ace11	0.3023534
107	0xbddb2c1c	-0.107017726
108	0xbfc2d62d	-1.5221611
109	0xc027c69c	-2.6214972
110	0x3faa4c7c	1.3304591
111	0xc0141940	-2.3140411
112	0xbf575232	-0.84109795
113	0xbfde02a3	-1.7344555
114	0xc018c819	-2.387213
115	0x3e19bf0c	0.15014285
116	0xc013c67b	-2.3089893
117	0xc00ffd36	-2.2498298
118	0xbe68dee8	-0.22741282
119	0xbf9e75ca	-1.2379696
120	0xbe1b21d3	-0.15149622
121	0xbf68b6c8	-0.909039
122	0xbf8cac85	-1.0990149
123	0xbddee42d	-0.10883365
124	0x3f2fe2ad	0.68705255
125	0x3e6c2b2c	0.23063344
126	0x3e53639f	0.20643471
127	0xc01bcc43	-2.4343421
128	0x3e904b1d	0.28182307
129	0xbee3d6d4	-0.44499838
130	0xbff522f6	-1.9151294
131	0x3ff57a67	1.9177979
132	0x4042410a	3.0352197
133	0x3ef66a1e	0.48127836
134	0x400890e5	2.1338437
135	0xc0808f69	-4.017506
136	0x3e80ddc7	0.25169203
137	0xc0cadf9a	-6.339795
138	0xc019784b	-2.397967
139	0x3ff05640	1.8776321
140	0xbee1bcbe	-0.4408931
141	0xbabd0ae7	-0.0014422805
142	0x4032ebbc	2.795638
143	0x405d8527	3.461252
144	0x4035a09c	2.8379278
145	0x3bddf257	0.006773274
146	0x406623ae	3.5959277
147	0x3f635bfc	0.8881223
148	0x3f264057	0.64941925
149	0x3fa57979	1.2927696
150	0x3fc26f61	1.519024
151	0x400d00c4	2.2031717
152	0x3db65213	0.08902373
153	0xc07b7642	-3.929093
154	0x3fa0613d	1.2529675
155	0xbe2af4f1	-0.16695
156	0x3f899e26	1.0751388
157	0xbf75385b	-0.95789117
158	0x4069884c	3.648944
159	0xc058c0ef	-3.3867757
160	0x3be16330	0.006878279
161	0x3fd8584f	1.690195
162	0x3fab6bdb	1.339229
163	0xbf1d761b	-0.6150834
164	0x3fcfe6ea	1.6242344
165	0x3f792b17	0.97331375
166	0x3f886242	1.0654986
167	0xbf2be19e	-0.6714114
168	0xbf85ddad	-1.0458275
169	0xc00dc0aa	-2.2148843
170	0xbf2c81e4	-0.673857
171	0x3f962d05	1.1732489
172	0xbf6e25a3	-0.9302618
173	0xbe1714b9	-0.14753999
174	0x407757cf	3.8647344
175	0xbf2b4012	-0.6689464
176	0x3ff2ac60	1.8958855
177	0x40119700	2.2748413
178	0x402f9071	2.743191
179	0x3fa6905e	1.3012807
180	0x405cf07b	3.4521778
181	0x40645141	3.5674593
182	0x3eb3b6e4	0.35100472
183	0x3f5384b0	0.8262434
184	0x3f935540	1.1510391
185	0xbdf27cd5	-0.11840216
186	0x3f003875	0.50086147
187	0x3ed7df5a	0.4216259
188	0x3e96c9c0	0.29450798
189	0xc0374dae	-2.8641162
190	0x403498b0	2.8218193
191	0x3f2c1954	0.6722615
192	0x4004b9b8	2.0738354
193	0x3ea743a8	0.32668805
194	0xc103c632	-8.235888
195	0x3f9e8305	1.2383734
196	0x3f379b3a	0.7172123
197	0x40036ba2	2.0534444
198	0x3de3735c	0.111059874
199	0x3fcdb41e	1.6070592
200	0xbb7c0190	-0.003845308
201	0x3dcd7ee4	0.10033968
202	0xc0807067	-4.013721
203	0x400df382	2.2179875
204	0xbc9234ec	-0.0178475
205	0xbe2990a7	-0.16559087
206	0xbea62ed4	-0.32457602
207	0x3fb33356	1.4000041
208	0x3fc1a8b7	1.5129613
209	0xbfb0be9c	-1.3808169
210	0x4056df51	3.3573802
211	0x3f3b8d6a	0.73262656
212	0x3f8ac444	1.0841146
213	0xbdc23561	-0.094828375
214	0xbef50256	-0.47853345
215	0x3f270ad3	0.6525089
216	0xbf92f0ec	-1.1479774
217	0xc02787f4	-2.617673
218	0x3f86f223	1.0542644
219	0xbe868d70	-0.26279783
220	0xbf9f16a4	-1.2428784
221	0x400c0b08	2.1881733
222	0x3f6c1827	0.92224354
223	0x3eb43e24	0.3520366
224	0x3fe94505	1.8224188
225	0x3db0375c	0.08604309
226	0x40a5e0fa	5.183713
227	0x3fd655a1	1.6744882
228	0x3f22d4a9	0.63605744
229	0x3f6cccd9	0.9250007
230	0xbeb39d58	-0.3508098
231	0x3f5db1af	0.8659925
232	0x3db89144	0.09012082
233	0xbeec8a41	-0.4619923
234	0xc0420f54	-3.0321856
235	0x3ff6a62b	1.926946
236	0xbf436428	-0.763247
237	0x3f41a9d3	0.75649756
238	0xbf42f6d2	-0.7615787
239	0xbeed03c1	-0.46291927
240	0x3f4d3120	0.80153084
241	0xbf34dd2a	-0.7064997
242	0x402cc8e9	2.6997626
243	0x3ea6e026	0.32592887
244	0x3f9b14f4	1.2115769
245	0x3f3f155a	0.74641955
246	0xbf8b3015	-1.0874048
247	0xbe16dd0a	-0.14732757
248	0xbf15cd35	-0.58516246
249	0xbf58dcc4	-0.8471186
250	0x3f9d7005	1.2299811
251	0x3dc1a552	0.094553605
252	0xbf398b1c	-0.7247789
253	0x3eda5a2e	0.42646927
254	0x3efaed03	0.4900895
255	0x3f7e7be4	0.9940779

encoder.conv1.v.bias f4 [16]
0	0x3f967984	1.1755834
1	0x404304fe	3.0471797
2	0x403caac1	2.947922
3	0x3f6bd8ce	0.9212769
4	0x3f6b84f5	0.9199975
5	0x3fc454db	1.5338396
6	0x40174ee7	2.3641908
7	0x3fa08185	1.2539526
8	0xbe4aef39	-0.19817819
9	0x3eef07eb	0.46685728
10	0x3f3d4551	0.73933893
11	0x3fa8bdb8	1.3182898
12	0x3f8d6930	1.1047726
13	0xc0a4a5bc	-5.1452312
14	0x3fd8d88e	1.6941087
15	0xbe8108e8	-0.25202107

encoder.conv2.q.weight f4 [32, 32]
0	0x3fc4ce65	1.5375487
1	0xc006126f	-2.094875
2	0x3fa5d0b0	1.2954311
3	0xbf1154f0	-0.5677023
4	0xc0b3c17a	-5.6173677
5	0x3f2eaa1b	0.6822831
6	0xbf169d4a	-0.58833754
7	0xbfc765bd	-1.5577923
8	0xc02c7538	-2.6946545
9	0xc00ccb0d	-2.1998932
10	0x403112a1	2.766762
11	0xbf249aad	-0.64298517
12	0xc0001c4c	-2.001727
13	0x411a5a3e	9.647032
14	0xbfdc4e3d	-1.7211376
15	0xbcaaafcc	-0.02083578
16	0x3f631e36	0.88717973
17	0xc0247c39	-2.570082
18	0x40b1fe85	5.5623193
19	0x3f82f6ae	1.0231531
20	0xbfb9787d	-1.4489895
21	0x3f8632e5	1.0484282
22	0x403290f0	2.7900963
23	0xbfa0c528	-1.2560167
24	0xbfc3c55c	-1.5294604
25	0xc01cb5ff	-2.4486082
26	0xbf837d35	-1.0272585
27	0xc100e659	-8.056237
28	0xbe587df6	-0.211418
29	0xbde7cb07	-0.11318021
30	0x40933622	4.600358
31	0x40263dca	2.5975213
32	0xbf6ce2d1	-0.92533594
33	0xbfcf25e6	-1.6183441
34	0xbf8d468e	-1.1037157
35	0xc029c23d	-2.6524804
36	0x3fb72a2f	1.4309748
37	0xbe862038	-0.26196456
38	0x4039f6e6	2.9056945
39	0xbf031a63	-0.5121214
40	0x401d3f93	2.4570053
41	0xbf8c403d	-1.0957104
42	0xbf1aad55	-0.60420734
43	0x3f9ab1c0	1.2085495
44	0x3e1da34c	0.15394324
45	0x40011232	2.0167356
46	0x3dc26c2f	0.09493291
47	0x3dcfaaf6	0.1014003
48	0xbef9ef50	-0.48815393
49	0xc03c3164	-2.9405146
50	0x3ea482ff	0.32131192
51	0x3fc975dc	1.5739093
52	0x400541eb	2.0821483
53	0xbde7fea3	-0.11327865
54	0x40909745	4.5184655
55	0xbfa8c00c	-1.3183608
56	0x3fd0a32e	1.6299798
57	0xc00112fe	-2.0167842
58	0xc04b2e82	-3.1747136
59	0xbfd8ceed	-1.6938149
60	0x3f2c2967	0.67250675
61	0x4014e175	2.3262608
62	0x3fbca9d0	1.4739323
63	0x3f43b5b4	0.7644913
64	0x3fbc1a7d	1.4695584
65	0xbf98fede	-1.1952779
66	0x3fd8f74f	1.6950473
67	0xbe1e625b	-0.15467207
68	0xc0201440	-2.501236
69	0x3fc4835a	1.5352585
70	0x402003ad	2.5002244
71	0x3f9ec326	1.2403305
72	0x401cf5fb	2.4525135
73	0xbfdc2da7	-1.7201432
74	0x4010c093	2.2617538
75	0x3fa201d2	1.2656806
76	0xbf90c0d9	-1.1308852
77	0x40560459	3.3440154
78	0xc058da40	-3.388321
79	0x3e84ef26	0.25963706
80	0x40271778	2.6108074
81	0xbf768f2a	-0.963122
82	0x3fea06f5	1.8283373
83	0xbffb0a3e	-1.9612501
84	0xbebc5e5b	-0.36790738
85	0x3ff126b6	1.8839939
86	0xc007ac4f	-2.119892
87	0x3fac7450	1.3472996
88	0x3fb1f936	1.3904178
89	0xbf950ec8	-1.1645136
90	0x4039a0b6	2.900434
91	0x3f6900e7	0.91017
92	0xc01dc3fd	-2.4650872
93	0x3f31b753	0.69420356
94	0xc043b633	-3.0579956
95	0x3ecc1736	0.3986146
96	0x3df76139	0.120790906
97	0xc0878c26	-4.235858
98	0xbfe8e1d0	-1.8193913
99	0x4052ae65	3.2918942
100	0xbfa66cad	-1.3001915
101	0xbf5d0504	-0.8633578
102	0x3fcf8c20	1.6214638
103	0xc0383f4f	-2.878864
104	0x3fcc8065	1.5976683
105	0x3e4e6226	0.20154628
106	0x3f38a934	0.72133183
107	0xbf8d4107	-1.103547
108	0xbffab6c3	-1.9587024
109	0x4083ec3d	4.1225877
110	0xc01ef468	-2.4836674
111	0x3f1ebbd0	0.6200533
112	0xbf87c1ed	-1.0606056
113	0xc054b3c3	-3.3234718
114	0xbf263819	-0.6492935
115	0x40409121	3.008858
116	0x3cc9b331	0.024621578
117	0xbf6541d7	-0.8955359
118	0xbf0e6d00	-0.5563507
119	0x3f09d9bc	0.5384786
120	0x3f91ec3a	1.1400216
121	0x3f632e1f	0.8874225
122	0x3f06abfb	0.5260617
123	0xc053a6c9	-3.3070548
124	0x3edafacd	0.4276947
125	0x3f52913a	0.8225285
126	0xbe69a28c	-0.22815913
127	0x3f43f725	0.7654899
128	0x3fb4b56a	1.4117863
129	0xc00917ef	-2.1420858
130	0x3f9055f1	1.1276227
131	0xbf4faebc	-0.81126
132	0xbfc02d83	-1.5013889
133	0xbf2381b1	-0.6386977
134	0x3f78976b	0.97106045
135	0xbf9b3e3a	-1.2128365
136	0xbe9a078a	-0.30083877
137	0xbe82890b	-0.2549518
138	0xc0a0a796	-5.0204573
139	0x3fc0ab09	1.5052196
140	0xbefec820	-0.49762058
141	0xc1bdd394	-23.72831
142	0xbfa62701	-1.2980653
143	0xbeced0b8	-0.40393615
144	0x405552cf	3.3331792
145	0xbf95dfcc	-1.1708922
146	0x40715df1	3.7713587
147	0xc0687026	-3.631845
148	0xbf815c79	-1.0106345
149	0x3f5311cb	0.82449025
150	0x3fcad0d2	1.5844977
151	0xc002c045	-2.0429852
152	0x3f860194	1.0469232
153	0xbf7b6f30	-0.98216534
154	0xc030e9ad	-2.7642624
155	0x3fdff08b	1.7495283
156	0xbf9e36d8	-1.2360487
157	0x40b31617	5.5964465
158	0xc00b7423	-2.1789634
159	0x3e3180cb	0.17334287
160	0x3ef0246c	0.46902788
161	0xc014f394	-2.3273668
162	0x401c847f	2.445587
163	0xc00b95d0	-2.1810188
164	0xbf77f05a	-0.9685112
165	0x3fb0feec	1.3827796
166	0x4002dab6	2.044599
167	0xbee434c3	-0.44571504
168	0x406c3ace	3.6910892
169	0x3f12df49	0.57371956
170	0xbf32febc	-0.69919944
171	0x3f85db94	1.0457635
172	0xbf90f643	-1.1325153
173	0x41ccafa6	25.585766
174	0xc0124cc9	-2.2859366
175	0x3f60d42c	0.8782375
176	0x3ea1d45f	0.3160734
177	0xbfa985f0	-1.3244
178	0x3e2c48de	0.16824672
179	0xbfc85a00	-1.5652466
180	0x3e531c94	0.2061637
181	0x3f048cd3	0.5177738
182	0x3ebe8dc6	0.3721754
183	0xbe252a83	-0.16129498
184	0x3ed1775b	0.40911373
185	0x3f226864	0.6344054
186	0x3f17fe64	0.59372544
187	0x3e8dad64	0.2767135
188	0xbf5d8382	-0.8652879
189	0xbfaf41a6	-1.3691909
190	0xbebbcbb4	-0.3667885
191	0x3e9f7288	0.31142068
192	0x3f570304	0.83988976
193	0xbf5511af	-0.8323011
194	0xbf1b222b	-0.6059901
195	0x3f5c88cb	0.8614623
196	0x3d9cd10b	0.07657059
197	0xbf7e31b8	-0.99294615
198	0x3f2313d1	0.6370211
199	0xbf25f793	-0.64830893
200	0x3ffc4721	1.9709207
201	0x3ffdc8c9	1.98269
202	0xc00faa7c	-2.2447805
203	0x3fa6cdf7	1.3031605
204	0xbbdfff2d	-0.0068358392
205	0xc098602f	-4.761741
206	0x3f27d6d7	0.65562195
207	0x3e379e8f	0.17931579
208	0x3fb42d01	1.4076234
209	0xbfe0f6ed	-1.7575356
210	0xbfca3608	-1.5797739
211	0xbf31ae69	-0.69406754
212	0x3e24b2a4	0.16083771
213	0xbadcae11	-0.0016836544
214	0x3f6a9582	0.9163438
215	0xbfe7a988	-1.8098612
216	0x4043c1f3	3.0587127
217	0x3f8c7e45	1.0976034
218	0xbfddddf6	-1.7333362
219	0x3fd5e154	1.670939
220	0x3e01741b	0.12641947
221	0x40b29f9c	5.5819836
222	0x3d5667f2	0.052345224
223	0xbdbe4004	-0.09289554
224	0x3f74506c	0.95435214
225	0xbee5cedf	-0.44884393
226	0xbd8bbb55	-0.0682284
227	0x3e0537eb	0.13009612
228	0x3ef2603c	0.47339046
229	0x3fbe68d5	1.4875742
230	0xbdfab566	-0.1224163
231	0xc008d600	-2.1380615
232	0xc04c1b44	-3.1891642
233	0x3f92e6a9	1.1476642
234	0x3f8bc1a3	1.0918468
235	0x3e808f49	0.25109318
236	0xbf60ea4a	-0.87857497
237	0xc05048b1	-3.2544367
238	0xbf726fd5	-0.9470189
239	0x3f059c02	0.52191174
240	0x3fa875fa	1.3161004
241	0x3f08a831	0.5338164
242	0xbf8769c6	-1.0579154
243	0xbf3951f8	-0.723907
244	0x3d9721dc	0.07379505
245	0xbe646cec	-0.22307175
246	0x3f3bffe2	0.7343732
247	0xc012c33b	-2.293166
248	0xbfae5a0e	-1.3621233
249	0x3f855cc9	1.0418941
250	0xbfa0d59b	-1.2565187
251	0x3fb60c6a	1.4222538
252	0xbd258c95	-0.040417273
253	0x3fee2ab3	1.8606781
254	0xbebb0729	-0.365289
255	0x3f8aeb4f	1.085306
