trained_model/model_epoch358.chrom2.pkl (torch, 41775 bytes, 18 tensors)

encoder.conv0.q.weight f4 [32, 28]
000000 7a 2c 96 bd b3 39 49 3e be 61 95 3e 9b e8 b8 3d
       -0.07332702 0.19650917 0.29176134 0.09028741
000010 0b b0 8c 3d 4e ac d1 bd d0 fe b0 bd 22 86 4d 3e
       0.06869515 -0.10237943 -0.086423516 0.20070699
000020 a5 c6 12 3d ba b6 e3 3d fe 0e 76 3f bb ff dd 3e
       0.035833973 0.11118837 0.96116626 0.4335917
000030 86 22 18 3f 7b f7 c0 3e a7 14 6a c2 1a 23 6d c2
       0.5942768 0.37688813 -58.52017 -59.28428
000040 de 5e 90 3f 77 a9 ab 3c 76 3c f2 3b 90 67 c0 3d
       1.1278951 0.02095483 0.0073924614 0.09394753
000050 7a cf 1c bf c1 6f c8 3d 13 de cf 3c 18 4b 05 3e
       -0.61254084 0.0978694 0.025374448 0.13016927
000060 7c 7c ac bf 15 96 1c 3f 89 98 89 3f a6 91 04 be
       -1.347549 0.61166507 1.0749675 -0.12946185
000070 47 f1 d8 3d dd 4a 28 bd 7d 34 97 bf d4 61 c1 3e
       0.10592895 -0.04108702 -1.1812893 0.3776995
000080 62 c3 80 bc 92 64 01 be 80 d4 ab bf 01 71 e6 bd
       -0.015718166 -0.12636021 -1.3424225 -0.112520225
000090 e5 a3 a8 bd da 55 d6 3e 55 25 02 bf f2 2e 4e bf
       -0.082343854 0.41862375 -0.50838214 -0.8054038
0000a0 3b 71 13 bf 7a 4a 27 bf 8a ca 7f c2 ce 73 88 c2
       -0.5759465 -0.6534802 -63.947792 -68.22618
0000b0 3f 17 fd bf 62 59 43 3e 01 58 8f bc 45 17 07 bf
       -1.9772719 0.19077066 -0.017498018 -0.5276988
0000c0 a2 30 19 be 25 b0 ac bc 48 58 22 3c c1 b1 f9 3d
       -0.14959958 -0.021080086 0.009908743 0.12192107
0000d0 96 0e f5 be ae ec 2e be 85 60 6d be 86 b8 8c bf
       -0.4786269 -0.17082474 -0.2318135 -1.0993812
0000e0 ff fd 6a bc e8 a6 8c bd ec 7f cc 3e 02 4e 02 be
       -0.014342784 -0.06867772 0.39941347 -0.1272507
0000f0 b6 eb 17 bf 89 bb f1 be e5 51 2c 3e 43 f1 f6 3e
       -0.5934404 -0.4721339 0.16828115 0.48230943
000100 3c 3e bf 3d db fa db bd a8 e8 39 3f ea 34 6f 3f
       0.09338042 -0.10741206 0.7262063 0.93440115
000110 72 9b ed 3e 96 1d 8b 3f 01 0b 1c c0 a4 2f 2a c0
       0.46407658 1.0868404 -2.4381716 -2.6591578
000120 dc 6d 1b c0 40 e4 80 be e2 4f 3a 3c 3d c4 a2 be
       -2.4285803 -0.2517414 0.011371585 -0.31790343
000130 b8 c8 57 40 6a c7 2a 3e 4e 13 01 bf 94 2b 4a bf
       3.371626 0.16677633 -0.5042008 -0.78972745
000140 37 74 33 be b9 44 1b 40 78 2a d7 3e e9 da c6 3f
       -0.17524801 2.4260695 0.4202459 1.5535556
000150 99 e6 2b bf 82 5b 7f bf 79 08 27 bf 89 83 04 bf
       -0.6714874 -0.99749005 -0.65247303 -0.51763207
000160 98 14 81 3e 10 18 04 bf d0 01 5a bf e5 58 64 be
       0.25211024 -0.51599216 -0.85159016 -0.22299536
000170 c6 1d 87 bc 24 2a 3b bf e1 aa a5 3f 28 ac a4 bf
       -0.01649369 -0.73111176 1.2942773 -1.2865038
000180 aa 25 97 3e 18 2d 77 be 95 5d ba bf 7a 99 6f 40
       0.29520923 -0.24138296 -1.4559809 3.7437425
000190 f9 a3 2b bf c9 00 4e bf 0d 47 a5 3d 65 1d d1 bc
       -0.6704708 -0.8046995 0.080701925 -0.025526712
0001a0 ed cd 23 40 ce 6a 1d bf 87 20 6e 3f 77 fb 9b bf
       2.5594437 -0.61491096 0.9301838 -1.2186116
0001b0 49 09 84 c0 e1 04 44 3f 05 ef 0a 3f 93 06 90 3e
       -4.1261334 0.76569945 0.54270965 0.28130016
0001c0 e2 d2 21 bb 3d 7c ed bd 6b f8 62 3e fd ae 21 3e
       -0.0024692346 -0.11595962 0.22165076 0.15789409
0001d0 ab 4c 81 bc dd 23 27 be 9c 55 3b 3d fd e9 d0 be
       -0.015783628 -0.16322275 0.04573594 -0.4080352
0001e0 3d fb 32 bd b7 91 d7 be f8 4c 6b bc 34 98 6d 3e
       -0.04369663 -0.4210336 -0.0143616125 0.23202592
0001f0 af 4b 8c 3b 4e 59 7e 3e a9 1a f3 40 ab 3c e6 40
       0.004281483 0.24838755 7.5970044 7.1949058
000200 52 90 61 3f b8 25 a5 3d f5 b7 7a 3d 2e e7 5e bd
       0.8811084 0.08063835 0.06121059 -0.05441969
000210 35 dd 95 bf b2 2d 8e be 9c 5f 81 3b 81 7a 36 be
       -1.1708132 -0.27769238 0.003948165 -0.17820169
000220 49 84 5a 40 60 8e 03 be a6 33 fc bf df 3f 58 3e
       3.414324 -0.1284728 -1.9703262 0.21118115
000230 b8 d5 3a be 6f 8f 4d 3e 7e 56 b8 be 5f 51 c1 3c
       -0.1824559 0.20074247 -0.36003488 0.023598371
000240 21 2d 5b bc 9a 70 dd bc cf 2f 37 bf 63 d6 3b bb
       -0.013377459 -0.027031232 -0.71557325 -0.002866172
000250 bc 68 20 3b 7e 8f aa 3c 4e f5 37 3e 2a e2 b3 3d
       0.002447649 0.020820376 0.1796467 0.08783372
000260 bd 65 96 be b2 58 cd be 12 37 c6 c2 2b ec b9 c2
       -0.29374495 -0.40106732 -99.10756 -92.961266
000270 fe cd ac 3d f6 73 b6 bc 04 cb f5 3a ca b2 2b bd
       0.084377274 -0.022272091 0.001875252 -0.041918553
000280 54 6b 05 bf 42 1b 84 3c f4 f7 a0 ba 9d 5d 1d bd
       -0.52116895 0.016126279 -0.0012280927 -0.038419355
000290 f0 ff 9d 3d 25 2d 3b bd a3 a7 c7 bb 82 e0 b8 bd
       0.07714832 -0.04569735 -0.006092982 -0.090271965
0002a0 b5 f8 41 3e b2 32 2f 3e bf 00 33 3d 43 ad 41 3e
       0.1894253 0.17109182 0.043701883 0.1891375
0002b0 57 be 4d 3c ce 2c 8c be e2 ca 00 bf e1 c8 8a be
       0.012557588 -0.27377933 -0.50309575 -0.27106383
0002c0 a7 0a 7c 3d 99 61 6b 3c 02 06 c6 bb 5f 7a 78 be
       0.061533596 0.014366531 -0.0060431967 -0.24265431
0002d0 eb d7 37 3d ab b5 5d bf e1 38 13 41 5a 0d 36 41
       0.04488365 -0.8660533 9.201386 11.37826
0002e0 17 02 20 c0 ca f5 ae be 8d 88 23 3b 17 80 b4 be
       -2.5001276 -0.34171897 0.0024953217 -0.35253975
0002f0 47 33 15 3f d6 16 5f be 21 e4 c5 3c 08 73 ef bd
       0.5828137 -0.21786055 0.024156632 -0.11691862
000300 db 4c 1f bf b5 89 15 bf 67 fb 73 bf 32 df dc bf
       -0.6222665 -0.5841325 -0.95305485 -1.7255614
000310 4b 4a 00 bf 68 a3 06 bf 75 1f b8 3f e8 bd 1c bf
       -0.5011336 -0.5259309 1.43846 -0.61227274
000320 42 9a eb 3d 8a 37 05 3e 37 4f ed 3f 51 b1 53 be
       0.11504032 0.13009468 1.85398 -0.2067311
000330 c3 f7 fe 3d 24 21 1b bf e3 71 4f 3f e0 ac b9 3f
       0.124496005 -0.60597444 0.8103315 1.4505882
000340 76 e1 b4 3f 9e 74 b3 3f 60 27 6f 42 0c a5 57 42
       1.4131305 1.4019964 59.788452 53.91118
000350 f0 5e 9c 3e 78 85 3e be 73 02 a4 3d 8a 6c c4 3e
       0.30541182 -0.18605602 0.0800828 0.3836406
000360 e2 a2 0b 40 23 e8 d9 3d df 0f ae 3d d4 56 ff be
       2.1818166 0.1063998 0.08499121 -0.49870932
000370 cb 7c 08 c0 d2 f2 04 40 f8 47 e9 3e 37 dd 91 3f
       -2.1326168 2.0773206 0.4556272 1.1395634
000380 4a 47 80 3e 5d 96 67 bd 41 f5 80 bf 8e 24 80 3f
       0.2505439 -0.056539882 -1.0074846 1.0011156
000390 35 a1 47 bd 91 e1 10 3f 6e fd 14 bf d3 4b 8a bf
       -0.048737723 0.5659419 -0.58199203 -1.080439
0003a0 e8 dc f7 3d b6 4a 5a 3f 58 85 79 be c3 95 2c bf
       0.121026814 0.8527025 -0.24367273 -0.6741602
0003b0 60 bb ba be f1 09 07 c0 09 e3 6b c1 2f 09 59 c1
       -0.3647108 -2.1099818 -14.7429285 -13.564742
0003c0 8f e8 9d 40 00 da 96 3f 0b 17 5b bd 30 f8 d0 3e
       4.9346385 1.1785278 -0.053488772 0.40814352
0003d0 5c 83 d1 bf 59 86 1e bf 63 9d 76 bf 9b 02 21 3f
       -1.6368213 -0.6192375 -0.96333903 0.628946
0003e0 bd f2 54 40 a5 93 2d c0 53 3f 35 40 5f 65 6b bf
       3.3273156 -2.7121365 2.83199 -0.91951555
0003f0 53 7c 8b bf 10 12 a3 bf 79 9a 8b 3e cd 3e 20 40
       -1.0897316 -1.2739887 0.2726629 2.503833

encoder.conv0.q.bias f4 [32]
000000 04 ad 12 3f c1 5b 14 bf 54 6d a4 3e 4c 41 c8 bf
       0.5729525 -0.57952505 0.3211466 -1.5644927
000010 d7 15 d9 be db b1 aa 3f 85 8e 2e 3f c0 9b 00 be
       -0.42399475 1.3335527 0.6818622 -0.12559414
000020 ce 8e 45 bf 6d 26 67 3f 95 1c 57 3d a9 b8 c7 be
       -0.7717103 0.9029301 0.052517492 -0.39008072
000030 82 86 00 3d 41 1c b1 3f f8 e7 c6 bf f9 8b 1c 3f
       0.031378277 1.3836747 -1.5539541 0.6115108
000040 6c d1 3e bf fc ff e6 3f 7c c7 87 bf 42 f0 e8 3e
       -0.745383 1.804687 -1.0607753 0.45495802
000050 fa 0d 81 3f f7 e8 1e 3e e7 30 31 3f 5d 94 76 bd
       1.008239 0.15518557 0.69215244 -0.060200084
000060 92 0e b0 3e ab e4 b9 bf cf de 14 bf a9 34 13 bf
       0.34386116 -1.4522909 -0.5815248 -0.5750223
000070 46 65 ba 3e ce b6 f5 3f 2a 01 0a 40 b7 01 5f 3f
       0.3640539 1.9196413 2.156321 0.8711199

encoder.conv0.k.weight f4 [32, 28]
000000 b5 b3 8a 3d ff 3b 56 be 38 57 67 3e b4 a0 2a bc
       0.06772558 -0.20921324 0.22591865 -0.010414291
000010 19 0e d3 bb 06 fc 33 bd 8e ad 6f be 57 7b ab 3d
       -0.0064408896 -0.04394152 -0.2340605 0.083731346
000020 cd cc 13 bc 6d 32 25 be 6a 35 fd 3e ea 39 31 3e
       -0.009020996 -0.16132517 0.49454814 0.17307249
000030 5c 87 c1 3e 13 74 89 3e 9e 77 7e c2 67 ed 84 c2
       0.37798584 0.2684637 -63.616814 -66.46368
000040 79 3c 80 3f 76 17 fe 3c 68 14 01 bc 24 06 77 bd
       1.0018455 0.031017046 -0.0078784 -0.06030859
000050 7c 90 42 bf 22 be be bd 3e dd d4 3a 96 5d 73 bd
       -0.76001716 -0.09313609 0.0016240252 -0.059415422
000060 2b 78 85 3f 59 72 be 3e 57 78 58 3f 4b 7b 9a be
       1.0427297 0.37196615 0.84558624 -0.3017219
000070 73 5c ff 3d 0c 3e e0 bd 57 a9 3c bf 4d 97 9b be
       0.12468805 -0.109493345 -0.7369589 -0.3038887
000080 17 16 18 3c 98 cc 33 3e 30 4d 71 bf 29 39 8b 3d
       0.00928261 0.17558515 -0.94258404 0.06798012
000090 25 8c 59 3d 76 c9 2f 3c 74 55 4f bc 95 14 c0 be
       0.053112168 0.010729184 -0.012654651 -0.37515703
0000a0 5b 6f f1 be 31 c9 28 bf 69 2e 84 c2 aa 7d 90 c2
       -0.4715527 -0.65931994 -66.090645 -72.24544
0000b0 f5 fd 96 be f3 76 37 be 7f b4 37 3c 14 87 a6 3e
       -0.2949063 -0.1791647 0.011212467 0.3252493
0000c0 8d fe 66 bf 96 f8 00 3d 0c ec a8 3c 53 7c 60 3d
       -0.90232164 0.03148707 0.020620368 0.054806065
0000d0 26 4c 72 be 9f f1 07 bf 9b b1 94 be 0d c5 ab 3d
       -0.23661861 -0.5310306 -0.29041752 0.08387194
0000e0 d3 db 5d 3e 17 a1 a8 3e a2 e6 10 bf 31 ec 60 3e
       0.21665888 0.32935402 -0.5660192 0.219651
0000f0 8a 79 a0 3e 51 7d d1 3e 25 42 51 bf c6 f2 af be
       0.31342727 0.4091592 -0.81741554 -0.3436491
000100 d2 19 dd 3d cb a2 21 3f 60 c7 0a bf 54 57 1f bf
       0.107959405 0.6313903 -0.5421047 -0.6224263
000110 9d b5 37 bf fe 0c 04 3e dd 91 d0 c0 16 0d 01 c1
       -0.71761495 0.12895581 -6.5178056 -8.065695
000120 6c b7 94 c0 1c 94 a5 3e 7b 24 87 3c 95 51 0f 3f
       -4.6473904 0.3233956 0.016496887 0.5598386
000130 22 25 f1 3f 75 91 f7 be e6 03 db 3e 4f f2 d7 3e
       1.8839457 -0.48353162 0.42776412 0.42177054
000140 86 eb fb 3f 6f 1b 0a c0 6c be 04 c0 7b 96 e9 be
       1.9681251 -2.1579244 -2.0741224 -0.4562262
000150 e6 78 11 3f 68 6a 45 3e c3 c9 94 be 6f 91 ed 3e
       0.568251 0.19278872 -0.29060182 0.4640002
000160 1c 7b bc be 89 fc d6 bd c5 df 49 be fa 7b 8e bd
       -0.36812675 -0.10497386 -0.19714268 -0.069572404
000170 6c 97 4e 3c 87 a2 f4 be 17 91 3b 40 7b fe c0 3e
       0.012609344 -0.4778025 2.9307306 0.37694153
000180 07 34 e1 3f 3e 61 c2 3f 86 db 92 c0 ac f5 5d 40
       1.7594002 1.5185926 -4.5892973 3.4681196
000190 31 da d8 3d ed f5 02 3f 6f 20 03 be c6 03 1f be
       0.10588492 0.511565 -0.12805341 -0.15528783
0001a0 f5 00 83 3f 62 3c 8d 3e a8 b8 43 bf 77 56 17 bf
       1.0234667 0.2758513 -0.7645364 -0.5911631
0001b0 a6 d6 af c0 07 cf 92 bf b5 f0 40 bf 9b b8 8f c0
       -5.494952 -1.146943 -0.7536729 -4.491285
0001c0 de d4 11 bd f5 dc 8c 3d 54 91 fb 3c a6 c8 5f 3e
       -0.035603397 0.06878082 0.030708946 0.21853885
0001d0 e9 d5 e6 3c ad d5 8c be 3a 09 c2 be da 18 e3 bd
       0.028178172 -0.27506772 -0.37897664 -0.110887244
0001e0 58 3e a2 bc 7a 70 19 3f f8 e1 4a 3e 0e d3 91 3e
       -0.019805118 0.5993725 0.19812763 0.28481334
0001f0 78 5c 15 3d 98 04 19 bf 99 27 66 40 ce a4 9b 40
       0.03646514 -0.59772635 3.5961668 4.8638678
000200 71 f0 95 3f 22 e9 51 3e 0a f5 17 3c 8f e0 c3 bd
       1.1714002 0.2049909 0.00927473 -0.095643155
000210 63 fc 91 3e 13 66 19 bd 1d aa 49 bd 0d 9d 45 3f
       0.28512868 -0.03745086 -0.0492345 0.77192765
000220 5f 6e 09 c0 cd cb de 3e 8b 71 9c 3f 16 e4 4e bf
       -2.1473615 0.43514863 1.222215 -0.8081678
000230 8f e6 1b 3f 36 7d 0e 3f cf c6 a6 40 19 c8 83 be
       0.6089868 0.55659807 5.2117686 -0.257386
000240 19 4b 10 3e 44 06 3e 3f 97 81 a0 40 7a 98 a0 bd
       0.14091147 0.7422831 5.015819 -0.078415826
000250 6e 51 45 3e 61 17 b3 3f 3f 44 97 40 f0 38 96 40
       0.19269344 1.399151 4.727081 4.6944504
000260 c1 1d 90 40 19 24 9e 40 87 c4 85 c2 31 6a 8f c2
       4.503632 4.9419065 -66.88384 -71.707405
000270 a7 46 4a 40 90 fc 8a 3f 2d c6 85 be 30 c9 b5 3f
       3.1605623 1.0858326 -0.2612776 1.4202023
000280 a7 a4 89 bd 07 04 94 3f c0 45 68 be 57 60 07 40
       -0.06720858 1.1563729 -0.22682858 2.115255
000290 ee e3 84 40 2f 18 72 40 35 a6 56 40 96 ca c3 40
       4.1528234 3.782726 3.3538945 6.1184797
0002a0 c0 6b b3 3c 45 cc 4a be 7c cf 23 bb b7 09 e8 3e
       0.021901965 -0.19804485 -0.0024995496 0.45319912
0002b0 97 be c9 3b 3b e1 1a 3e 52 5c a5 3e 87 dc 90 3a
       0.0061567533 0.15124981 0.32296997 0.001105205
0002c0 0c 65 09 3d 8b db ca 3e de ac cf 3d a4 f9 53 bf
       0.03354363 0.39620623 0.10140394 -0.82802796
0002d0 1a 29 1e bf 91 de 17 bf 65 7d 91 41 51 28 7c 41
       -0.61781466 -0.59323984 18.186228 15.759843
0002e0 3b 99 58 40 ed 4c ad 3e fa 45 95 bc 2e 2d b8 be
       3.3843524 0.33847752 -0.018221844 -0.3597197
0002f0 61 7c f7 3e 26 28 da bc a2 05 82 bc 34 b6 cb 3e
       0.4833708 -0.026630472 -0.015871827 0.39787447
000300 3b 40 3f bf 4a 4b 46 bd cd 65 54 3f 42 ec 8d 3f
       -0.7470738 -0.048411645 0.82967836 1.1087725
000310 32 8a bc 3c 83 ba 76 bd f5 19 65 3e a8 45 89 bc
       0.023015115 -0.060236465 0.22373183 -0.016756848
000320 c0 b0 1c bb f3 46 a2 bd f7 9a 0c 3f 27 51 28 3c
       -0.0023909062 -0.07923689 0.5492396 0.0102732545
000330 d5 ad b8 bb a7 2a 4d bd 8a b1 a0 bd 2b 7b 3b 3e
       -0.005635957 -0.050089505 -0.07846363 0.18308704
000340 36 a9 e4 3e bb d7 d0 bd b0 7f 98 42 67 30 86 42
       0.44660348 -0.10197397 76.24939 67.094536
000350 ca 6d b0 be 47 79 20 3d 1e 12 bc 3b 72 d5 04 bd
       -0.34458762 0.03917816 0.0057394644 -0.03243012
000360 24 6e b2 3e cb 6a 17 3d b8 08 ab ba bb b7 07 bd
       0.34849656 0.03696708 -0.0013048863 -0.033134203
000370 b9 40 07 be 2c 77 f4 3c 70 40 17 3f f4 bf 0f bd
       -0.13208283 0.029841982 0.590827 -0.03509517
000380 56 6e bd be 08 c7 12 be e8 89 c5 3e 66 9b 6d be
       -0.36998242 -0.14333737 0.38581777 -0.23203811
000390 09 a7 5f 3c 74 ea 61 be 4d d8 55 3f d5 b5 e5 3d
       0.013650664 -0.22062093 0.83533174 0.11216322
0003a0 ca 32 7c bf d9 4e 0a 3f 80 b7 3d 3f e7 3f bb 3d
       -0.98515 0.5402656 0.74108124 0.09143048
0003b0 c5 80 4a 3f 46 5b 23 be 90 1b 8d c1 33 3d 85 c1
       0.79102737 -0.15952787 -17.638458 -16.654882
0003c0 14 45 d1 bf 7a 75 96 3d 80 f5 2b 3d 5b ce a0 be
       -1.6349206 0.073466256 0.041982174 -0.31407437
0003d0 8b 21 c7 bf 87 ad fe 3c d3 8e 04 bf 03 ec ab 3e
       -1.5557112 0.031088604 -0.5178043 0.335785
0003e0 d0 a2 1c 40 b9 3f ca 40 08 28 de bf 95 73 6a c0
       2.4474373 6.3202786 -1.7355967 -3.6633046
0003f0 6f bb c0 3f d5 82 b0 3f 87 d8 e6 bf 04 29 f4 bf
       1.50572 1.3789927 -1.8034829 -1.9075017

encoder.conv0.k.bias f4 [32]
000000 2b d1 81 3e 0c 6e 88 bd e6 65 37 bf 19 c0 ad bf
       0.25354895 -0.06661615 -0.7163986 -1.3574249
000010 95 1e 03 3e 3a 73 c8 40 02 1e 41 3f d4 3c 5f bf
       0.12804635 6.2640657 0.75436413 -0.8720219
000020 9f fb 5d 3f c3 05 92 be 8e bc 72 3e b7 0a 16 be
       0.8671207 -0.2852002 0.2370474 -0.14652525
000030 76 de f2 3c 61 63 c2 3f 8f c4 1b c0 42 90 3b bf
       0.029647093 1.5186578 -2.433872 -0.73266995
000040 c0 58 44 40 1b 87 8f 3f 1f c4 ad bf fb d7 36 3f
       3.0679169 1.1213106 -1.3575476 0.7142331
000050 86 cc e6 3f e3 f9 41 bf 83 4b 22 3f 02 b4 82 bf
       1.8031166 -0.7577192 0.6339647 -1.0211184
000060 c6 4e d3 be 64 70 2c 3f 19 5d be be ce 80 ee 3f
       -0.41271037 0.67358994 -0.37180403 1.8633058
000070 5c d1 28 3f 7b 3a 9c 3f bb 46 d2 bf a8 2c 83 bf
       0.6594446 1.2205347 -1.6427835 -1.0248003

encoder.conv0.v.weight f4 [32, 28]
000000 1a 7d 4f bc 7d 95 74 3e 41 a6 c1 bf 1f 4d a4 be
       -0.012664104 0.2388515 -1.5128862 -0.3209009
000010 3f 0c ad 3c 30 d6 c8 be 08 db 85 bf e6 aa 89 3e
       0.021124003 -0.39225912 -1.0457468 0.26888198
000020 6b b9 29 3d 4e b0 d1 be 68 8c a5 bf cf 5e f2 bf
       0.041436594 -0.40954822 -1.2933474 -1.8935183
000030 42 f9 0e c0 44 61 0d c0 29 0f 2c 42 05 fb 34 42
       -2.2339635 -2.2090616 43.014805 45.245136
000040 69 af 1a c1 0f 8c 81 3e a3 11 9e 3d f9 1e a8 3d
       -9.667825 0.2530217 0.07718208 0.082090326
000050 7c 32 fb 3e 87 86 26 3f 9f d5 4a 3e b1 8d 9a bd
       0.49061954 0.6504902 0.19808052 -0.07546557
000060 17 f8 87 3f d0 f6 12 c0 78 d4 4b c0 c2 1e 81 c0
       1.0622586 -2.2963142 -3.184843 -4.0350046
000070 6f 46 e3 bd 70 d7 26 3e 1e 52 50 3f 53 56 2e 3c
       -0.110974185 0.1629312 0.813753 0.0106406985
000080 43 7b fa 3a 0e c8 1d 3d 77 58 b1 3f 91 89 1f 3d
       0.0019110221 0.038520865 1.3855122 0.038949553
000090 75 f2 06 3c 55 4f 1b 3c f6 36 f2 be b6 3b ea 3e
       0.008236517 0.009479363 -0.47307557 0.4574868
0000a0 17 b1 58 3f b4 e5 c5 3f ae d5 cc c0 4b 13 f6 c0
       0.8464522 1.5460725 -6.401084 -7.689855
0000b0 d2 4b 35 bd ac 7a e8 bc f4 fb c7 ba c1 2b 90 3b
       -0.04426176 -0.028378807 -0.0015257583 0.004399747
0000c0 e9 29 7d 3e 5e 99 8a bc 80 b4 5c 3c 02 37 8d bc
       0.24723019 -0.016918834 0.013470769 -0.017238144
0000d0 16 08 a2 bf e4 7e 61 3f db eb 48 3f a3 e0 eb 3e
       -1.2658718 0.88084245 0.78484887 0.46069822
0000e0 37 c9 af 3e 52 72 cc 3c ed 57 8c bf a3 a5 ea 3d
       0.34333202 0.024956856 -1.0964333 0.11457374
0000f0 38 9a a1 bd 37 6c dc 3e 41 a2 96 bf 63 cb 16 c0
       -0.07890743 0.4305131 -1.1768266 -2.3561637
000100 43 64 c4 be ba 41 b3 3d 0d 6f f2 bf 2b f2 c7 bf
       -0.38357744 0.08752771 -1.894014 -1.5620779
000110 49 74 84 bf 8b 50 af bf c9 8a 48 3f e7 d6 bb 3f
       -1.0347987 -1.3696455 0.7833677 1.4674958
000120 d3 a7 93 3f e7 72 2a ba 66 41 83 bb 06 d3 12 bf
       1.1535591 -0.0006502107 -0.004005599 -0.57353246
000130 73 41 11 3f 5f 2e 8a bd 17 96 ba bd df a3 07 bf
       0.5674049 -0.06747126 -0.091106586 -0.5298442
000140 70 d1 2b c0 75 70 14 be 27 a5 d5 3f db 89 3a 3f
       -2.684658 -0.14496024 1.6691025 0.728666
000150 0c ef b0 3e ce 04 f8 3e 04 4c 2f be 70 ef d4 bf
       0.34557378 0.48441166 -0.17118841 -1.663557
000160 26 b1 01 bf ea 76 7e be 3a ec 3f bf 3e 2a 38 3e
       -0.5066093 -0.2485005 -0.7496983 0.17984864
000170 9a d7 33 be 9d 8c 6b 3d 96 3d dc bf 4c 4b e3 be
       -0.17562714 0.057507146 -1.7206295 -0.44393384
000180 28 08 7f bf 9d f4 81 be 0c 0c 7a c1 3b 5b 34 c1
       -0.9962182 -0.25381938 -15.627941 -11.272273
000190 97 01 05 41 b2 90 2b bf ef 5f 98 3e 1b fe 29 c0
       8.312888 -0.6701766 0.29760692 -2.6561344
0001a0 0a 03 c0 bf e3 46 a8 3e 23 8f 64 3f e7 82 a1 bf
       -1.5000927 0.32866582 0.8928091 -1.2618073
0001b0 8d df ca 40 64 41 20 40 63 90 95 40 70 06 34 40
       6.339789 2.5039911 4.6738753 2.812893
0001c0 c1 ec c8 3e af 9b 8c 3e 8a 08 b4 bf c8 76 00 3f
       0.3924313 0.27462527 -1.4065106 0.50181246
0001d0 a8 ff 75 bd d3 59 2e 3f 02 00 50 bf 0c 63 d0 3e
       -0.060058266 0.6810581 -0.8125001 0.40700567
0001e0 7d 24 67 bd 5a 67 b8 3e dc 77 89 bf c4 fd 26 bf
       -0.056431282 0.3601635 -1.0739703 -0.65230966
0001f0 89 aa fc be 6f d1 f2 be 79 71 ca c1 ff e5 c9 c1
       -0.49348858 -0.4742541 -25.305407 -25.237303
000200 1a 5f 81 bf 81 c3 9e bc db f6 3c bd 9c 93 fd 3e
       -1.0107148 -0.019380333 -0.046133857 0.4952668
000210 13 80 82 40 fe c5 67 3e 13 3e b5 bd 5f 19 f4 bb
       4.078134 0.22634122 -0.0884973 -0.0074493135
000220 71 c3 8c c0 2f 62 84 40 ab b8 25 40 14 69 dd c0
       -4.3988576 4.1369853 2.5893962 -6.919077
000230 10 64 05 bc ed 15 92 3d 85 be b3 bf eb c2 32 bc
       -0.008141533 0.07133088 -1.4042517 -0.01091073
000240 bb 30 26 3d c6 96 93 bd 12 15 8b bf 56 7c 9f bb
       0.040573817 -0.07206492 -1.0865805 -0.004867117
000250 d1 4b 09 3d 7e b5 ba 3d 13 83 e3 3e 52 9e eb 3e
       0.03351957 0.09116648 0.4443594 0.46019226
000260 16 27 43 bf f2 7d 1e bd 59 c9 34 42 f8 e9 3b 42
       -0.76231515 -0.03869433 45.19663 46.978485
000270 0c 9c 8d bf 1e 2f c5 bd df ab e9 bb 26 4c e8 bd
       -1.1063247 -0.096281275 -0.0071310843 -0.11342649
000280 60 41 b6 3e 32 d9 a0 3c dd 5d 94 3c da 3d df bd
       0.35596752 0.019634817 0.018111164 -0.10900469
000290 39 07 73 3f 8d 22 18 3e 72 1c 35 bf fe d9 5c bd
       0.94932896 0.1485693 -0.7074653 -0.05391883
0002a0 85 ee 5e be 63 46 0f 3c 10 c7 94 3f 09 27 b4 3d
       -0.21770675 0.008744809 1.1623249 0.08796508
0002b0 83 c7 a8 3c 33 2b 21 be 0a 89 88 3f b9 aa c4 bd
       0.020602947 -0.15739135 1.0666821 -0.09602875
0002c0 10 e3 52 3c 5b 66 8d 3d 29 6c 87 3c e1 cc 9c be
       0.012871519 0.069042884 0.016531067 -0.3062506
0002d0 bc d4 24 3f 44 0c fa 3e a7 e5 89 c1 9b 53 37 c1
       0.64387107 0.48837483 -17.237135 -11.4579115
0002e0 cc 24 c9 bf 82 60 06 3d 7b 5a 5a 3c 3f a0 f3 bd
       -1.5714355 0.03280688 0.013327236 -0.11895799
0002f0 2b 59 bb 3f a3 35 c2 bd 3b bd a1 39 8a 86 fc 3d
       1.4636587 -0.09482887 0.000308493 0.12330349
000300 54 20 75 3e 6a e1 5c bf 3e a6 a1 3d 0e 9a 83 be
       0.23938113 -0.86281455 0.07893036 -0.25703472
000310 55 e1 2e bd a7 58 f8 bb b9 6c 06 3f 0c 07 3f 3d
       -0.042695362 -0.0075789276 0.5250965 0.04663758
000320 9f 44 af ba 9a df 81 bc d7 de bb 3f ea 38 f7 3c
       -0.0013371891 -0.015853692 1.467738 0.030178506
000330 b3 bf f0 ba f0 43 02 bc 28 d1 52 bf 39 f8 c4 3e
       -0.0018367678 -0.007950768 -0.823504 0.3847063
000340 b1 08 1e 3f 2e 65 c6 3f fd 0c f6 bf 59 fb c0 3f
       0.6173201 1.5499628 -1.9222714 1.5076705
000350 1f 67 e4 ba 07 b6 56 bc 4e ce 41 3b 09 2c e9 bc
       -0.0017425752 -0.013104922 0.002957243 -0.02846338
000360 d9 62 92 3f d5 1c cd 3c 36 3e 97 bb f3 c8 1a bd
       1.1436416 0.025038162 -0.0046155704 -0.037789296
000370 b9 32 95 be f2 60 a8 3e a7 7b 50 be d2 e5 3b 3f
       -0.2914026 0.32886463 -0.2035967 0.7339755
000380 8f 60 ce 3d ec 9a b5 3d 6b 27 33 bd f0 cf de bd
       0.10077011 0.0886744 -0.043738764 -0.10879505
000390 da 09 a2 3c d2 ca ff 3d ee 6e d6 be 65 18 d5 bd
       0.019780088 0.12489857 -0.41881508 -0.104050435
0003a0 8d 20 0b 3d aa 31 77 be 9a d4 67 be 52 9d 2c bf
       0.03396659 -0.24140039 -0.22639695 -0.6742755
0003b0 75 d3 d3 be 90 44 ac be ca 60 a6 c1 da f4 9f c1
       -0.41372266 -0.3364606 -20.79726 -19.994556
0003c0 ef c5 6b 3e fe 10 14 be b2 18 24 bc 48 3a 00 3e
       0.23024724 -0.14459607 -0.010015653 0.12522233
0003d0 af 4c c4 bf 66 b2 2b 3c bb c1 99 3c d7 3d 00 be
       -1.5335902 0.010479545 0.018769136 -0.1252359
0003e0 89 54 06 40 bd 93 e6 bf f5 fe c5 bf 48 80 07 bf
       2.0989096 -1.8013836 -1.5468432 -0.52930117
0003f0 a4 01 09 3e f9 26 22 3e 97 17 42 bf 64 4b fa bf
       0.13379532 0.1583518 -0.75817245 -1.9554257

encoder.conv0.v.bias f4 [32]
000000 43 25 58 be 85 a8 f1 bf 8e 0f fc bf 20 3f 44 bf
       -0.21107964 -1.8879553 -1.9692247 -0.7665882
000010 07 8f c2 bf 14 e1 dc be 5b 9a 86 3e 06 aa 32 bf
       -1.5199898 -0.4314047 0.2628964 -0.69790685
000020 92 d9 31 3e f3 76 8c be 9f 10 1d bf 5e 22 a8 3e
       0.17368153 -0.274345 -0.61353487 0.3283872
000030 fd 5c ae bf d6 8f 74 bf b3 cd 22 bf 6f b0 51 bf
       -1.3622128 -0.95531976 -0.6359512 -0.8190984
000040 76 23 33 bf df 30 6e 3f 63 0d ad bf bb 1e 10 bf
       -0.69975984 0.9304332 -1.351971 -0.5629689
000050 0a 45 fb 3e b6 b7 13 bf 9c fe 7d be 3b ce 0b 3f
       0.4907611 -0.57702196 -0.24804157 0.5461156
000060 bb 6a d2 3f 4b 2b 84 bf 97 0e 78 bf 47 7e 48 bf
       1.6438822 -1.0325712 -0.9689726 -0.78317684
000070 35 36 8f bf bb c1 9f bf 50 81 6e 40 62 77 a3 3f
       -1.1188418 -1.2480997 3.7266426 1.2770808

encoder.conv1.q.weight f4 [16, 64]
000000 d3 1b 44 3f 17 a0 a4 3f de ee 39 be 4d 2c 02 40
       0.76604956 1.2861356 -0.18157527 2.033954
000010 ed 6e 3d 3d 63 a6 c8 3f 10 6d 00 c0 20 a7 eb 3e
       0.046248365 1.5675777 -2.0066566 0.46025944
000020 5a 19 c4 3f 3b 81 81 bb 13 c4 0c 40 ec 68 f1 3f
       1.5320237 -0.003952173 2.1994674 1.8860145
000030 36 5e f7 bf 7e a1 a2 bf 70 9e 62 3e e5 4a f6 3f
       -1.9325626 -1.2705534 0.22130752 1.9241606
000040 1c b8 62 40 dd 99 68 40 db 78 22 3f 95 dc a0 3d
       3.5424871 3.634391 0.6346566 0.07854573
000050 eb 8c 6d bf 2b e2 80 c0 be 05 44 3f f7 12 a1 3f
       -0.9279315 -4.0276084 0.7657126 1.2583913
000060 9e f8 8e 3f c6 fa 5a c0 9e 0f ca bf 66 5a c5 3e
       1.1169622 -3.421556 -1.5786016 0.3854553
000070 73 42 be 40 4b 99 3c bf 10 0d af 3f bc 70 3f 40
       5.9456115 -0.73671407 1.3675861 2.9912558
000080 c1 ea 72 3c f2 33 b7 bf ea 16 ad 3f c3 02 14 40
       0.0148264775 -1.4312727 1.3522618 2.3126686
000090 32 39 e7 be 7d dc 40 3e 73 29 1c 40 4d fb cb bf
       -0.45160824 0.1883411 2.4400299 -1.5936066
0000a0 3b 41 b4 3e 7e 0e 89 3f 9c 30 f1 be c3 58 c0 3f
       0.35206017 1.0707548 -0.471074 1.5027088
0000b0 b2 d2 27 bf e3 ca 2c bf f4 e5 e2 3f d8 20 a4 3f
       -0.6555587 -0.6749708 1.7726426 1.2822523
0000c0 84 a8 61 40 27 76 37 bd cf ac a1 40 c0 de 51 3e
       3.5259104 -0.044790413 5.052345 0.20495129
0000d0 13 ef d5 3f fd 15 aa 3d 59 73 2f bf 70 2c 0f 3c
       1.6713585 0.08304975 -0.6853538 0.008738622
0000e0 26 33 ca 3f aa 24 29 bf 41 e6 cc bd 3d 64 07 3f
       1.5796859 -0.6607157 -0.10004855 0.52887326
0000f0 47 63 1e 40 72 a0 b5 3e 37 91 7b 3f f1 d1 94 3f
       2.4748094 0.35473973 0.98268455 1.1626569
000100 26 14 6b be 24 70 20 bf 7b 1c 1a 40 15 b3 89 3f
       -0.22956905 -0.62671113 2.4079883 1.0757776
000110 47 93 09 bf 47 90 c0 bd cd c3 8e 3f 9c 15 8a be
       -0.5374035 -0.09402519 1.1153504 -0.26969612
000120 75 bd 86 3e a3 12 5f c0 63 e7 00 3e 1e 2e af 3e
       0.2631642 -3.4855125 0.12588267 0.34214872
000130 50 d0 21 c0 d7 6f a3 c0 a3 12 97 bf 16 bd 04 c0
       -2.5283394 -5.1074023 -1.1802562 -2.074041
000140 51 cb aa 3e 4f 5c 07 c0 40 73 32 c0 a7 e0 04 be
       0.33358243 -2.115009 -2.7882843 -0.12976323
000150 2d 15 ba bf d8 2d 19 c0 ce 17 6b bf 35 ad 29 bf
       -1.4537712 -2.393423 -0.918332 -0.6627992
000160 13 e6 82 40 d5 e5 99 c0 31 b3 d8 bf 66 4d 9d bd
       4.090585 -4.8093057 -1.6929685 -0.07680778
000170 2d d5 88 3e 14 c7 85 bf 29 4e 3c 40 de ce 6b 40
       0.2672514 -1.0451379 2.9422705 3.6845012
000180 ef 57 ad be 94 f8 b3 ba d9 ca 0c 3f 3e a3 07 c0
       -0.3385615 -0.0013730698 0.5499702 -2.1193385
000190 80 39 15 bf 05 73 65 be 39 1b 00 3f 5b 73 7c 3f
       -0.58290863 -0.22407158 0.5004154 0.9861352
0001a0 e5 36 30 3e 6d b1 52 c0 0c 11 b1 3f 18 13 92 bd
       0.1720844 -3.2920792 1.3833327 -0.07132548
0001b0 7c 5a d7 bf cd f1 5c c0 eb b1 2b bf eb 02 aa bf
       -1.6824489 -3.4522583 -0.67068356 -1.328214
0001c0 c6 ec 4f bc d7 c3 0c bf e5 9f 13 c0 cb 8b 56 3e
       -0.0126907285 -0.5498633 -2.3066342 0.20951764
0001d0 68 4e a6 bf ec c1 81 c0 d0 a5 05 bf 56 dd fc 3d
       -1.2992678 -4.054922 -0.52206135 0.12346904
0001e0 a0 49 4c 40 78 32 7b c0 14 6c ef bf e1 11 a5 3e
       3.1919937 -3.9249554 -1.8704858 0.32240203
0001f0 fe e6 aa be ed 73 9c bd 64 74 2e 3f f9 dd e2 3f
       -0.33379358 -0.076392986 0.6814635 1.7723991
000200 b1 0b cf bf 0d 07 92 c0 4f 4e 4d 40 87 45 19 40
       -1.6175443 -4.5633607 3.2079046 2.3948686
000210 52 83 06 3d 01 ce 26 c0 1d 35 ff bf f4 17 29 be
       0.03284008 -2.6063235 -1.9938084 -0.16513044
000220 31 18 74 3f bf db a1 be 69 dd c0 bf db 59 26 40
       0.95349413 -0.31612965 -1.5067569 2.5992343
000230 dd 87 26 bf bb bd 9c bf e5 9e 99 c0 df 22 69 40
       -0.6505106 -1.2245401 -4.8006463 3.6427534
000240 3d c1 33 3f fd 64 f5 bf c7 94 80 3f f0 d6 86 3f
       0.70216733 -1.9171444 1.0045403 1.0534344
000250 97 ec 6b bf 32 f4 25 c0 13 3e 8c 3f c4 98 04 40
       -0.9215788 -2.5930295 1.0956444 2.071824
000260 cd 76 d7 bf 63 f6 36 3d d8 f9 ed bf dc 95 4d c0
       -1.683313 0.044668566 -1.8591871 -3.2122717
000270 ba 5d 19 40 4b 5c 2c be 1c f4 8a bf b0 24 c4 be
       2.3963456 -0.16832082 -1.0855746 -0.3830924
000280 ed e6 cb bf 53 d2 92 c0 91 4b d2 bf 44 2e 22 c0
       -1.5929848 -4.5881743 -1.6429311 -2.5340738
000290 cd 64 ba 40 22 cd ee bf 17 b7 70 40 b3 70 fa 3e
       5.824805 -1.8656352 3.761175 0.48914108
0002a0 71 51 38 40 7c ce 26 bf 4a 1d 07 be e0 18 33 40
       2.8799708 -0.6515882 -0.13194767 2.7983932
0002b0 be e7 ba 3f a3 1e 00 be 5a ee e1 3f 3b 9b 33 40
       1.4601972 -0.12511687 1.7650864 2.8063495
0002c0 65 02 ed bf aa 7b 94 bf 8b c9 a2 bf c9 bb 8f 3f
       -1.8516356 -1.1600239 -1.2717756 1.1229182
0002d0 d0 f9 56 bf 18 2d 1b 3f d7 35 40 3f d2 38 47 40
       -0.83974934 0.6061568 0.75082153 3.112843
0002e0 37 a3 20 bf 96 39 b6 3f 2f a7 c2 3e a1 49 18 c0
       -0.62749046 1.4236324 0.38018176 -2.379494
0002f0 b4 6f 4d 40 bc 43 f7 be a9 c6 8d 3d 20 52 15 c0
       3.2099428 -0.48293865 0.06922657 -2.3331375
000300 95 85 12 c0 48 f8 0d bd 44 df 13 be 33 e6 ab 3e
       -2.2894032 -0.034660608 -0.14440638 0.33574066
000310 47 8a f5 bd 8d f8 57 bf b2 6f eb bf b6 ff 70 c0
       -0.11989265 -0.84363633 -1.8393462 -3.7656074
000320 9d 25 01 3f e2 7d 61 3e 5f 45 cb 3e 01 10 55 bd
       0.5044802 0.22020677 0.39701363 -0.052017216
000330 a3 51 f9 bd c2 df 28 3e 16 0f 91 3e 20 b8 59 3e
       -0.12173774 0.16491607 0.28331822 0.21261644
000340 13 fd b1 3e 68 58 75 bf 4e ea 3c 3d 05 a8 82 c0
       0.34763393 -0.9583802 0.046121888 -4.08301
000350 cc 3e 22 3e fe 5d f3 be ab df 24 3f 42 14 e3 3e
       0.15844268 -0.47532648 0.6440379 0.44351393
000360 54 c1 a9 3d af f6 84 be 6c d7 10 be f4 65 0d be
       0.082888275 -0.25969455 -0.14144677 -0.13808423
000370 32 d8 5b 3f d9 e0 90 be b6 b2 ea be 5a 09 57 bf
       0.8587676 -0.28296545 -0.4583947 -0.83998644
000380 c4 0a 15 c0 eb 59 34 be a6 f0 93 be 39 28 5d 3e
       -2.328782 -0.17612426 -0.28894538 0.21597375
000390 64 bc dc 3e f8 65 4a bf dc 6c 38 c0 d0 dd 95 c0
       0.4311248 -0.7906184 -2.8816442 -4.6833267
0003a0 b6 a1 15 3f eb 45 49 3d 48 f1 10 bc d0 46 4e 3d
       0.58449876 0.049138945 -0.008846588 0.0503605
0003b0 dd 67 95 3e b4 c8 6f 3e 0e 9d 3c 3f aa 75 c0 3e
       0.29180804 0.23416406 0.73677146 0.3758977
0003c0 f6 00 8c bd 99 7d 21 bf e7 d6 07 bf 43 71 59 c0
       -0.06836121 -0.6308227 -0.5306229 -3.397538
0003d0 86 c5 e4 3d af 54 94 3e ac f9 d4 3e a2 dd 6d 3f
       0.11170487 0.28970858 0.41596735 0.9291631
0003e0 f5 84 2a be 72 83 ec be f4 9d 84 3e b8 2c 64 be
       -0.16652282 -0.46194035 0.2590176 -0.22282684
0003f0 a3 ce 9a 3f 49 d7 69 3d 43 71 a1 be 53 25 10 bf
       1.209431 0.057090078 -0.31531724 -0.5630695

encoder.conv1.q.bias f4 [16]
000000 0e 39 4d 3f 9e 4c 3a bf 94 88 a6 bf 9a dd 8c 3d
       0.80165184 -0.7277316 -1.301043 0.06878205
000010 9a e9 d7 3f a2 6f a2 bf 99 4c 4e 3e 8b 5e 52 bf
       1.6868165 -1.2690318 0.20146407 -0.8217551
000020 a5 d1 60 3e 6c cf 2f 3f 79 c1 80 c0 fe 88 fa 3f
       0.21954973 0.68675876 -4.0236173 1.9573057
000030 23 52 1e bf c9 4d f4 3e 4f 5b 6d bc 8d a2 6b 3f
       -0.6184408 0.47715595 -0.014487102 0.9204491

encoder.conv1.k.weight f4 [16, 64]
000000 2f 7a 12 3f 1c 73 0e 3d 8e 4c 09 be cf 0d 0c 3f
       0.5721769 0.034777746 -0.1340811 0.5470857
000010 c1 8d 47 bf 56 ad a8 3f d3 63 72 3e fa dc cc 3f
       -0.77950674 1.3177898 0.23670892 1.6004937
000020 e9 2a a9 3d 3e 18 bd bf 02 60 69 3f 2a a8 9e 3f
       0.082601376 -1.4773023 0.9116212 1.239507
000030 ca c1 2d bf 16 39 32 c0 40 49 31 3e e4 9a 74 3f
       -0.67873824 -2.7847342 0.17313099 0.95548844
000040 f0 7f 68 3f e5 5a a7 3f 8d 64 c8 bf 0f 71 7e 3c
       0.9082022 1.3074614 -1.5655686 0.015529885
000050 d3 6b b1 bf c8 9e d0 bf 1c ca a2 3e 25 39 fb 3e
       -1.386103 -1.6298456 0.31794822 0.49067035
000060 d5 af 06 40 ef 70 1a c0 7d f8 8a bf 19 fc 2f bd
       2.104482 -2.413143 -1.0857083 -0.04296503
000070 9d ef b0 3f 04 86 5b bf cc d6 e0 3f d2 43 56 40
       1.3823124 -0.85751367 1.7565551 3.3478894
000080 bd 62 23 3f 39 07 ba 3e 02 c7 4a 3f 44 b3 fe 3f
       0.6382254 0.36333635 0.7920991 1.9898458
000090 8d 36 c0 bf f2 61 69 3f 8c 60 5b 40 a5 bf e7 3f
       -1.5016648 0.9116508 3.4277678 1.810536
0000a0 f6 a1 55 3f 5f 53 53 bf 46 df 86 3f a6 95 8f 3f
       0.8345026 -0.8254909 1.0536888 1.1217544
0000b0 91 d8 1d bf d2 77 3f c0 8b 0b 6a be 69 38 ef be
       -0.6165858 -2.9916883 -0.22855966 -0.46722725
0000c0 df e4 05 3f a4 8f e0 3f 5e e9 c5 bf 17 d4 7d bf
       0.52302355 1.7543836 -1.5461843 -0.9915175
0000d0 16 3d 99 bf 90 f6 17 c0 00 0d 0a 3f 91 b6 cd 3f
       -1.1971767 -2.374424 0.53926086 1.607134
0000e0 51 a2 1a 40 39 ae df bf dc 69 50 bf 84 3c d5 bd
       2.416157 -1.7475044 -0.8141153 -0.10411933
0000f0 9b 6e 3e 3f a6 e3 a3 be d4 59 13 bd 14 70 f0 3f
       0.7438752 -0.3200962 -0.03597434 1.8784204
000100 4d 86 a8 be b0 f8 2c 3e b9 10 d7 bf fd d0 ae 3f
       -0.32914963 0.16891742 -1.6801978 1.3657528
000110 f1 ce 98 bf d2 d3 d1 3f 12 1a 22 40 39 9b a7 3f
       -1.1938154 1.6392767 2.5328412 1.3094245
000120 72 84 fc 3f d9 f4 62 c0 51 a7 ef 3d 01 08 9d 3f
       1.9727919 -3.5461943 0.11701835 1.2268068
000130 ad 9b 8c bf 0b 79 06 c0 f8 f3 77 bf 79 e8 4a c0
       -1.0985008 -2.1011379 -0.9685664 -3.170439
000140 90 6d 5b bf 23 17 91 3e 25 27 87 c0 bb f6 35 be
       -0.85714054 0.28337964 -4.2235284 -0.17769901
000150 03 cf 23 c0 af a8 82 c0 87 d2 ff be 32 81 07 be
       -2.55951 -4.0830913 -0.49965307 -0.13232878
000160 2a 22 79 40 c3 85 27 c0 b3 13 d1 bf 45 db b4 3d
       3.8927102 -2.6175392 -1.6334137 0.08830885
000170 62 71 31 be 49 c8 8c bf 8e b2 9d 3f fc ae 59 40
       -0.17328408 -1.0998622 1.2320116 3.4013052
000180 7d f7 36 be fb e9 95 be a3 37 88 3d f8 6a aa bf
       -0.17867847 -0.29280075 0.06651237 -1.3313894
000190 00 88 bf bd eb e4 b8 3a 92 c0 e6 be 8c d3 90 be
       -0.09352112 0.0014106309 -0.45068794 -0.28286397
0001a0 3c ac a0 3f c0 37 20 c0 8e 87 aa 3f c2 6c 10 3f
       1.2552562 -2.5034027 1.3322618 0.5641595
0001b0 de f4 49 bf 5f 02 c7 bf e3 d3 f0 be 44 6b dd bf
       -0.7888926 -1.5547599 -0.47036657 -1.729836
0001c0 61 c5 92 bf 52 8f 8e bf 5d 25 5d c0 b1 23 2c 3e
       -1.1466485 -1.1137488 -3.4554055 0.1681049
0001d0 bb 40 7b bf a2 e6 6f bf 66 6c 60 bf 80 9f 6b bf
       -0.98145646 -0.9371129 -0.876654 -0.9204025
0001e0 fa 65 a7 3f ce 30 4d c0 16 89 cf bd 1e 42 a5 bf
       1.3077996 -3.2061038 -0.10133569 -1.2910802
0001f0 60 a0 3f bf 32 20 ec bd f4 77 24 40 c2 58 69 40
       -0.7485409 -0.11529578 2.5698214 3.6460423
000200 be f7 34 40 33 29 4b 3f a5 1e 6a bf 97 7d b6 3e
       2.827621 0.7935974 -0.9145301 0.35642692
000210 fa 1b 0f 40 27 c1 fc 3f ac e3 5d 40 d5 55 88 40
       2.2360826 1.9746445 3.467021 4.2604775
000220 ce 88 86 bf 60 5c 02 bf ec 71 11 bf 1b 13 10 be
       -1.05105 -0.50922203 -0.56814456 -0.14069788
000230 63 bd 33 be 90 07 63 3f cc 1f 80 3f ff e1 96 bf
       -0.17552714 0.88683414 1.0009704 -1.1787719
000240 f2 90 97 be a8 65 62 3f 71 ab 50 3f 7e d4 94 40
       -0.29602772 0.88436365 0.815116 4.650939
000250 4c 05 a8 3e 9c d7 13 bf e3 2d b6 be e3 cb e0 be
       0.3281654 -0.5775087 -0.35581884 -0.43905553
000260 81 35 ac be e9 95 92 3e ec e4 ac 3e 44 2d 12 3d
       -0.3363457 0.28629997 0.33768404 0.0356877
000270 3e a5 b3 bf 9a 2a 76 bf 79 a5 0c bf b8 02 8f bf
       -1.4034803 -0.96158755 -0.5493999 -1.1172705
000280 00 25 a9 3f b8 fc d4 3e af 38 6d bf 3e 79 30 3f
       1.3214417 0.4159906 -0.9266462 0.68935
000290 27 b6 f2 3f 78 60 4e 3f 5a 05 1d 40 35 28 4f 40
       1.8961838 0.8061595 2.4534516 3.236829
0002a0 d5 b0 77 bf 76 af a6 bc 20 43 62 bf da 7e 45 3d
       -0.967542 -0.020347338 -0.88383675 0.04821668
0002b0 d6 d0 ce 3e e6 62 46 3f 29 b3 a6 3f 3b 18 89 bf
       0.40393704 0.7749466 1.3023425 -1.071052
0002c0 03 ca 55 bf 15 94 d4 3e 97 d2 4d 3d 1e 53 8e 40
       -0.8351137 0.41519228 0.050249662 4.447646
0002d0 18 eb 88 bd f2 1e 92 bd d6 af bc bb 27 70 0d 3f
       -0.066854656 -0.071348086 -0.005758266 0.55249256
0002e0 59 75 52 bf 36 d9 41 bf 02 3c 40 3f 08 0d dc bd
       -0.8221031 -0.7572206 0.75091565 -0.10744673
0002f0 a5 53 98 bf 68 6a fa be 2a 3f d2 be fd 8e 6a 3f
       -1.1900526 -0.48909307 -0.41063815 0.9162443
000300 97 7d c0 bf 85 11 ab bd 7d de d9 be 22 86 0e c0
       -1.5038327 -0.08352951 -0.42552558 -2.2269368
000310 3a 5b 58 40 2e 28 89 3e a2 9e 88 be 9c d2 41 40
       3.380568 0.26788467 -0.26683527 3.0284796
000320 da e4 6b bf 17 98 c7 bf 64 d0 0f c0 b8 a9 e0 be
       -0.92146075 -1.5593289 -2.2470942 -0.43879485
000330 dc f4 a8 bf f8 bb f2 3f 13 09 2f 3f 80 71 ab c0
       -1.3199725 1.8963614 0.6837322 -5.357605
000340 c2 bb 31 c0 5d f4 1a c0 e9 9f d0 3f d5 67 20 3d
       -2.7770848 -2.4211648 1.6298801 0.039161522
000350 28 5d bb 3e 05 85 0d bf da 6f 27 c0 61 12 a2 c0
       0.3659451 -0.55281097 -2.6162019 -5.0647435
000360 38 1d 66 c0 77 1a 80 c0 d5 49 80 bf 9e 85 72 bf
       -3.5955334 -4.0032306 -1.0022532 -0.94735134
000370 d6 9f ab c0 9b 18 43 c0 c1 3d b6 be 41 b0 29 3f
       -5.363261 -3.0483768 -0.3559399 0.6628457
000380 5a b4 47 bf 06 f2 8b 3e ea dd 65 bf 75 fa a1 be
       -0.7800957 0.27333087 -0.8979174 -0.31636396
000390 d1 b9 f0 bf 82 88 e8 bc 58 f3 07 3f 18 11 a2 c0
       -1.8806707 -0.028385404 0.5310569 -5.0645866
0003a0 74 20 9a c0 03 02 58 3f 17 33 a8 bf ec 0f 13 bf
       -4.8164616 0.8437807 -1.3140591 -0.5744617
0003b0 2d c0 d2 bf 1c 62 19 40 43 9c 1d bd e7 cb 4e c0
       -1.6464897 2.3966131 -0.0384791 -3.2311952
0003c0 ae cb c3 be 84 7b f4 3e 0a af 46 40 04 5e 7e bf
       -0.38241333 0.47750485 3.1044335 -0.99362206
0003d0 5f d2 08 40 28 00 b7 be 7d 8b 6a bf e4 2e 07 bf
       2.13784 -0.35742307 -0.9161909 -0.52805924
0003e0 05 50 46 c0 4c a6 b1 3e 6e 7b 58 c0 ae 3d da bf
       -3.098634 0.34697187 -3.3825336 -1.7050073
0003f0 c0 dc 8b 3f 22 bb cc bf f3 19 7e bf ea 86 c9 c0
       1.0926743 -1.5994608 -0.99258345 -6.297719

encoder.conv1.k.bias f4 [16]
000000 75 08 cd be 64 a1 c0 bf 71 d4 f4 bc 6f 42 e0 c0
       -0.40045515 -1.5049253 -0.029886456 -7.0081096
000010 d8 7f 77 3f 86 99 85 bf 91 35 b3 bf 55 d2 ed 3e
       0.9667945 -1.0437477 -1.4000722 0.46449533
000020 35 58 b7 bf 94 30 b3 be 2c b2 55 bf 43 1a 9f bf
       -1.4323794 -0.34998 -0.83474994 -1.242989
000030 37 b8 d1 3e be 2c 37 c0 8c 89 02 3f 0c 64 26 bf
       0.40960857 -2.8621058 0.5099113 -0.6499641

encoder.conv1.v.weight f4 [16, 64]
000000 e4 27 fe bd cc c5 0d be 59 75 07 40 83 06 36 40
       -0.12409952 -0.13844985 2.1165373 2.8441474
000010 54 f1 8a 3f 51 79 07 be c3 72 47 bf 3f 36 b8 3f
       1.0854897 -0.13229872 -0.7790949 1.4391555
000020 c4 11 91 bf da 70 48 c0 ec 59 e6 3f b7 93 89 3d
       -1.1333547 -3.131888 1.7996192 0.067176275
000030 16 d4 70 be 3e e1 e1 bf cc 6e 0d bf 90 bb 3c bf
       -0.23518404 -1.7646863 -0.5524719 -0.737237
000040 8d d9 cc 3f ba 18 97 3f 17 3a 30 bf 00 43 dd be
       1.6003891 1.1804421 -0.6883864 -0.4321518
000050 8c 44 0a c0 10 25 e0 c0 f4 54 97 bf 65 62 81 3f
       -2.1604338 -7.004524 -1.1822801 1.0108153
000060 dc a9 85 bf 96 7c 52 c0 7b b8 db be 10 fb 5c bf
       -1.0442462 -3.2888541 -0.42914185 -0.8632059
000070 10 70 00 40 2d 28 24 3e 9d 96 d3 3e f8 33 a7 3f
       2.0068398 0.16030951 0.41325846 1.3062735
000080 b5 cc 65 3f 49 a1 b2 bf 5d 00 6d bd 27 be f0 be
       0.89765483 -1.395547 -0.057861675 -0.47020075
000090 81 94 ca 3e 1e c6 e3 3f 61 ab 0b bf a4 52 29 40
       0.39566424 1.7794836 -0.5455838 2.645669
0000a0 6c 0b d7 bf f8 3d 18 c0 08 99 b1 be 41 23 30 40
       -1.6800361 -2.3787823 -0.34687066 2.7521517
0000b0 49 c6 b2 be 54 f1 06 be f9 cd 06 3f 04 68 a0 bf
       -0.34916905 -0.13177997 0.5265804 -1.2531743
0000c0 fc 21 02 40 c1 ce 0f 40 22 a9 90 bf 3c de 80 3e
       2.0333242 2.2469943 -1.1301615 0.2516955
0000d0 fc 42 c3 bf c1 fd 9b c0 60 dd 19 c0 2d 5c 8a 3e
       -1.5254817 -4.874726 -2.4041367 0.2702345
0000e0 55 98 7b bf 91 35 0e c0 e3 99 6a bf 08 14 1f be
       -0.98279315 -2.2220194 -0.9164106 -0.15534985
0000f0 b0 3c 46 bf ff b2 06 3e a2 08 bc bc c0 be 9d bf
       -0.7743635 0.13154219 -0.022953335 -1.2323837
000100 c0 71 19 c0 16 05 93 3e cc c9 e2 bf 37 35 c5 bf
       -2.3975677 0.28714818 -1.7717834 -1.5406865
000110 37 81 ca bf f3 47 46 c0 f9 a0 05 40 e3 67 d4 3f
       -1.5820683 -3.0981414 2.08795 1.6594204
000120 fc de 41 c0 e6 d7 4d 3f cb cf 04 c0 cf 78 5c be
       -3.029235 0.8040756 -2.0751827 -0.2153046
000130 d0 83 16 bf c1 13 ef be c3 d0 29 bf ea 17 a7 c0
       -0.5879488 -0.4669476 -0.6633417 -5.221669
000140 91 1a 98 bf 33 5b 1e bf fe 02 51 3f 8b fd 3a 3f
       -1.1883107 -0.6185791 0.8164519 0.73043126
000150 78 43 41 be cf 35 04 3f df 40 de bf 89 ed 0f c0
       -0.18873394 0.51644605 -1.7363547 -2.248873
000160 e6 61 03 3e 63 06 bb 3e 0b 78 f7 bf 28 6c e4 3d
       0.12830314 0.3652831 -1.9333509 0.11153442
000170 ee 05 29 c0 d6 83 5a 3e b7 f1 08 3f 39 52 38 3f
       -2.640987 0.21339354 0.5349383 0.7200046
000180 8e 64 16 c0 2e b7 cb be a4 e5 36 40 65 61 5c bf
       -2.3498874 -0.39788193 2.8577662 -0.8608611
000190 8e 24 da bf 2e b7 b4 c0 05 e6 76 3f c8 83 94 3f
       -1.7042406 -5.647361 0.9644473 1.1602716
0001a0 fe ec 0e c0 b1 0a 06 3f 6c ef 35 c0 de d2 c7 bf
       -2.2332149 0.52360064 -2.8427382 -1.5611227
0001b0 5a 80 11 bf b5 3b 89 be 06 03 44 bf fe c0 b3 c0
       -0.56836474 -0.26803365 -0.76567113 -5.6173086
0001c0 d7 20 d2 bf 20 12 72 bf f4 a6 c1 3f 3e 5f 13 3f
       -1.6416272 -0.94558907 1.5129075 0.57567203
0001d0 ac 60 d2 be c0 10 18 be b0 3b e6 bf 9e 39 d4 bf
       -0.4108938 -0.1485014 -1.7986965 -1.6580083
0001e0 cb 04 9c 3b fd 2e dd 3d 7b c3 a9 bf dc 45 a6 3e
       0.0047613136 0.10799978 -1.3262781 0.32475173
0001f0 ea e4 8f c0 5f b8 81 3f fe 95 0b 3f aa f3 40 40
       -4.4966936 1.013439 0.54525745 3.014872
000200 39 37 f8 bf 06 f0 8e bf 88 3b 20 40 f9 42 ea 3f
       -1.9391853 -1.1166999 2.5036335 1.8301688
000210 2f 2e 47 bf 35 b4 25 bf ac 02 85 40 a1 15 e7 bf
       -0.77804846 -0.647281 4.156576 -1.8053476
000220 e1 38 d1 c0 ea 46 37 be 66 2e 46 40 0d a1 72 be
       -6.538193 -0.17898145 3.096582 -0.23694248
000230 1c f6 0c bf de a7 07 c0 ce d8 76 40 52 c9 c8 bf
       -0.55063033 -2.1196208 3.8569827 -1.5686438
000240 ef a9 df 3f 96 15 69 c0 51 68 72 c0 0a 4e cf be
       1.7473735 -3.6419425 -3.787617 -0.40489227
000250 70 1b 77 3f 9a 86 a7 40 40 87 c2 bd 38 f1 e4 40
       0.9652624 5.235181 -0.09498453 7.1544456
000260 a0 99 bb 3f 6a 66 8e bf 71 f0 10 c0 a7 15 c3 3f
       1.4656258 -1.1125004 -2.2646754 1.5240983
000270 80 53 c5 40 4b c8 40 40 61 d9 46 3f 3b 6b 7b 40
       6.166443 3.012225 0.77675444 3.9284198
000280 2f bd 4f bf 4d c2 9d 3f e5 52 e8 3d 87 9a 67 40
       -0.81148046 1.2324921 0.11343936 3.6188066
000290 98 69 a3 c0 3f a8 6f c0 cb 59 99 c0 59 25 c1 bf
       -5.10664 -3.744644 -4.792211 -1.5089523
0002a0 62 ef 5e bf 48 bb f7 3f 6a e3 ba 40 0a d3 28 40
       -0.8708402 1.9354029 5.8402605 2.6378808
0002b0 91 65 f9 3c ca 47 b7 bf fe f1 37 3e e9 50 df 3e
       0.030443938 -1.4318783 0.17963406 0.43616417
0002c0 bc 57 2f 40 20 fc 3c 40 37 d5 72 3f 69 f0 b6 bf
       2.73973 2.9528885 0.9485659 -1.4292117
0002d0 cf 38 81 3c 37 4a 15 3c f2 e3 15 40 d5 33 3c 40
       0.015774159 0.0091119325 2.3420377 2.9406636
0002e0 72 74 7d 3f 50 82 da 3d 2e 3b e0 bf 83 69 36 40
       0.99005806 0.106693864 -1.751806 2.85019
0002f0 1e 35 56 40 d4 2f 79 bd 40 80 94 3f 6e 71 0e 40
       3.346992 -0.060836628 1.1601639 2.2256732
000300 97 f3 74 bf 76 ab 41 3f 56 be f4 3f 84 9b 93 be
       -0.9568419 0.75652254 1.9120586 -0.28829587
000310 75 f0 a3 3f d6 8d 28 3f 6d e8 48 40 51 e0 21 40
       1.2807757 0.65841424 3.1391861 2.5293162
000320 3e 35 32 c0 0c a5 27 bf 89 86 43 3f 00 ae 67 bf
       -2.7844996 -0.65486217 0.7637716 -0.9049988
000330 7e 0f 89 bf fe f6 43 bf 9a 78 95 3e d4 2d 11 c0
       -1.0707853 -0.76548755 0.29193574 -2.2684221
000340 fe a6 4d be 55 40 68 3f e3 24 f6 bf da f8 74 3d
       -0.20083234 0.9072316 -1.9230007 0.059807636
000350 82 28 0e 3f 3d 59 23 3f 3c c7 80 bf e9 46 ab 3f
       0.5553056 0.6380804 -1.0060802 1.3381015
000360 93 7c 15 3e 70 d3 a0 bd ff 61 14 3c 71 e4 39 bf
       0.14598303 -0.078528285 0.009056567 -0.726142
000370 1c ee 9f bf 21 45 58 be b7 6e d9 3c c4 b2 1e 40
       -1.249454 -0.2112012 0.02654205 2.479661
000380 e9 14 4e 3d 47 2c 85 3f 0d cf af 3d 34 ff 17 3e
       0.05031291 1.0404137 0.08584414 0.14843446
000390 48 a6 bd 3f 2f c6 8d 40 8c e8 15 40 d8 4a 18 40
       1.481637 4.4304423 2.3423185 2.379568
0003a0 c7 c0 31 c0 af 94 a4 be c5 9f c4 3f d9 2f 42 3f
       -2.7773912 -0.32144687 1.5361258 0.7585426
0003b0 62 8f 35 bf d7 4c 53 bf 84 01 2d 3f f2 65 bc bf
       -0.7092191 -0.82539123 0.6758044 -1.4718611
0003c0 a3 e7 9a 3e d0 d9 9d 3f c5 93 af bf 5b d8 22 3e
       0.3025485 1.2332096 -1.3716971 0.15902846
0003d0 79 7e 76 3f fa 6c 27 3f 8a b9 59 bf 1b 13 b3 3f
       0.9628673 0.6540066 -0.85048735 1.3990206
0003e0 33 18 f6 3e 0c e0 08 3f 92 2e af 3e 9a 87 80 bd
       0.48065338 0.5346687 0.34215218 -0.06275864
0003f0 fd c1 e1 bf 3d 0d 91 bf 42 31 2e be cf 18 be 3f
       -1.7637326 -1.1332165 -0.17010978 1.4851321

encoder.conv1.v.bias f4 [16]
000000 f5 03 a5 3f ce 29 4c bf bb b9 f4 40 99 26 ed be
       1.2891833 -0.7975129 7.647672 -0.4631851
000010 a0 65 be 3f c0 73 bb 3f fa 10 90 3e e0 3e 76 3f
       1.4874763 1.4644699 0.28137952 0.9618969
000020 17 ad bd 3f 13 65 d2 3f 45 37 8c 3e 52 c2 e3 bd
       1.4818448 1.6437095 0.27385917 -0.11121048
000030 59 80 09 40 8f 5c 98 40 92 60 81 3f 92 95 67 3e
       2.1484587 4.7612987 1.0107596 0.2261565
